[{"backend":"bpu","loc":"loc(fused<#hbdk.track<layerName = \"images_id_1\", layerId = 1, originalOps = 0, originalCycles = 1, originalOutputsShape = [<1, 640, 640, 3>]>>[\"images\"])","op":"%0 = \"hbir.image_convert\"(%arg0, %arg1) <{mode = #hbdk<ImageConvertMode NV12>}> : (tensor<1x640x640x1xui8>, tensor<1x320x320x2xui8>) -> tensor<1x640x640x3xsi8>","tensor_names":[{"data_type":"si8","tensor_name":""}]},{"backend":"external_cpu","choice_reason":"hbir.image_preprocess is not currently supported on bpu.","loc":"loc(fused<#hbdk.track<resultName = [\"images_calibrated\"], resultMap = [(d0, d1, d2, d3) -> (d0, d3, d1, d2)], resultType = [!qnt.uniform<si8:f32, 0.0078736357390880584>], layerName = \"images_id_2\", layerId = 2, originalOps = 0, originalCycles = 1, originalOutputsShape = [<1, 640, 640, 3>]>>[\"images\"])","op":"%1 = \"hbir.image_preprocess\"(%0) <{csc = #hbdk<CSCMode YUVBT601FULL2RGB>, divisor = 1 : i64, mean = [0.000000e+00, 0.000000e+00, 0.000000e+00], sd = [254.99999999999869, 254.99999999999869, 254.99999999999869]}> : (tensor<1x640x640x3xsi8>) -> tensor<1x640x640x3x!qnt.uniform<si8:f32, 0.0078736357390880584>>","tensor_names":[{"data_type":"si8","tensor_name":"images_calibrated"}]},{"backend":"bpu","loc":"loc(fused<#hbdk.track<resultName = [\"/model.0/conv/Conv_output_0_calibrated\"], resultMap = [(d0, d1, d2, d3) -> (d0, d3, d1, d2)], resultType = [!qnt.uniform<si8:f32, 1.8412899971008301>], layerName = \"/model.0/conv/Conv_id_10\", layerId = 10, originalOps = 176947200, originalCycles = 25600, originalOutputsShape = [<1, 320, 320, 32>]>>[\"/model.0/conv/Conv\"])","op":"%4 = \"hbir.conv\"(%1, %2, %3) <{channelLast = true, dilation = [1, 1], groupNum = 1 : i64, pad = [1, 1, 0, 0], stride = [2, 2]}> : (tensor<1x640x640x3x!qnt.uniform<si8:f32, 0.0078736357390880584>>, tensor<32x3x3x3x!qnt.uniform<si8:f32:0, {… >>, tensor<32xf32>) -> tensor<1x320x320x32x!qnt.uniform<si8:f32, 1.8412899971008301>>","tensor_names":[{"data_type":"si8","tensor_name":"/model.0/conv/Conv_output_0_calibrated"}]},{"backend":"null","loc":"loc(fused<#hbdk.track<resultName = [\"/model.0/conv/Conv_output_0_calibrated_/model.0/act/Mul_quantized_input\"], resultMap = [(d0, d1, d2, d3) -> (d0, d3, d1, d2)], layerName = \"/model.0/conv/Conv_output_0_calibrated_/model.0/act/Mul_HzQuantize_id_13\", layerId = 13, originalOps = 0, originalCycles = 1, originalOutputsShape = [<1, 32, 320, 320>]>>[\"/model.0/conv/Conv_output_0_calibrated_/model.0/act/Mul_HzQuantize\"])","op":"%5 = \"qnt.scast\"(%4) : (tensor<1x320x320x32x!qnt.uniform<si8:f32, 1.8412899971008301>>) -> tensor<1x320x320x32xsi8>","tensor_names":[{"data_type":"si8","tensor_name":"/model.0/conv/Conv_output_0_calibrated_/model.0/act/Mul_quantized_input"}]},{"backend":"bpu","loc":"loc(fused<#hbdk.track<resultName = [\"/model.0/act/Mul_output_0\"], resultMap = [(d0, d1, d2, d3) -> (d0, d3, d1, d2)], resultType = [!qnt.uniform<si8:f32, 1.7240455150604248>], layerName = \"/model.0/act/Mul_id_15\", layerId = 15, originalOps = 0, originalCycles = 25600, originalOutputsShape = [<1, 32, 320, 320>]>>[\"/model.0/act/Mul\"])","op":"%7 = \"b30.lut\"(%5, %6) <{instanceId = -1 : i64, mode = #hbdk<LutMode NONE>, roundMode = #hbdk<RoundMode ROUND>, saturate = true, symmetricMode = #hbdk<SymmetricMode ASYM>}> ({\n}) : (tensor<1x320x320x32xsi8>, tensor<512xsi8>) -> tensor<1x320x320x32xsi8>","tensor_names":[{"data_type":"si8","tensor_name":"/model.0/act/Mul_output_0"}]},{"backend":"null","loc":"loc(fused<#hbdk.track<resultName = [\"/model.0/act/Mul_output_0\"], resultMap = [(d0, d1, d2, d3) -> (d0, d3, d1, d2)], resultType = [!qnt.uniform<si8:f32, 1.7240455150604248>], layerName = \"/model.0/act/Mul_output_0_HzDequantize_id_16\", layerId = 16, originalOps = 0, originalCycles = 1, originalOutputsShape = [<1, 32, 320, 320>]>>[\"/model.0/act/Mul_output_0_HzDequantize\"])","op":"%8 = \"qnt.scast\"(%7) : (tensor<1x320x320x32xsi8>) -> tensor<1x320x320x32x!qnt.uniform<si8:f32, 1.7240455150604248>>","tensor_names":[{"data_type":"si8","tensor_name":"/model.0/act/Mul_output_0"}]},{"backend":"bpu","loc":"loc(fused<#hbdk.track<resultName = [\"/model.1/conv/Conv_output_0_calibrated\"], resultMap = [(d0, d1, d2, d3) -> (d0, d3, d1, d2)], resultType = [!qnt.uniform<si8:f32, 2.4563782215118408>], layerName = \"/model.1/conv/Conv_id_23\", layerId = 23, originalOps = 943718400, originalCycles = 28800, originalOutputsShape = [<1, 160, 160, 64>]>>[\"/model.1/conv/Conv\"])","op":"%11 = \"hbir.conv\"(%8, %9, %10) <{channelLast = true, dilation = [1, 1], groupNum = 1 : i64, pad = [1, 1, 0, 0], stride = [2, 2]}> : (tensor<1x320x320x32x!qnt.uniform<si8:f32, 1.7240455150604248>>, tensor<64x3x3x32x!qnt.uniform<si8:f32:0, {… >>, tensor<64xf32>) -> tensor<1x160x160x64x!qnt.uniform<si8:f32, 2.4563782215118408>>","tensor_names":[{"data_type":"si8","tensor_name":"/model.1/conv/Conv_output_0_calibrated"}]},{"backend":"null","loc":"loc(fused<#hbdk.track<resultName = [\"/model.1/conv/Conv_output_0_calibrated_/model.1/act/Mul_quantized_input\"], resultMap = [(d0, d1, d2, d3) -> (d0, d3, d1, d2)], layerName = \"/model.1/conv/Conv_output_0_calibrated_/model.1/act/Mul_HzQuantize_id_26\", layerId = 26, originalOps = 0, originalCycles = 1, originalOutputsShape = [<1, 64, 160, 160>]>>[\"/model.1/conv/Conv_output_0_calibrated_/model.1/act/Mul_HzQuantize\"])","op":"%12 = \"qnt.scast\"(%11) : (tensor<1x160x160x64x!qnt.uniform<si8:f32, 2.4563782215118408>>) -> tensor<1x160x160x64xsi8>","tensor_names":[{"data_type":"si8","tensor_name":"/model.1/conv/Conv_output_0_calibrated_/model.1/act/Mul_quantized_input"}]},{"backend":"bpu","loc":"loc(fused<#hbdk.track<resultName = [\"/model.1/act/Mul_output_0\"], resultMap = [(d0, d1, d2, d3) -> (d0, d3, d1, d2)], resultType = [!qnt.uniform<si8:f32, 1.1329320669174194>], layerName = \"/model.1/act/Mul_id_28\", layerId = 28, originalOps = 0, originalCycles = 12800, originalOutputsShape = [<1, 64, 160, 160>]>>[\"/model.1/act/Mul\"])","op":"%14 = \"b30.lut\"(%12, %13) <{instanceId = -1 : i64, mode = #hbdk<LutMode NONE>, roundMode = #hbdk<RoundMode ROUND>, saturate = true, symmetricMode = #hbdk<SymmetricMode ASYM>}> ({\n}) : (tensor<1x160x160x64xsi8>, tensor<512xsi8>) -> tensor<1x160x160x64xsi8>","tensor_names":[{"data_type":"si8","tensor_name":"/model.1/act/Mul_output_0"}]},{"backend":"null","loc":"loc(fused<#hbdk.track<resultName = [\"/model.1/act/Mul_output_0\"], resultMap = [(d0, d1, d2, d3) -> (d0, d3, d1, d2)], resultType = [!qnt.uniform<si8:f32, 1.1329320669174194>], layerName = \"/model.1/act/Mul_output_0_HzDequantize_id_29\", layerId = 29, originalOps = 0, originalCycles = 1, originalOutputsShape = [<1, 64, 160, 160>]>>[\"/model.1/act/Mul_output_0_HzDequantize\"])","op":"%15 = \"qnt.scast\"(%14) : (tensor<1x160x160x64xsi8>) -> tensor<1x160x160x64x!qnt.uniform<si8:f32, 1.1329320669174194>>","tensor_names":[{"data_type":"si8","tensor_name":"/model.1/act/Mul_output_0"}]},{"backend":"bpu","loc":"loc(fused<#hbdk.track<resultName = [\"/model.2/cv1/conv/Conv_output_0_calibrated\"], resultMap = [(d0, d1, d2, d3) -> (d0, d3, d1, d2)], resultType = [!qnt.uniform<si8:f32, 1.2174031734466553>], layerName = \"/model.2/cv1/conv/Conv_id_36\", layerId = 36, originalOps = 209715200, originalCycles = 12800, originalOutputsShape = [<1, 160, 160, 64>]>>[\"/model.2/cv1/conv/Conv\"])","op":"%18 = \"hbir.conv\"(%15, %16, %17) <{channelLast = true, dilation = [1, 1], groupNum = 1 : i64, pad = [0, 0, 0, 0], stride = [1, 1]}> : (tensor<1x160x160x64x!qnt.uniform<si8:f32, 1.1329320669174194>>, tensor<64x1x1x64x!qnt.uniform<si8:f32:0, {… >>, tensor<64xf32>) -> tensor<1x160x160x64x!qnt.uniform<si8:f32, 1.2174031734466553>>","tensor_names":[{"data_type":"si8","tensor_name":"/model.2/cv1/conv/Conv_output_0_calibrated"}]},{"backend":"null","loc":"loc(fused<#hbdk.track<resultName = [\"/model.2/cv1/conv/Conv_output_0_calibrated_/model.2/cv1/act/Mul_quantized_input\"], resultMap = [(d0, d1, d2, d3) -> (d0, d3, d1, d2)], layerName = \"/model.2/cv1/conv/Conv_output_0_calibrated_/model.2/cv1/act/Mul_HzQuantize_id_39\", layerId = 39, originalOps = 0, originalCycles = 1, originalOutputsShape = [<1, 64, 160, 160>]>>[\"/model.2/cv1/conv/Conv_output_0_calibrated_/model.2/cv1/act/Mul_HzQuantize\"])","op":"%19 = \"qnt.scast\"(%18) : (tensor<1x160x160x64x!qnt.uniform<si8:f32, 1.2174031734466553>>) -> tensor<1x160x160x64xsi8>","tensor_names":[{"data_type":"si8","tensor_name":"/model.2/cv1/conv/Conv_output_0_calibrated_/model.2/cv1/act/Mul_quantized_input"}]},{"backend":"bpu","loc":"loc(fused<#hbdk.track<resultName = [\"/model.2/cv1/act/Mul_output_0\"], resultMap = [(d0, d1, d2, d3) -> (d0, d3, d1, d2)], resultType = [!qnt.uniform<si8:f32, 0.16974392533302307>], layerName = \"/model.2/cv1/act/Mul_id_41\", layerId = 41, originalOps = 0, originalCycles = 12800, originalOutputsShape = [<1, 64, 160, 160>]>>[\"/model.2/cv1/act/Mul\"])","op":"%21 = \"b30.lut\"(%19, %20) <{instanceId = -1 : i64, mode = #hbdk<LutMode NONE>, roundMode = #hbdk<RoundMode ROUND>, saturate = true, symmetricMode = #hbdk<SymmetricMode ASYM>}> ({\n}) : (tensor<1x160x160x64xsi8>, tensor<512xsi8>) -> tensor<1x160x160x64xsi8>","tensor_names":[{"data_type":"si8","tensor_name":"/model.2/cv1/act/Mul_output_0"}]},{"backend":"null","loc":"loc(fused<#hbdk.track<resultName = [\"/model.2/cv1/act/Mul_output_0\"], resultMap = [(d0, d1, d2, d3) -> (d0, d3, d1, d2)], resultType = [!qnt.uniform<si8:f32, 0.16974392533302307>], layerName = \"/model.2/cv1/act/Mul_output_0_HzDequantize_id_42\", layerId = 42, originalOps = 0, originalCycles = 1, originalOutputsShape = [<1, 64, 160, 160>]>>[\"/model.2/cv1/act/Mul_output_0_HzDequantize\"])","op":"%22 = \"qnt.scast\"(%21) : (tensor<1x160x160x64xsi8>) -> tensor<1x160x160x64x!qnt.uniform<si8:f32, 0.16974392533302307>>","tensor_names":[{"data_type":"si8","tensor_name":"/model.2/cv1/act/Mul_output_0"}]},{"backend":"bpu","loc":"loc(fused<#hbdk.track<resultName = [\"/model.2/Split_output_0_calibrated\"], resultMap = [(d0, d1, d2, d3) -> (d0, d3, d1, d2)], resultType = [!qnt.uniform<si8:f32, 0.16974392533302307>], layerName = \"/model.2/Split_id_44\", layerId = 44, originalOps = 0, originalCycles = 10106, originalOutputsShape = [<1, 32, 160, 160>]>>[\"/model.2/Split\"])","op":"%23 = \"hbir.slice\"(%22) <{begin = [0, 0, 0, 0], end = [1, 160, 160, 32], foldable = true, step = [1, 1, 1, 1]}> : (tensor<1x160x160x64x!qnt.uniform<si8:f32, 0.16974392533302307>>) -> tensor<1x160x160x32x!qnt.uniform<si8:f32, 0.16974392533302307>>","tensor_names":[{"data_type":"si8","tensor_name":"/model.2/Split_output_0_calibrated"}]},{"backend":"null","loc":"loc(fused<#hbdk.track<resultName = [\"/model.2/cv1/act/Mul_output_0_calibrated\"], resultMap = [(d0, d1, d2, d3) -> (d0, d3, d1, d2)], resultType = [!qnt.uniform<si8:f32, 0.12559473514556885>], layerName = \"/model.2/cv1/act/Mul_output_0_HzCalibration_id_43\", layerId = 43, originalOps = 0, originalCycles = 1, originalOutputsShape = [<1, 64, 160, 160>]>>[\"/model.2/cv1/act/Mul_output_0_HzCalibration\"])","op":"%24 = \"qnt.rcast\"(%22) : (tensor<1x160x160x64x!qnt.uniform<si8:f32, 0.16974392533302307>>) -> tensor<1x160x160x64x!qnt.uniform<si8:f32, 0.12559473514556885>>","tensor_names":[{"data_type":"si8","tensor_name":"/model.2/cv1/act/Mul_output_0_calibrated"}]},{"backend":"bpu","loc":"loc(fused<#hbdk.track<resultName = [\"/model.2/Split_output_1_calibrated\"], resultMap = [(d0, d1, d2, d3) -> (d0, d3, d1, d2)], resultType = [!qnt.uniform<si8:f32, 0.12559473514556885>], layerName = \"/model.2/Split_id_45\", layerId = 45, originalOps = 0, originalCycles = 10106, originalOutputsShape = [<1, 32, 160, 160>]>>[\"/model.2/Split\"])","op":"%25 = \"hbir.slice\"(%24) <{begin = [0, 0, 0, 32], end = [1, 160, 160, 64], foldable = true, step = [1, 1, 1, 1]}> : (tensor<1x160x160x64x!qnt.uniform<si8:f32, 0.12559473514556885>>) -> tensor<1x160x160x32x!qnt.uniform<si8:f32, 0.12559473514556885>>","tensor_names":[{"data_type":"si8","tensor_name":"/model.2/Split_output_1_calibrated"}]},{"backend":"bpu","loc":"loc(fused<#hbdk.track<resultName = [\"/model.2/m.0/cv1/conv/Conv_output_0_calibrated\"], resultMap = [(d0, d1, d2, d3) -> (d0, d3, d1, d2)], resultType = [!qnt.uniform<si8:f32, 0.060358084738254547>], layerName = \"/model.2/m.0/cv1/conv/Conv_id_52\", layerId = 52, originalOps = 235929600, originalCycles = 7200, originalOutputsShape = [<1, 160, 160, 16>]>>[\"/model.2/m.0/cv1/conv/Conv\"])","op":"%28 = \"hbir.conv\"(%25, %26, %27) <{channelLast = true, dilation = [1, 1], groupNum = 1 : i64, pad = [1, 1, 1, 1], stride = [1, 1]}> : (tensor<1x160x160x32x!qnt.uniform<si8:f32, 0.12559473514556885>>, tensor<16x3x3x32x!qnt.uniform<si8:f32:0, {… >>, tensor<16xf32>) -> tensor<1x160x160x16x!qnt.uniform<si8:f32, 0.060358084738254547>>","tensor_names":[{"data_type":"si8","tensor_name":"/model.2/m.0/cv1/conv/Conv_output_0_calibrated"}]},{"backend":"null","loc":"loc(fused<#hbdk.track<resultName = [\"/model.2/m.0/cv1/conv/Conv_output_0_calibrated_/model.2/m.0/cv1/act/Mul_quantized_input\"], resultMap = [(d0, d1, d2, d3) -> (d0, d3, d1, d2)], layerName = \"/model.2/m.0/cv1/conv/Conv_output_0_calibrated_/model.2/m.0/cv1/act/Mul_HzQuantize_id_55\", layerId = 55, originalOps = 0, originalCycles = 1, originalOutputsShape = [<1, 16, 160, 160>]>>[\"/model.2/m.0/cv1/conv/Conv_output_0_calibrated_/model.2/m.0/cv1/act/Mul_HzQuantize\"])","op":"%29 = \"qnt.scast\"(%28) : (tensor<1x160x160x16x!qnt.uniform<si8:f32, 0.060358084738254547>>) -> tensor<1x160x160x16xsi8>","tensor_names":[{"data_type":"si8","tensor_name":"/model.2/m.0/cv1/conv/Conv_output_0_calibrated_/model.2/m.0/cv1/act/Mul_quantized_input"}]},{"backend":"bpu","loc":"loc(fused<#hbdk.track<resultName = [\"/model.2/m.0/cv1/act/Mul_output_0\"], resultMap = [(d0, d1, d2, d3) -> (d0, d3, d1, d2)], resultType = [!qnt.uniform<si8:f32, 0.049080148339271545>], layerName = \"/model.2/m.0/cv1/act/Mul_id_57\", layerId = 57, originalOps = 0, originalCycles = 3200, originalOutputsShape = [<1, 16, 160, 160>]>>[\"/model.2/m.0/cv1/act/Mul\"])","op":"%31 = \"b30.lut\"(%29, %30) <{instanceId = -1 : i64, mode = #hbdk<LutMode NONE>, roundMode = #hbdk<RoundMode ROUND>, saturate = true, symmetricMode = #hbdk<SymmetricMode ASYM>}> ({\n}) : (tensor<1x160x160x16xsi8>, tensor<512xsi8>) -> tensor<1x160x160x16xsi8>","tensor_names":[{"data_type":"si8","tensor_name":"/model.2/m.0/cv1/act/Mul_output_0"}]},{"backend":"null","loc":"loc(fused<#hbdk.track<resultName = [\"/model.2/m.0/cv1/act/Mul_output_0\"], resultMap = [(d0, d1, d2, d3) -> (d0, d3, d1, d2)], resultType = [!qnt.uniform<si8:f32, 0.049080148339271545>], layerName = \"/model.2/m.0/cv1/act/Mul_output_0_HzDequantize_id_58\", layerId = 58, originalOps = 0, originalCycles = 1, originalOutputsShape = [<1, 16, 160, 160>]>>[\"/model.2/m.0/cv1/act/Mul_output_0_HzDequantize\"])","op":"%32 = \"qnt.scast\"(%31) : (tensor<1x160x160x16xsi8>) -> tensor<1x160x160x16x!qnt.uniform<si8:f32, 0.049080148339271545>>","tensor_names":[{"data_type":"si8","tensor_name":"/model.2/m.0/cv1/act/Mul_output_0"}]},{"backend":"bpu","loc":"loc(fused<#hbdk.track<resultName = [\"/model.2/m.0/cv2/conv/Conv_output_0_calibrated\"], resultMap = [(d0, d1, d2, d3) -> (d0, d3, d1, d2)], resultType = [!qnt.uniform<si8:f32, 0.2202078253030777>], layerName = \"/model.2/m.0/cv2/conv/Conv_id_65\", layerId = 65, originalOps = 235929600, originalCycles = 7200, originalOutputsShape = [<1, 160, 160, 32>]>>[\"/model.2/m.0/cv2/conv/Conv\"])","op":"%35 = \"hbir.conv\"(%32, %33, %34) <{channelLast = true, dilation = [1, 1], groupNum = 1 : i64, pad = [1, 1, 1, 1], stride = [1, 1]}> : (tensor<1x160x160x16x!qnt.uniform<si8:f32, 0.049080148339271545>>, tensor<32x3x3x16x!qnt.uniform<si8:f32:0, {… >>, tensor<32xf32>) -> tensor<1x160x160x32x!qnt.uniform<si8:f32, 0.2202078253030777>>","tensor_names":[{"data_type":"si8","tensor_name":"/model.2/m.0/cv2/conv/Conv_output_0_calibrated"}]},{"backend":"null","loc":"loc(fused<#hbdk.track<resultName = [\"/model.2/m.0/cv2/conv/Conv_output_0_calibrated_/model.2/m.0/cv2/act/Mul_quantized_input\"], resultMap = [(d0, d1, d2, d3) -> (d0, d3, d1, d2)], layerName = \"/model.2/m.0/cv2/conv/Conv_output_0_calibrated_/model.2/m.0/cv2/act/Mul_HzQuantize_id_68\", layerId = 68, originalOps = 0, originalCycles = 1, originalOutputsShape = [<1, 32, 160, 160>]>>[\"/model.2/m.0/cv2/conv/Conv_output_0_calibrated_/model.2/m.0/cv2/act/Mul_HzQuantize\"])","op":"%36 = \"qnt.scast\"(%35) : (tensor<1x160x160x32x!qnt.uniform<si8:f32, 0.2202078253030777>>) -> tensor<1x160x160x32xsi8>","tensor_names":[{"data_type":"si8","tensor_name":"/model.2/m.0/cv2/conv/Conv_output_0_calibrated_/model.2/m.0/cv2/act/Mul_quantized_input"}]},{"backend":"bpu","loc":"loc(fused<#hbdk.track<resultName = [\"/model.2/m.0/cv2/act/Mul_output_0\"], resultMap = [(d0, d1, d2, d3) -> (d0, d3, d1, d2)], resultType = [!qnt.uniform<si8:f32, 0.14245222508907318>], layerName = \"/model.2/m.0/cv2/act/Mul_id_70\", layerId = 70, originalOps = 0, originalCycles = 6400, originalOutputsShape = [<1, 32, 160, 160>]>>[\"/model.2/m.0/cv2/act/Mul\"])","op":"%38 = \"b30.lut\"(%36, %37) <{instanceId = -1 : i64, mode = #hbdk<LutMode NONE>, roundMode = #hbdk<RoundMode ROUND>, saturate = true, symmetricMode = #hbdk<SymmetricMode ASYM>}> ({\n}) : (tensor<1x160x160x32xsi8>, tensor<512xsi8>) -> tensor<1x160x160x32xsi8>","tensor_names":[{"data_type":"si8","tensor_name":"/model.2/m.0/cv2/act/Mul_output_0"}]},{"backend":"null","loc":"loc(fused<#hbdk.track<resultName = [\"/model.2/m.0/cv2/act/Mul_output_0\"], resultMap = [(d0, d1, d2, d3) -> (d0, d3, d1, d2)], resultType = [!qnt.uniform<si8:f32, 0.14245222508907318>], layerName = \"/model.2/m.0/cv2/act/Mul_output_0_HzDequantize_id_71\", layerId = 71, originalOps = 0, originalCycles = 1, originalOutputsShape = [<1, 32, 160, 160>]>>[\"/model.2/m.0/cv2/act/Mul_output_0_HzDequantize\"])","op":"%39 = \"qnt.scast\"(%38) : (tensor<1x160x160x32xsi8>) -> tensor<1x160x160x32x!qnt.uniform<si8:f32, 0.14245222508907318>>","tensor_names":[{"data_type":"si8","tensor_name":"/model.2/m.0/cv2/act/Mul_output_0"}]},{"backend":"bpu","loc":"loc(fused<#hbdk.track<resultName = [\"/model.2/m.0/Add_output_0_calibrated\"], resultMap = [(d0, d1, d2, d3) -> (d0, d3, d1, d2)], resultType = [!qnt.uniform<si8:f32, 0.16707989573478699>], layerName = \"/model.2/m.0/Add_id_73\", layerId = 73, originalOps = 0, originalCycles = 12800, originalOutputsShape = [<1, 32, 160, 160>]>>[\"/model.2/m.0/Add\"])","op":"%40 = \"hbir.add\"(%25, %39) : (tensor<1x160x160x32x!qnt.uniform<si8:f32, 0.12559473514556885>>, tensor<1x160x160x32x!qnt.uniform<si8:f32, 0.14245222508907318>>) -> tensor<1x160x160x32x!qnt.uniform<si8:f32, 0.16707989573478699>>","tensor_names":[{"data_type":"si8","tensor_name":"/model.2/m.0/Add_output_0_calibrated"}]},{"backend":"null","loc":"loc(fused<#hbdk.track<resultName = [\"/model.2/Split_output_0_calibrated\"], resultMap = [(d0, d1, d2, d3) -> (d0, d3, d1, d2)], resultType = [!qnt.uniform<si8:f32, 0.16707989573478699>], layerName = \"/model.2/Split_output_0_HzCalibration_id_74\", layerId = 74, originalOps = 0, originalCycles = 1, originalOutputsShape = [<1, 32, 160, 160>]>>[\"/model.2/Split_output_0_HzCalibration\"])","op":"%41 = \"qnt.rcast\"(%23) : (tensor<1x160x160x32x!qnt.uniform<si8:f32, 0.16974392533302307>>) -> tensor<1x160x160x32x!qnt.uniform<si8:f32, 0.16707989573478699>>","tensor_names":[{"data_type":"si8","tensor_name":"/model.2/Split_output_0_calibrated"}]},{"backend":"null","loc":"loc(fused<#hbdk.track<resultName = [\"/model.2/Split_output_1_calibrated\"], resultMap = [(d0, d1, d2, d3) -> (d0, d3, d1, d2)], resultType = [!qnt.uniform<si8:f32, 0.16707989573478699>], layerName = \"/model.2/Split_output_1_HzCalibration_id_48\", layerId = 48, originalOps = 0, originalCycles = 1, originalOutputsShape = [<1, 32, 160, 160>]>>[\"/model.2/Split_output_1_HzCalibration\"])","op":"%42 = \"qnt.rcast\"(%25) : (tensor<1x160x160x32x!qnt.uniform<si8:f32, 0.12559473514556885>>) -> tensor<1x160x160x32x!qnt.uniform<si8:f32, 0.16707989573478699>>","tensor_names":[{"data_type":"si8","tensor_name":"/model.2/Split_output_1_calibrated"}]},{"backend":"bpu","loc":"loc(fused<#hbdk.track<resultName = [\"/model.2/Concat_output_0_calibrated\"], resultMap = [(d0, d1, d2, d3) -> (d0, d3, d1, d2)], resultType = [!qnt.uniform<si8:f32, 0.16707989573478699>], layerName = \"/model.2/Concat_id_76\", layerId = 76, originalOps = 0, originalCycles = 963963, originalOutputsShape = [<1, 96, 160, 160>]>>[\"/model.2/Concat\"])","op":"%43 = \"hbir.concat\"(%41, %42, %40) <{dim = 3 : i64}> : (tensor<1x160x160x32x!qnt.uniform<si8:f32, 0.16707989573478699>>, tensor<1x160x160x32x!qnt.uniform<si8:f32, 0.16707989573478699>>, tensor<1x160x160x32x!qnt.uniform<si8:f32, 0.16707989573478699>>) -> tensor<1x160x160x96x!qnt.uniform<si8:f32, 0.16707989573478699>>","tensor_names":[{"data_type":"si8","tensor_name":"/model.2/Concat_output_0_calibrated"}]},{"backend":"bpu","loc":"loc(fused<#hbdk.track<resultName = [\"/model.2/cv2/conv/Conv_output_0_calibrated\"], resultMap = [(d0, d1, d2, d3) -> (d0, d3, d1, d2)], resultType = [!qnt.uniform<si8:f32, 0.14210969209671021>], layerName = \"/model.2/cv2/conv/Conv_id_83\", layerId = 83, originalOps = 629145600, originalCycles = 25600, originalOutputsShape = [<1, 160, 160, 128>]>>[\"/model.2/cv2/conv/Conv\"])","op":"%46 = \"hbir.conv\"(%43, %44, %45) <{channelLast = true, dilation = [1, 1], groupNum = 1 : i64, pad = [0, 0, 0, 0], stride = [1, 1]}> : (tensor<1x160x160x96x!qnt.uniform<si8:f32, 0.16707989573478699>>, tensor<128x1x1x96x!qnt.uniform<si8:f32:0, {… >>, tensor<128xf32>) -> tensor<1x160x160x128x!qnt.uniform<si8:f32, 0.14210969209671021>>","tensor_names":[{"data_type":"si8","tensor_name":"/model.2/cv2/conv/Conv_output_0_calibrated"}]},{"backend":"null","loc":"loc(fused<#hbdk.track<resultName = [\"/model.2/cv2/conv/Conv_output_0_calibrated_/model.2/cv2/act/Mul_quantized_input\"], resultMap = [(d0, d1, d2, d3) -> (d0, d3, d1, d2)], layerName = \"/model.2/cv2/conv/Conv_output_0_calibrated_/model.2/cv2/act/Mul_HzQuantize_id_86\", layerId = 86, originalOps = 0, originalCycles = 1, originalOutputsShape = [<1, 128, 160, 160>]>>[\"/model.2/cv2/conv/Conv_output_0_calibrated_/model.2/cv2/act/Mul_HzQuantize\"])","op":"%47 = \"qnt.scast\"(%46) : (tensor<1x160x160x128x!qnt.uniform<si8:f32, 0.14210969209671021>>) -> tensor<1x160x160x128xsi8>","tensor_names":[{"data_type":"si8","tensor_name":"/model.2/cv2/conv/Conv_output_0_calibrated_/model.2/cv2/act/Mul_quantized_input"}]},{"backend":"bpu","loc":"loc(fused<#hbdk.track<resultName = [\"/model.2/cv2/act/Mul_output_0\"], resultMap = [(d0, d1, d2, d3) -> (d0, d3, d1, d2)], resultType = [!qnt.uniform<si8:f32, 0.063797555863857269>], layerName = \"/model.2/cv2/act/Mul_id_88\", layerId = 88, originalOps = 0, originalCycles = 25600, originalOutputsShape = [<1, 128, 160, 160>]>>[\"/model.2/cv2/act/Mul\"])","op":"%49 = \"b30.lut\"(%47, %48) <{instanceId = -1 : i64, mode = #hbdk<LutMode NONE>, roundMode = #hbdk<RoundMode ROUND>, saturate = true, symmetricMode = #hbdk<SymmetricMode ASYM>}> ({\n}) : (tensor<1x160x160x128xsi8>, tensor<512xsi8>) -> tensor<1x160x160x128xsi8>","tensor_names":[{"data_type":"si8","tensor_name":"/model.2/cv2/act/Mul_output_0"}]},{"backend":"null","loc":"loc(fused<#hbdk.track<resultName = [\"/model.2/cv2/act/Mul_output_0\"], resultMap = [(d0, d1, d2, d3) -> (d0, d3, d1, d2)], resultType = [!qnt.uniform<si8:f32, 0.063797555863857269>], layerName = \"/model.2/cv2/act/Mul_output_0_HzDequantize_id_89\", layerId = 89, originalOps = 0, originalCycles = 1, originalOutputsShape = [<1, 128, 160, 160>]>>[\"/model.2/cv2/act/Mul_output_0_HzDequantize\"])","op":"%50 = \"qnt.scast\"(%49) : (tensor<1x160x160x128xsi8>) -> tensor<1x160x160x128x!qnt.uniform<si8:f32, 0.063797555863857269>>","tensor_names":[{"data_type":"si8","tensor_name":"/model.2/cv2/act/Mul_output_0"}]},{"backend":"bpu","loc":"loc(fused<#hbdk.track<resultName = [\"/model.3/conv/Conv_output_0_calibrated\"], resultMap = [(d0, d1, d2, d3) -> (d0, d3, d1, d2)], resultType = [!qnt.uniform<si8:f32, 0.049141626805067062>], layerName = \"/model.3/conv/Conv_id_96\", layerId = 96, originalOps = 1887436800, originalCycles = 57600, originalOutputsShape = [<1, 80, 80, 128>]>>[\"/model.3/conv/Conv\"])","op":"%53 = \"hbir.conv\"(%50, %51, %52) <{channelLast = true, dilation = [1, 1], groupNum = 1 : i64, pad = [1, 1, 0, 0], stride = [2, 2]}> : (tensor<1x160x160x128x!qnt.uniform<si8:f32, 0.063797555863857269>>, tensor<128x3x3x128x!qnt.uniform<si8:f32:0, {… >>, tensor<128xf32>) -> tensor<1x80x80x128x!qnt.uniform<si8:f32, 0.049141626805067062>>","tensor_names":[{"data_type":"si8","tensor_name":"/model.3/conv/Conv_output_0_calibrated"}]},{"backend":"null","loc":"loc(fused<#hbdk.track<resultName = [\"/model.3/conv/Conv_output_0_calibrated_/model.3/act/Mul_quantized_input\"], resultMap = [(d0, d1, d2, d3) -> (d0, d3, d1, d2)], layerName = \"/model.3/conv/Conv_output_0_calibrated_/model.3/act/Mul_HzQuantize_id_99\", layerId = 99, originalOps = 0, originalCycles = 1, originalOutputsShape = [<1, 128, 80, 80>]>>[\"/model.3/conv/Conv_output_0_calibrated_/model.3/act/Mul_HzQuantize\"])","op":"%54 = \"qnt.scast\"(%53) : (tensor<1x80x80x128x!qnt.uniform<si8:f32, 0.049141626805067062>>) -> tensor<1x80x80x128xsi8>","tensor_names":[{"data_type":"si8","tensor_name":"/model.3/conv/Conv_output_0_calibrated_/model.3/act/Mul_quantized_input"}]},{"backend":"bpu","loc":"loc(fused<#hbdk.track<resultName = [\"/model.3/act/Mul_output_0\"], resultMap = [(d0, d1, d2, d3) -> (d0, d3, d1, d2)], resultType = [!qnt.uniform<si8:f32, 0.03084256500005722>], layerName = \"/model.3/act/Mul_id_101\", layerId = 101, originalOps = 0, originalCycles = 6400, originalOutputsShape = [<1, 128, 80, 80>]>>[\"/model.3/act/Mul\"])","op":"%56 = \"b30.lut\"(%54, %55) <{instanceId = -1 : i64, mode = #hbdk<LutMode NONE>, roundMode = #hbdk<RoundMode ROUND>, saturate = true, symmetricMode = #hbdk<SymmetricMode ASYM>}> ({\n}) : (tensor<1x80x80x128xsi8>, tensor<512xsi8>) -> tensor<1x80x80x128xsi8>","tensor_names":[{"data_type":"si8","tensor_name":"/model.3/act/Mul_output_0"}]},{"backend":"null","loc":"loc(fused<#hbdk.track<resultName = [\"/model.3/act/Mul_output_0\"], resultMap = [(d0, d1, d2, d3) -> (d0, d3, d1, d2)], resultType = [!qnt.uniform<si8:f32, 0.03084256500005722>], layerName = \"/model.3/act/Mul_output_0_HzDequantize_id_102\", layerId = 102, originalOps = 0, originalCycles = 1, originalOutputsShape = [<1, 128, 80, 80>]>>[\"/model.3/act/Mul_output_0_HzDequantize\"])","op":"%57 = \"qnt.scast\"(%56) : (tensor<1x80x80x128xsi8>) -> tensor<1x80x80x128x!qnt.uniform<si8:f32, 0.03084256500005722>>","tensor_names":[{"data_type":"si8","tensor_name":"/model.3/act/Mul_output_0"}]},{"backend":"bpu","loc":"loc(fused<#hbdk.track<resultName = [\"/model.4/cv1/conv/Conv_output_0_calibrated\"], resultMap = [(d0, d1, d2, d3) -> (d0, d3, d1, d2)], resultType = [!qnt.uniform<si8:f32, 0.062423665076494217>], layerName = \"/model.4/cv1/conv/Conv_id_109\", layerId = 109, originalOps = 209715200, originalCycles = 6400, originalOutputsShape = [<1, 80, 80, 128>]>>[\"/model.4/cv1/conv/Conv\"])","op":"%60 = \"hbir.conv\"(%57, %58, %59) <{channelLast = true, dilation = [1, 1], groupNum = 1 : i64, pad = [0, 0, 0, 0], stride = [1, 1]}> : (tensor<1x80x80x128x!qnt.uniform<si8:f32, 0.03084256500005722>>, tensor<128x1x1x128x!qnt.uniform<si8:f32:0, {… >>, tensor<128xf32>) -> tensor<1x80x80x128x!qnt.uniform<si8:f32, 0.062423665076494217>>","tensor_names":[{"data_type":"si8","tensor_name":"/model.4/cv1/conv/Conv_output_0_calibrated"}]},{"backend":"null","loc":"loc(fused<#hbdk.track<resultName = [\"/model.4/cv1/conv/Conv_output_0_calibrated_/model.4/cv1/act/Mul_quantized_input\"], resultMap = [(d0, d1, d2, d3) -> (d0, d3, d1, d2)], layerName = \"/model.4/cv1/conv/Conv_output_0_calibrated_/model.4/cv1/act/Mul_HzQuantize_id_112\", layerId = 112, originalOps = 0, originalCycles = 1, originalOutputsShape = [<1, 128, 80, 80>]>>[\"/model.4/cv1/conv/Conv_output_0_calibrated_/model.4/cv1/act/Mul_HzQuantize\"])","op":"%61 = \"qnt.scast\"(%60) : (tensor<1x80x80x128x!qnt.uniform<si8:f32, 0.062423665076494217>>) -> tensor<1x80x80x128xsi8>","tensor_names":[{"data_type":"si8","tensor_name":"/model.4/cv1/conv/Conv_output_0_calibrated_/model.4/cv1/act/Mul_quantized_input"}]},{"backend":"bpu","loc":"loc(fused<#hbdk.track<resultName = [\"/model.4/cv1/act/Mul_output_0\"], resultMap = [(d0, d1, d2, d3) -> (d0, d3, d1, d2)], resultType = [!qnt.uniform<si8:f32, 0.033642988651990891>], layerName = \"/model.4/cv1/act/Mul_id_114\", layerId = 114, originalOps = 0, originalCycles = 6400, originalOutputsShape = [<1, 128, 80, 80>]>>[\"/model.4/cv1/act/Mul\"])","op":"%63 = \"b30.lut\"(%61, %62) <{instanceId = -1 : i64, mode = #hbdk<LutMode NONE>, roundMode = #hbdk<RoundMode ROUND>, saturate = true, symmetricMode = #hbdk<SymmetricMode ASYM>}> ({\n}) : (tensor<1x80x80x128xsi8>, tensor<512xsi8>) -> tensor<1x80x80x128xsi8>","tensor_names":[{"data_type":"si8","tensor_name":"/model.4/cv1/act/Mul_output_0"}]},{"backend":"null","loc":"loc(fused<#hbdk.track<resultName = [\"/model.4/cv1/act/Mul_output_0\"], resultMap = [(d0, d1, d2, d3) -> (d0, d3, d1, d2)], resultType = [!qnt.uniform<si8:f32, 0.033642988651990891>], layerName = \"/model.4/cv1/act/Mul_output_0_HzDequantize_id_115\", layerId = 115, originalOps = 0, originalCycles = 1, originalOutputsShape = [<1, 128, 80, 80>]>>[\"/model.4/cv1/act/Mul_output_0_HzDequantize\"])","op":"%64 = \"qnt.scast\"(%63) : (tensor<1x80x80x128xsi8>) -> tensor<1x80x80x128x!qnt.uniform<si8:f32, 0.033642988651990891>>","tensor_names":[{"data_type":"si8","tensor_name":"/model.4/cv1/act/Mul_output_0"}]},{"backend":"bpu","loc":"loc(fused<#hbdk.track<resultName = [\"/model.4/Split_output_0_calibrated\"], resultMap = [(d0, d1, d2, d3) -> (d0, d3, d1, d2)], resultType = [!qnt.uniform<si8:f32, 0.033642988651990891>], layerName = \"/model.4/Split_id_117\", layerId = 117, originalOps = 0, originalCycles = 5086, originalOutputsShape = [<1, 64, 80, 80>]>>[\"/model.4/Split\"])","op":"%65 = \"hbir.slice\"(%64) <{begin = [0, 0, 0, 0], end = [1, 80, 80, 64], foldable = true, step = [1, 1, 1, 1]}> : (tensor<1x80x80x128x!qnt.uniform<si8:f32, 0.033642988651990891>>) -> tensor<1x80x80x64x!qnt.uniform<si8:f32, 0.033642988651990891>>","tensor_names":[{"data_type":"si8","tensor_name":"/model.4/Split_output_0_calibrated"}]},{"backend":"null","loc":"loc(fused<#hbdk.track<resultName = [\"/model.4/cv1/act/Mul_output_0_calibrated\"], resultMap = [(d0, d1, d2, d3) -> (d0, d3, d1, d2)], resultType = [!qnt.uniform<si8:f32, 0.027585353702306747>], layerName = \"/model.4/cv1/act/Mul_output_0_HzCalibration_id_116\", layerId = 116, originalOps = 0, originalCycles = 1, originalOutputsShape = [<1, 128, 80, 80>]>>[\"/model.4/cv1/act/Mul_output_0_HzCalibration\"])","op":"%66 = \"qnt.rcast\"(%64) : (tensor<1x80x80x128x!qnt.uniform<si8:f32, 0.033642988651990891>>) -> tensor<1x80x80x128x!qnt.uniform<si8:f32, 0.027585353702306747>>","tensor_names":[{"data_type":"si8","tensor_name":"/model.4/cv1/act/Mul_output_0_calibrated"}]},{"backend":"bpu","loc":"loc(fused<#hbdk.track<resultName = [\"/model.4/Split_output_1_calibrated\"], resultMap = [(d0, d1, d2, d3) -> (d0, d3, d1, d2)], resultType = [!qnt.uniform<si8:f32, 0.027585353702306747>], layerName = \"/model.4/Split_id_118\", layerId = 118, originalOps = 0, originalCycles = 5086, originalOutputsShape = [<1, 64, 80, 80>]>>[\"/model.4/Split\"])","op":"%67 = \"hbir.slice\"(%66) <{begin = [0, 0, 0, 64], end = [1, 80, 80, 128], foldable = true, step = [1, 1, 1, 1]}> : (tensor<1x80x80x128x!qnt.uniform<si8:f32, 0.027585353702306747>>) -> tensor<1x80x80x64x!qnt.uniform<si8:f32, 0.027585353702306747>>","tensor_names":[{"data_type":"si8","tensor_name":"/model.4/Split_output_1_calibrated"}]},{"backend":"bpu","loc":"loc(fused<#hbdk.track<resultName = [\"/model.4/m.0/cv1/conv/Conv_output_0_calibrated\"], resultMap = [(d0, d1, d2, d3) -> (d0, d3, d1, d2)], resultType = [!qnt.uniform<si8:f32, 0.025865359231829643>], layerName = \"/model.4/m.0/cv1/conv/Conv_id_125\", layerId = 125, originalOps = 235929600, originalCycles = 7200, originalOutputsShape = [<1, 80, 80, 32>]>>[\"/model.4/m.0/cv1/conv/Conv\"])","op":"%70 = \"hbir.conv\"(%67, %68, %69) <{channelLast = true, dilation = [1, 1], groupNum = 1 : i64, pad = [1, 1, 1, 1], stride = [1, 1]}> : (tensor<1x80x80x64x!qnt.uniform<si8:f32, 0.027585353702306747>>, tensor<32x3x3x64x!qnt.uniform<si8:f32:0, {… >>, tensor<32xf32>) -> tensor<1x80x80x32x!qnt.uniform<si8:f32, 0.025865359231829643>>","tensor_names":[{"data_type":"si8","tensor_name":"/model.4/m.0/cv1/conv/Conv_output_0_calibrated"}]},{"backend":"null","loc":"loc(fused<#hbdk.track<resultName = [\"/model.4/m.0/cv1/conv/Conv_output_0_calibrated_/model.4/m.0/cv1/act/Mul_quantized_input\"], resultMap = [(d0, d1, d2, d3) -> (d0, d3, d1, d2)], layerName = \"/model.4/m.0/cv1/conv/Conv_output_0_calibrated_/model.4/m.0/cv1/act/Mul_HzQuantize_id_128\", layerId = 128, originalOps = 0, originalCycles = 1, originalOutputsShape = [<1, 32, 80, 80>]>>[\"/model.4/m.0/cv1/conv/Conv_output_0_calibrated_/model.4/m.0/cv1/act/Mul_HzQuantize\"])","op":"%71 = \"qnt.scast\"(%70) : (tensor<1x80x80x32x!qnt.uniform<si8:f32, 0.025865359231829643>>) -> tensor<1x80x80x32xsi8>","tensor_names":[{"data_type":"si8","tensor_name":"/model.4/m.0/cv1/conv/Conv_output_0_calibrated_/model.4/m.0/cv1/act/Mul_quantized_input"}]},{"backend":"bpu","loc":"loc(fused<#hbdk.track<resultName = [\"/model.4/m.0/cv1/act/Mul_output_0\"], resultMap = [(d0, d1, d2, d3) -> (d0, d3, d1, d2)], resultType = [!qnt.uniform<si8:f32, 0.024931805208325386>], layerName = \"/model.4/m.0/cv1/act/Mul_id_130\", layerId = 130, originalOps = 0, originalCycles = 1600, originalOutputsShape = [<1, 32, 80, 80>]>>[\"/model.4/m.0/cv1/act/Mul\"])","op":"%73 = \"b30.lut\"(%71, %72) <{instanceId = -1 : i64, mode = #hbdk<LutMode NONE>, roundMode = #hbdk<RoundMode ROUND>, saturate = true, symmetricMode = #hbdk<SymmetricMode ASYM>}> ({\n}) : (tensor<1x80x80x32xsi8>, tensor<512xsi8>) -> tensor<1x80x80x32xsi8>","tensor_names":[{"data_type":"si8","tensor_name":"/model.4/m.0/cv1/act/Mul_output_0"}]},{"backend":"null","loc":"loc(fused<#hbdk.track<resultName = [\"/model.4/m.0/cv1/act/Mul_output_0\"], resultMap = [(d0, d1, d2, d3) -> (d0, d3, d1, d2)], resultType = [!qnt.uniform<si8:f32, 0.024931805208325386>], layerName = \"/model.4/m.0/cv1/act/Mul_output_0_HzDequantize_id_131\", layerId = 131, originalOps = 0, originalCycles = 1, originalOutputsShape = [<1, 32, 80, 80>]>>[\"/model.4/m.0/cv1/act/Mul_output_0_HzDequantize\"])","op":"%74 = \"qnt.scast\"(%73) : (tensor<1x80x80x32xsi8>) -> tensor<1x80x80x32x!qnt.uniform<si8:f32, 0.024931805208325386>>","tensor_names":[{"data_type":"si8","tensor_name":"/model.4/m.0/cv1/act/Mul_output_0"}]},{"backend":"bpu","loc":"loc(fused<#hbdk.track<resultName = [\"/model.4/m.0/cv2/conv/Conv_output_0_calibrated\"], resultMap = [(d0, d1, d2, d3) -> (d0, d3, d1, d2)], resultType = [!qnt.uniform<si8:f32, 0.041268393397331238>], layerName = \"/model.4/m.0/cv2/conv/Conv_id_138\", layerId = 138, originalOps = 235929600, originalCycles = 7200, originalOutputsShape = [<1, 80, 80, 64>]>>[\"/model.4/m.0/cv2/conv/Conv\"])","op":"%77 = \"hbir.conv\"(%74, %75, %76) <{channelLast = true, dilation = [1, 1], groupNum = 1 : i64, pad = [1, 1, 1, 1], stride = [1, 1]}> : (tensor<1x80x80x32x!qnt.uniform<si8:f32, 0.024931805208325386>>, tensor<64x3x3x32x!qnt.uniform<si8:f32:0, {… >>, tensor<64xf32>) -> tensor<1x80x80x64x!qnt.uniform<si8:f32, 0.041268393397331238>>","tensor_names":[{"data_type":"si8","tensor_name":"/model.4/m.0/cv2/conv/Conv_output_0_calibrated"}]},{"backend":"null","loc":"loc(fused<#hbdk.track<resultName = [\"/model.4/m.0/cv2/conv/Conv_output_0_calibrated_/model.4/m.0/cv2/act/Mul_quantized_input\"], resultMap = [(d0, d1, d2, d3) -> (d0, d3, d1, d2)], layerName = \"/model.4/m.0/cv2/conv/Conv_output_0_calibrated_/model.4/m.0/cv2/act/Mul_HzQuantize_id_141\", layerId = 141, originalOps = 0, originalCycles = 1, originalOutputsShape = [<1, 64, 80, 80>]>>[\"/model.4/m.0/cv2/conv/Conv_output_0_calibrated_/model.4/m.0/cv2/act/Mul_HzQuantize\"])","op":"%78 = \"qnt.scast\"(%77) : (tensor<1x80x80x64x!qnt.uniform<si8:f32, 0.041268393397331238>>) -> tensor<1x80x80x64xsi8>","tensor_names":[{"data_type":"si8","tensor_name":"/model.4/m.0/cv2/conv/Conv_output_0_calibrated_/model.4/m.0/cv2/act/Mul_quantized_input"}]},{"backend":"bpu","loc":"loc(fused<#hbdk.track<resultName = [\"/model.4/m.0/cv2/act/Mul_output_0\"], resultMap = [(d0, d1, d2, d3) -> (d0, d3, d1, d2)], resultType = [!qnt.uniform<si8:f32, 0.028600314632058144>], layerName = \"/model.4/m.0/cv2/act/Mul_id_143\", layerId = 143, originalOps = 0, originalCycles = 3200, originalOutputsShape = [<1, 64, 80, 80>]>>[\"/model.4/m.0/cv2/act/Mul\"])","op":"%80 = \"b30.lut\"(%78, %79) <{instanceId = -1 : i64, mode = #hbdk<LutMode NONE>, roundMode = #hbdk<RoundMode ROUND>, saturate = true, symmetricMode = #hbdk<SymmetricMode ASYM>}> ({\n}) : (tensor<1x80x80x64xsi8>, tensor<512xsi8>) -> tensor<1x80x80x64xsi8>","tensor_names":[{"data_type":"si8","tensor_name":"/model.4/m.0/cv2/act/Mul_output_0"}]},{"backend":"null","loc":"loc(fused<#hbdk.track<resultName = [\"/model.4/m.0/cv2/act/Mul_output_0\"], resultMap = [(d0, d1, d2, d3) -> (d0, d3, d1, d2)], resultType = [!qnt.uniform<si8:f32, 0.028600314632058144>], layerName = \"/model.4/m.0/cv2/act/Mul_output_0_HzDequantize_id_144\", layerId = 144, originalOps = 0, originalCycles = 1, originalOutputsShape = [<1, 64, 80, 80>]>>[\"/model.4/m.0/cv2/act/Mul_output_0_HzDequantize\"])","op":"%81 = \"qnt.scast\"(%80) : (tensor<1x80x80x64xsi8>) -> tensor<1x80x80x64x!qnt.uniform<si8:f32, 0.028600314632058144>>","tensor_names":[{"data_type":"si8","tensor_name":"/model.4/m.0/cv2/act/Mul_output_0"}]},{"backend":"bpu","loc":"loc(fused<#hbdk.track<resultName = [\"/model.4/m.0/Add_output_0_calibrated\"], resultMap = [(d0, d1, d2, d3) -> (d0, d3, d1, d2)], resultType = [!qnt.uniform<si8:f32, 0.038550734519958496>], layerName = \"/model.4/m.0/Add_id_146\", layerId = 146, originalOps = 0, originalCycles = 6400, originalOutputsShape = [<1, 64, 80, 80>]>>[\"/model.4/m.0/Add\"])","op":"%82 = \"hbir.add\"(%67, %81) : (tensor<1x80x80x64x!qnt.uniform<si8:f32, 0.027585353702306747>>, tensor<1x80x80x64x!qnt.uniform<si8:f32, 0.028600314632058144>>) -> tensor<1x80x80x64x!qnt.uniform<si8:f32, 0.038550734519958496>>","tensor_names":[{"data_type":"si8","tensor_name":"/model.4/m.0/Add_output_0_calibrated"}]},{"backend":"null","loc":"loc(fused<#hbdk.track<resultName = [\"/model.4/Split_output_0_calibrated\"], resultMap = [(d0, d1, d2, d3) -> (d0, d3, d1, d2)], resultType = [!qnt.uniform<si8:f32, 0.038550734519958496>], layerName = \"/model.4/Split_output_0_HzCalibration_id_147\", layerId = 147, originalOps = 0, originalCycles = 1, originalOutputsShape = [<1, 64, 80, 80>]>>[\"/model.4/Split_output_0_HzCalibration\"])","op":"%83 = \"qnt.rcast\"(%65) : (tensor<1x80x80x64x!qnt.uniform<si8:f32, 0.033642988651990891>>) -> tensor<1x80x80x64x!qnt.uniform<si8:f32, 0.038550734519958496>>","tensor_names":[{"data_type":"si8","tensor_name":"/model.4/Split_output_0_calibrated"}]},{"backend":"null","loc":"loc(fused<#hbdk.track<resultName = [\"/model.4/Split_output_1_calibrated\"], resultMap = [(d0, d1, d2, d3) -> (d0, d3, d1, d2)], resultType = [!qnt.uniform<si8:f32, 0.038550734519958496>], layerName = \"/model.4/Split_output_1_HzCalibration_id_121\", layerId = 121, originalOps = 0, originalCycles = 1, originalOutputsShape = [<1, 64, 80, 80>]>>[\"/model.4/Split_output_1_HzCalibration\"])","op":"%84 = \"qnt.rcast\"(%67) : (tensor<1x80x80x64x!qnt.uniform<si8:f32, 0.027585353702306747>>) -> tensor<1x80x80x64x!qnt.uniform<si8:f32, 0.038550734519958496>>","tensor_names":[{"data_type":"si8","tensor_name":"/model.4/Split_output_1_calibrated"}]},{"backend":"bpu","loc":"loc(fused<#hbdk.track<resultName = [\"/model.4/Concat_output_0_calibrated\"], resultMap = [(d0, d1, d2, d3) -> (d0, d3, d1, d2)], resultType = [!qnt.uniform<si8:f32, 0.038550734519958496>], layerName = \"/model.4/Concat_id_149\", layerId = 149, originalOps = 0, originalCycles = 482081, originalOutputsShape = [<1, 192, 80, 80>]>>[\"/model.4/Concat\"])","op":"%85 = \"hbir.concat\"(%83, %84, %82) <{dim = 3 : i64}> : (tensor<1x80x80x64x!qnt.uniform<si8:f32, 0.038550734519958496>>, tensor<1x80x80x64x!qnt.uniform<si8:f32, 0.038550734519958496>>, tensor<1x80x80x64x!qnt.uniform<si8:f32, 0.038550734519958496>>) -> tensor<1x80x80x192x!qnt.uniform<si8:f32, 0.038550734519958496>>","tensor_names":[{"data_type":"si8","tensor_name":"/model.4/Concat_output_0_calibrated"}]},{"backend":"bpu","loc":"loc(fused<#hbdk.track<resultName = [\"/model.4/cv2/conv/Conv_output_0_calibrated\"], resultMap = [(d0, d1, d2, d3) -> (d0, d3, d1, d2)], resultType = [!qnt.uniform<si8:f32, 0.042899567633867264>], layerName = \"/model.4/cv2/conv/Conv_id_156\", layerId = 156, originalOps = 629145600, originalCycles = 19200, originalOutputsShape = [<1, 80, 80, 256>]>>[\"/model.4/cv2/conv/Conv\"])","op":"%88 = \"hbir.conv\"(%85, %86, %87) <{channelLast = true, dilation = [1, 1], groupNum = 1 : i64, pad = [0, 0, 0, 0], stride = [1, 1]}> : (tensor<1x80x80x192x!qnt.uniform<si8:f32, 0.038550734519958496>>, tensor<256x1x1x192x!qnt.uniform<si8:f32:0, {… >>, tensor<256xf32>) -> tensor<1x80x80x256x!qnt.uniform<si8:f32, 0.042899567633867264>>","tensor_names":[{"data_type":"si8","tensor_name":"/model.4/cv2/conv/Conv_output_0_calibrated"}]},{"backend":"null","loc":"loc(fused<#hbdk.track<resultName = [\"/model.4/cv2/conv/Conv_output_0_calibrated_/model.4/cv2/act/Mul_quantized_input\"], resultMap = [(d0, d1, d2, d3) -> (d0, d3, d1, d2)], layerName = \"/model.4/cv2/conv/Conv_output_0_calibrated_/model.4/cv2/act/Mul_HzQuantize_id_159\", layerId = 159, originalOps = 0, originalCycles = 1, originalOutputsShape = [<1, 256, 80, 80>]>>[\"/model.4/cv2/conv/Conv_output_0_calibrated_/model.4/cv2/act/Mul_HzQuantize\"])","op":"%89 = \"qnt.scast\"(%88) : (tensor<1x80x80x256x!qnt.uniform<si8:f32, 0.042899567633867264>>) -> tensor<1x80x80x256xsi8>","tensor_names":[{"data_type":"si8","tensor_name":"/model.4/cv2/conv/Conv_output_0_calibrated_/model.4/cv2/act/Mul_quantized_input"}]},{"backend":"bpu","loc":"loc(fused<#hbdk.track<resultName = [\"/model.4/cv2/act/Mul_output_0\"], resultMap = [(d0, d1, d2, d3) -> (d0, d3, d1, d2)], resultType = [!qnt.uniform<si8:f32, 0.016172973439097404>], layerName = \"/model.4/cv2/act/Mul_id_161\", layerId = 161, originalOps = 0, originalCycles = 12800, originalOutputsShape = [<1, 256, 80, 80>]>>[\"/model.4/cv2/act/Mul\"])","op":"%91 = \"b30.lut\"(%89, %90) <{instanceId = -1 : i64, mode = #hbdk<LutMode NONE>, roundMode = #hbdk<RoundMode ROUND>, saturate = true, symmetricMode = #hbdk<SymmetricMode ASYM>}> ({\n}) : (tensor<1x80x80x256xsi8>, tensor<512xsi8>) -> tensor<1x80x80x256xsi8>","tensor_names":[{"data_type":"si8","tensor_name":"/model.4/cv2/act/Mul_output_0"}]},{"backend":"null","loc":"loc(fused<#hbdk.track<resultName = [\"/model.4/cv2/act/Mul_output_0\"], resultMap = [(d0, d1, d2, d3) -> (d0, d3, d1, d2)], resultType = [!qnt.uniform<si8:f32, 0.016172973439097404>], layerName = \"/model.4/cv2/act/Mul_output_0_HzDequantize_id_162\", layerId = 162, originalOps = 0, originalCycles = 1, originalOutputsShape = [<1, 256, 80, 80>]>>[\"/model.4/cv2/act/Mul_output_0_HzDequantize\"])","op":"%92 = \"qnt.scast\"(%91) : (tensor<1x80x80x256xsi8>) -> tensor<1x80x80x256x!qnt.uniform<si8:f32, 0.016172973439097404>>","tensor_names":[{"data_type":"si8","tensor_name":"/model.4/cv2/act/Mul_output_0"}]},{"backend":"bpu","loc":"loc(fused<#hbdk.track<resultName = [\"/model.5/conv/Conv_output_0_calibrated\"], resultMap = [(d0, d1, d2, d3) -> (d0, d3, d1, d2)], resultType = [!qnt.uniform<si8:f32, 0.031026465818285942>], layerName = \"/model.5/conv/Conv_id_169\", layerId = 169, originalOps = 1887436800, originalCycles = 57600, originalOutputsShape = [<1, 40, 40, 256>]>>[\"/model.5/conv/Conv\"])","op":"%95 = \"hbir.conv\"(%92, %93, %94) <{channelLast = true, dilation = [1, 1], groupNum = 1 : i64, pad = [1, 1, 0, 0], stride = [2, 2]}> : (tensor<1x80x80x256x!qnt.uniform<si8:f32, 0.016172973439097404>>, tensor<256x3x3x256x!qnt.uniform<si8:f32:0, {… >>, tensor<256xf32>) -> tensor<1x40x40x256x!qnt.uniform<si8:f32, 0.031026465818285942>>","tensor_names":[{"data_type":"si8","tensor_name":"/model.5/conv/Conv_output_0_calibrated"}]},{"backend":"null","loc":"loc(fused<#hbdk.track<resultName = [\"/model.5/conv/Conv_output_0_calibrated_/model.5/act/Mul_quantized_input\"], resultMap = [(d0, d1, d2, d3) -> (d0, d3, d1, d2)], layerName = \"/model.5/conv/Conv_output_0_calibrated_/model.5/act/Mul_HzQuantize_id_172\", layerId = 172, originalOps = 0, originalCycles = 1, originalOutputsShape = [<1, 256, 40, 40>]>>[\"/model.5/conv/Conv_output_0_calibrated_/model.5/act/Mul_HzQuantize\"])","op":"%96 = \"qnt.scast\"(%95) : (tensor<1x40x40x256x!qnt.uniform<si8:f32, 0.031026465818285942>>) -> tensor<1x40x40x256xsi8>","tensor_names":[{"data_type":"si8","tensor_name":"/model.5/conv/Conv_output_0_calibrated_/model.5/act/Mul_quantized_input"}]},{"backend":"bpu","loc":"loc(fused<#hbdk.track<resultName = [\"/model.5/act/Mul_output_0\"], resultMap = [(d0, d1, d2, d3) -> (d0, d3, d1, d2)], resultType = [!qnt.uniform<si8:f32, 0.026131050661206245>], layerName = \"/model.5/act/Mul_id_174\", layerId = 174, originalOps = 0, originalCycles = 3200, originalOutputsShape = [<1, 256, 40, 40>]>>[\"/model.5/act/Mul\"])","op":"%98 = \"b30.lut\"(%96, %97) <{instanceId = -1 : i64, mode = #hbdk<LutMode NONE>, roundMode = #hbdk<RoundMode ROUND>, saturate = true, symmetricMode = #hbdk<SymmetricMode ASYM>}> ({\n}) : (tensor<1x40x40x256xsi8>, tensor<512xsi8>) -> tensor<1x40x40x256xsi8>","tensor_names":[{"data_type":"si8","tensor_name":"/model.5/act/Mul_output_0"}]},{"backend":"null","loc":"loc(fused<#hbdk.track<resultName = [\"/model.5/act/Mul_output_0\"], resultMap = [(d0, d1, d2, d3) -> (d0, d3, d1, d2)], resultType = [!qnt.uniform<si8:f32, 0.026131050661206245>], layerName = \"/model.5/act/Mul_output_0_HzDequantize_id_175\", layerId = 175, originalOps = 0, originalCycles = 1, originalOutputsShape = [<1, 256, 40, 40>]>>[\"/model.5/act/Mul_output_0_HzDequantize\"])","op":"%99 = \"qnt.scast\"(%98) : (tensor<1x40x40x256xsi8>) -> tensor<1x40x40x256x!qnt.uniform<si8:f32, 0.026131050661206245>>","tensor_names":[{"data_type":"si8","tensor_name":"/model.5/act/Mul_output_0"}]},{"backend":"bpu","loc":"loc(fused<#hbdk.track<resultName = [\"/model.6/cv1/conv/Conv_output_0_calibrated\"], resultMap = [(d0, d1, d2, d3) -> (d0, d3, d1, d2)], resultType = [!qnt.uniform<si8:f32, 0.028824163600802422>], layerName = \"/model.6/cv1/conv/Conv_id_182\", layerId = 182, originalOps = 209715200, originalCycles = 6400, originalOutputsShape = [<1, 40, 40, 256>]>>[\"/model.6/cv1/conv/Conv\"])","op":"%102 = \"hbir.conv\"(%99, %100, %101) <{channelLast = true, dilation = [1, 1], groupNum = 1 : i64, pad = [0, 0, 0, 0], stride = [1, 1]}> : (tensor<1x40x40x256x!qnt.uniform<si8:f32, 0.026131050661206245>>, tensor<256x1x1x256x!qnt.uniform<si8:f32:0, {… >>, tensor<256xf32>) -> tensor<1x40x40x256x!qnt.uniform<si8:f32, 0.028824163600802422>>","tensor_names":[{"data_type":"si8","tensor_name":"/model.6/cv1/conv/Conv_output_0_calibrated"}]},{"backend":"null","loc":"loc(fused<#hbdk.track<resultName = [\"/model.6/cv1/conv/Conv_output_0_calibrated_/model.6/cv1/act/Mul_quantized_input\"], resultMap = [(d0, d1, d2, d3) -> (d0, d3, d1, d2)], layerName = \"/model.6/cv1/conv/Conv_output_0_calibrated_/model.6/cv1/act/Mul_HzQuantize_id_185\", layerId = 185, originalOps = 0, originalCycles = 1, originalOutputsShape = [<1, 256, 40, 40>]>>[\"/model.6/cv1/conv/Conv_output_0_calibrated_/model.6/cv1/act/Mul_HzQuantize\"])","op":"%103 = \"qnt.scast\"(%102) : (tensor<1x40x40x256x!qnt.uniform<si8:f32, 0.028824163600802422>>) -> tensor<1x40x40x256xsi8>","tensor_names":[{"data_type":"si8","tensor_name":"/model.6/cv1/conv/Conv_output_0_calibrated_/model.6/cv1/act/Mul_quantized_input"}]},{"backend":"bpu","loc":"loc(fused<#hbdk.track<resultName = [\"/model.6/cv1/act/Mul_output_0\"], resultMap = [(d0, d1, d2, d3) -> (d0, d3, d1, d2)], resultType = [!qnt.uniform<si8:f32, 0.026274237781763077>], layerName = \"/model.6/cv1/act/Mul_id_187\", layerId = 187, originalOps = 0, originalCycles = 3200, originalOutputsShape = [<1, 256, 40, 40>]>>[\"/model.6/cv1/act/Mul\"])","op":"%105 = \"b30.lut\"(%103, %104) <{instanceId = -1 : i64, mode = #hbdk<LutMode NONE>, roundMode = #hbdk<RoundMode ROUND>, saturate = true, symmetricMode = #hbdk<SymmetricMode ASYM>}> ({\n}) : (tensor<1x40x40x256xsi8>, tensor<512xsi8>) -> tensor<1x40x40x256xsi8>","tensor_names":[{"data_type":"si8","tensor_name":"/model.6/cv1/act/Mul_output_0"}]},{"backend":"null","loc":"loc(fused<#hbdk.track<resultName = [\"/model.6/cv1/act/Mul_output_0\"], resultMap = [(d0, d1, d2, d3) -> (d0, d3, d1, d2)], resultType = [!qnt.uniform<si8:f32, 0.026274237781763077>], layerName = \"/model.6/cv1/act/Mul_output_0_HzDequantize_id_188\", layerId = 188, originalOps = 0, originalCycles = 1, originalOutputsShape = [<1, 256, 40, 40>]>>[\"/model.6/cv1/act/Mul_output_0_HzDequantize\"])","op":"%106 = \"qnt.scast\"(%105) : (tensor<1x40x40x256xsi8>) -> tensor<1x40x40x256x!qnt.uniform<si8:f32, 0.026274237781763077>>","tensor_names":[{"data_type":"si8","tensor_name":"/model.6/cv1/act/Mul_output_0"}]},{"backend":"bpu","loc":"loc(fused<#hbdk.track<resultName = [\"/model.6/Split_output_0_calibrated\"], resultMap = [(d0, d1, d2, d3) -> (d0, d3, d1, d2)], resultType = [!qnt.uniform<si8:f32, 0.026274237781763077>], layerName = \"/model.6/Split_id_190\", layerId = 190, originalOps = 0, originalCycles = 2577, originalOutputsShape = [<1, 128, 40, 40>]>>[\"/model.6/Split\"])","op":"%107 = \"hbir.slice\"(%106) <{begin = [0, 0, 0, 0], end = [1, 40, 40, 128], foldable = true, step = [1, 1, 1, 1]}> : (tensor<1x40x40x256x!qnt.uniform<si8:f32, 0.026274237781763077>>) -> tensor<1x40x40x128x!qnt.uniform<si8:f32, 0.026274237781763077>>","tensor_names":[{"data_type":"si8","tensor_name":"/model.6/Split_output_0_calibrated"}]},{"backend":"null","loc":"loc(fused<#hbdk.track<resultName = [\"/model.6/cv1/act/Mul_output_0_calibrated\"], resultMap = [(d0, d1, d2, d3) -> (d0, d3, d1, d2)], resultType = [!qnt.uniform<si8:f32, 0.024966994300484657>], layerName = \"/model.6/cv1/act/Mul_output_0_HzCalibration_id_189\", layerId = 189, originalOps = 0, originalCycles = 1, originalOutputsShape = [<1, 256, 40, 40>]>>[\"/model.6/cv1/act/Mul_output_0_HzCalibration\"])","op":"%108 = \"qnt.rcast\"(%106) : (tensor<1x40x40x256x!qnt.uniform<si8:f32, 0.026274237781763077>>) -> tensor<1x40x40x256x!qnt.uniform<si8:f32, 0.024966994300484657>>","tensor_names":[{"data_type":"si8","tensor_name":"/model.6/cv1/act/Mul_output_0_calibrated"}]},{"backend":"bpu","loc":"loc(fused<#hbdk.track<resultName = [\"/model.6/Split_output_1_calibrated\"], resultMap = [(d0, d1, d2, d3) -> (d0, d3, d1, d2)], resultType = [!qnt.uniform<si8:f32, 0.024966994300484657>], layerName = \"/model.6/Split_id_191\", layerId = 191, originalOps = 0, originalCycles = 2577, originalOutputsShape = [<1, 128, 40, 40>]>>[\"/model.6/Split\"])","op":"%109 = \"hbir.slice\"(%108) <{begin = [0, 0, 0, 128], end = [1, 40, 40, 256], foldable = true, step = [1, 1, 1, 1]}> : (tensor<1x40x40x256x!qnt.uniform<si8:f32, 0.024966994300484657>>) -> tensor<1x40x40x128x!qnt.uniform<si8:f32, 0.024966994300484657>>","tensor_names":[{"data_type":"si8","tensor_name":"/model.6/Split_output_1_calibrated"}]},{"backend":"bpu","loc":"loc(fused<#hbdk.track<resultName = [\"/model.6/m.0/cv1/conv/Conv_output_0_calibrated\"], resultMap = [(d0, d1, d2, d3) -> (d0, d3, d1, d2)], resultType = [!qnt.uniform<si8:f32, 0.017596002668142319>], layerName = \"/model.6/m.0/cv1/conv/Conv_id_198\", layerId = 198, originalOps = 26214400, originalCycles = 1600, originalOutputsShape = [<1, 40, 40, 64>]>>[\"/model.6/m.0/cv1/conv/Conv\"])","op":"%112 = \"hbir.conv\"(%109, %110, %111) <{channelLast = true, dilation = [1, 1], groupNum = 1 : i64, pad = [0, 0, 0, 0], stride = [1, 1]}> : (tensor<1x40x40x128x!qnt.uniform<si8:f32, 0.024966994300484657>>, tensor<64x1x1x128x!qnt.uniform<si8:f32:0, {… >>, tensor<64xf32>) -> tensor<1x40x40x64x!qnt.uniform<si8:f32, 0.017596002668142319>>","tensor_names":[{"data_type":"si8","tensor_name":"/model.6/m.0/cv1/conv/Conv_output_0_calibrated"}]},{"backend":"bpu","loc":"loc(fused<#hbdk.track<resultName = [\"/model.6/m.0/cv2/conv/Conv_output_0_calibrated\"], resultMap = [(d0, d1, d2, d3) -> (d0, d3, d1, d2)], resultType = [!qnt.uniform<si8:f32, 0.035349249839782715>], layerName = \"/model.6/m.0/cv2/conv/Conv_id_205\", layerId = 205, originalOps = 26214400, originalCycles = 1600, originalOutputsShape = [<1, 40, 40, 64>]>>[\"/model.6/m.0/cv2/conv/Conv\"])","op":"%115 = \"hbir.conv\"(%109, %113, %114) <{channelLast = true, dilation = [1, 1], groupNum = 1 : i64, pad = [0, 0, 0, 0], stride = [1, 1]}> : (tensor<1x40x40x128x!qnt.uniform<si8:f32, 0.024966994300484657>>, tensor<64x1x1x128x!qnt.uniform<si8:f32:0, {… >>, tensor<64xf32>) -> tensor<1x40x40x64x!qnt.uniform<si8:f32, 0.035349249839782715>>","tensor_names":[{"data_type":"si8","tensor_name":"/model.6/m.0/cv2/conv/Conv_output_0_calibrated"}]},{"backend":"null","loc":"loc(fused<#hbdk.track<resultName = [\"/model.6/m.0/cv1/conv/Conv_output_0_calibrated_/model.6/m.0/cv1/act/Mul_quantized_input\"], resultMap = [(d0, d1, d2, d3) -> (d0, d3, d1, d2)], layerName = \"/model.6/m.0/cv1/conv/Conv_output_0_calibrated_/model.6/m.0/cv1/act/Mul_HzQuantize_id_208\", layerId = 208, originalOps = 0, originalCycles = 1, originalOutputsShape = [<1, 64, 40, 40>]>>[\"/model.6/m.0/cv1/conv/Conv_output_0_calibrated_/model.6/m.0/cv1/act/Mul_HzQuantize\"])","op":"%116 = \"qnt.scast\"(%112) : (tensor<1x40x40x64x!qnt.uniform<si8:f32, 0.017596002668142319>>) -> tensor<1x40x40x64xsi8>","tensor_names":[{"data_type":"si8","tensor_name":"/model.6/m.0/cv1/conv/Conv_output_0_calibrated_/model.6/m.0/cv1/act/Mul_quantized_input"}]},{"backend":"bpu","loc":"loc(fused<#hbdk.track<resultName = [\"/model.6/m.0/cv1/act/Mul_output_0\"], resultMap = [(d0, d1, d2, d3) -> (d0, d3, d1, d2)], resultType = [!qnt.uniform<si8:f32, 0.0098109310492873192>], layerName = \"/model.6/m.0/cv1/act/Mul_id_210\", layerId = 210, originalOps = 0, originalCycles = 800, originalOutputsShape = [<1, 64, 40, 40>]>>[\"/model.6/m.0/cv1/act/Mul\"])","op":"%118 = \"b30.lut\"(%116, %117) <{instanceId = -1 : i64, mode = #hbdk<LutMode NONE>, roundMode = #hbdk<RoundMode ROUND>, saturate = true, symmetricMode = #hbdk<SymmetricMode ASYM>}> ({\n}) : (tensor<1x40x40x64xsi8>, tensor<512xsi8>) -> tensor<1x40x40x64xsi8>","tensor_names":[{"data_type":"si8","tensor_name":"/model.6/m.0/cv1/act/Mul_output_0"}]},{"backend":"null","loc":"loc(fused<#hbdk.track<resultName = [\"/model.6/m.0/cv1/act/Mul_output_0\"], resultMap = [(d0, d1, d2, d3) -> (d0, d3, d1, d2)], resultType = [!qnt.uniform<si8:f32, 0.0098109310492873192>], layerName = \"/model.6/m.0/cv1/act/Mul_output_0_HzDequantize_id_211\", layerId = 211, originalOps = 0, originalCycles = 1, originalOutputsShape = [<1, 64, 40, 40>]>>[\"/model.6/m.0/cv1/act/Mul_output_0_HzDequantize\"])","op":"%119 = \"qnt.scast\"(%118) : (tensor<1x40x40x64xsi8>) -> tensor<1x40x40x64x!qnt.uniform<si8:f32, 0.0098109310492873192>>","tensor_names":[{"data_type":"si8","tensor_name":"/model.6/m.0/cv1/act/Mul_output_0"}]},{"backend":"null","loc":"loc(fused<#hbdk.track<resultName = [\"/model.6/m.0/cv2/conv/Conv_output_0_calibrated_/model.6/m.0/cv2/act/Mul_quantized_input\"], resultMap = [(d0, d1, d2, d3) -> (d0, d3, d1, d2)], layerName = \"/model.6/m.0/cv2/conv/Conv_output_0_calibrated_/model.6/m.0/cv2/act/Mul_HzQuantize_id_213\", layerId = 213, originalOps = 0, originalCycles = 1, originalOutputsShape = [<1, 64, 40, 40>]>>[\"/model.6/m.0/cv2/conv/Conv_output_0_calibrated_/model.6/m.0/cv2/act/Mul_HzQuantize\"])","op":"%120 = \"qnt.scast\"(%115) : (tensor<1x40x40x64x!qnt.uniform<si8:f32, 0.035349249839782715>>) -> tensor<1x40x40x64xsi8>","tensor_names":[{"data_type":"si8","tensor_name":"/model.6/m.0/cv2/conv/Conv_output_0_calibrated_/model.6/m.0/cv2/act/Mul_quantized_input"}]},{"backend":"bpu","loc":"loc(fused<#hbdk.track<resultName = [\"/model.6/m.0/cv2/act/Mul_output_0\"], resultMap = [(d0, d1, d2, d3) -> (d0, d3, d1, d2)], resultType = [!qnt.uniform<si8:f32, 0.033502571284770966>], layerName = \"/model.6/m.0/cv2/act/Mul_id_215\", layerId = 215, originalOps = 0, originalCycles = 800, originalOutputsShape = [<1, 64, 40, 40>]>>[\"/model.6/m.0/cv2/act/Mul\"])","op":"%122 = \"b30.lut\"(%120, %121) <{instanceId = -1 : i64, mode = #hbdk<LutMode NONE>, roundMode = #hbdk<RoundMode ROUND>, saturate = true, symmetricMode = #hbdk<SymmetricMode ASYM>}> ({\n}) : (tensor<1x40x40x64xsi8>, tensor<512xsi8>) -> tensor<1x40x40x64xsi8>","tensor_names":[{"data_type":"si8","tensor_name":"/model.6/m.0/cv2/act/Mul_output_0"}]},{"backend":"null","loc":"loc(fused<#hbdk.track<resultName = [\"/model.6/m.0/cv2/act/Mul_output_0\"], resultMap = [(d0, d1, d2, d3) -> (d0, d3, d1, d2)], resultType = [!qnt.uniform<si8:f32, 0.033502571284770966>], layerName = \"/model.6/m.0/cv2/act/Mul_output_0_HzDequantize_id_216\", layerId = 216, originalOps = 0, originalCycles = 1, originalOutputsShape = [<1, 64, 40, 40>]>>[\"/model.6/m.0/cv2/act/Mul_output_0_HzDequantize\"])","op":"%123 = \"qnt.scast\"(%122) : (tensor<1x40x40x64xsi8>) -> tensor<1x40x40x64x!qnt.uniform<si8:f32, 0.033502571284770966>>","tensor_names":[{"data_type":"si8","tensor_name":"/model.6/m.0/cv2/act/Mul_output_0"}]},{"backend":"bpu","loc":"loc(fused<#hbdk.track<resultName = [\"/model.6/m.0/m/m.0/cv1/conv/Conv_output_0_calibrated\"], resultMap = [(d0, d1, d2, d3) -> (d0, d3, d1, d2)], resultType = [!qnt.uniform<si8:f32, 0.026399128139019012>], layerName = \"/model.6/m.0/m/m.0/cv1/conv/Conv_id_223\", layerId = 223, originalOps = 117964800, originalCycles = 3600, originalOutputsShape = [<1, 40, 40, 64>]>>[\"/model.6/m.0/m/m.0/cv1/conv/Conv\"])","op":"%126 = \"hbir.conv\"(%119, %124, %125) <{channelLast = true, dilation = [1, 1], groupNum = 1 : i64, pad = [1, 1, 1, 1], stride = [1, 1]}> : (tensor<1x40x40x64x!qnt.uniform<si8:f32, 0.0098109310492873192>>, tensor<64x3x3x64x!qnt.uniform<si8:f32:0, {… >>, tensor<64xf32>) -> tensor<1x40x40x64x!qnt.uniform<si8:f32, 0.026399128139019012>>","tensor_names":[{"data_type":"si8","tensor_name":"/model.6/m.0/m/m.0/cv1/conv/Conv_output_0_calibrated"}]},{"backend":"null","loc":"loc(fused<#hbdk.track<resultName = [\"/model.6/m.0/m/m.0/cv1/conv/Conv_output_0_calibrated_/model.6/m.0/m/m.0/cv1/act/Mul_quantized_input\"], resultMap = [(d0, d1, d2, d3) -> (d0, d3, d1, d2)], layerName = \"/model.6/m.0/m/m.0/cv1/conv/Conv_output_0_calibrated_/model.6/m.0/m/m.0/cv1/act/Mul_HzQuantize_id_226\", layerId = 226, originalOps = 0, originalCycles = 1, originalOutputsShape = [<1, 64, 40, 40>]>>[\"/model.6/m.0/m/m.0/cv1/conv/Conv_output_0_calibrated_/model.6/m.0/m/m.0/cv1/act/Mul_HzQuantize\"])","op":"%127 = \"qnt.scast\"(%126) : (tensor<1x40x40x64x!qnt.uniform<si8:f32, 0.026399128139019012>>) -> tensor<1x40x40x64xsi8>","tensor_names":[{"data_type":"si8","tensor_name":"/model.6/m.0/m/m.0/cv1/conv/Conv_output_0_calibrated_/model.6/m.0/m/m.0/cv1/act/Mul_quantized_input"}]},{"backend":"bpu","loc":"loc(fused<#hbdk.track<resultName = [\"/model.6/m.0/m/m.0/cv1/act/Mul_output_0\"], resultMap = [(d0, d1, d2, d3) -> (d0, d3, d1, d2)], resultType = [!qnt.uniform<si8:f32, 0.014978721737861633>], layerName = \"/model.6/m.0/m/m.0/cv1/act/Mul_id_228\", layerId = 228, originalOps = 0, originalCycles = 800, originalOutputsShape = [<1, 64, 40, 40>]>>[\"/model.6/m.0/m/m.0/cv1/act/Mul\"])","op":"%129 = \"b30.lut\"(%127, %128) <{instanceId = -1 : i64, mode = #hbdk<LutMode NONE>, roundMode = #hbdk<RoundMode ROUND>, saturate = true, symmetricMode = #hbdk<SymmetricMode ASYM>}> ({\n}) : (tensor<1x40x40x64xsi8>, tensor<512xsi8>) -> tensor<1x40x40x64xsi8>","tensor_names":[{"data_type":"si8","tensor_name":"/model.6/m.0/m/m.0/cv1/act/Mul_output_0"}]},{"backend":"null","loc":"loc(fused<#hbdk.track<resultName = [\"/model.6/m.0/m/m.0/cv1/act/Mul_output_0\"], resultMap = [(d0, d1, d2, d3) -> (d0, d3, d1, d2)], resultType = [!qnt.uniform<si8:f32, 0.014978721737861633>], layerName = \"/model.6/m.0/m/m.0/cv1/act/Mul_output_0_HzDequantize_id_229\", layerId = 229, originalOps = 0, originalCycles = 1, originalOutputsShape = [<1, 64, 40, 40>]>>[\"/model.6/m.0/m/m.0/cv1/act/Mul_output_0_HzDequantize\"])","op":"%130 = \"qnt.scast\"(%129) : (tensor<1x40x40x64xsi8>) -> tensor<1x40x40x64x!qnt.uniform<si8:f32, 0.014978721737861633>>","tensor_names":[{"data_type":"si8","tensor_name":"/model.6/m.0/m/m.0/cv1/act/Mul_output_0"}]},{"backend":"bpu","loc":"loc(fused<#hbdk.track<resultName = [\"/model.6/m.0/m/m.0/cv2/conv/Conv_output_0_calibrated\"], resultMap = [(d0, d1, d2, d3) -> (d0, d3, d1, d2)], resultType = [!qnt.uniform<si8:f32, 0.021451838314533234>], layerName = \"/model.6/m.0/m/m.0/cv2/conv/Conv_id_236\", layerId = 236, originalOps = 117964800, originalCycles = 3600, originalOutputsShape = [<1, 40, 40, 64>]>>[\"/model.6/m.0/m/m.0/cv2/conv/Conv\"])","op":"%133 = \"hbir.conv\"(%130, %131, %132) <{channelLast = true, dilation = [1, 1], groupNum = 1 : i64, pad = [1, 1, 1, 1], stride = [1, 1]}> : (tensor<1x40x40x64x!qnt.uniform<si8:f32, 0.014978721737861633>>, tensor<64x3x3x64x!qnt.uniform<si8:f32:0, {… >>, tensor<64xf32>) -> tensor<1x40x40x64x!qnt.uniform<si8:f32, 0.021451838314533234>>","tensor_names":[{"data_type":"si8","tensor_name":"/model.6/m.0/m/m.0/cv2/conv/Conv_output_0_calibrated"}]},{"backend":"null","loc":"loc(fused<#hbdk.track<resultName = [\"/model.6/m.0/m/m.0/cv2/conv/Conv_output_0_calibrated_/model.6/m.0/m/m.0/cv2/act/Mul_quantized_input\"], resultMap = [(d0, d1, d2, d3) -> (d0, d3, d1, d2)], layerName = \"/model.6/m.0/m/m.0/cv2/conv/Conv_output_0_calibrated_/model.6/m.0/m/m.0/cv2/act/Mul_HzQuantize_id_239\", layerId = 239, originalOps = 0, originalCycles = 1, originalOutputsShape = [<1, 64, 40, 40>]>>[\"/model.6/m.0/m/m.0/cv2/conv/Conv_output_0_calibrated_/model.6/m.0/m/m.0/cv2/act/Mul_HzQuantize\"])","op":"%134 = \"qnt.scast\"(%133) : (tensor<1x40x40x64x!qnt.uniform<si8:f32, 0.021451838314533234>>) -> tensor<1x40x40x64xsi8>","tensor_names":[{"data_type":"si8","tensor_name":"/model.6/m.0/m/m.0/cv2/conv/Conv_output_0_calibrated_/model.6/m.0/m/m.0/cv2/act/Mul_quantized_input"}]},{"backend":"bpu","loc":"loc(fused<#hbdk.track<resultName = [\"/model.6/m.0/m/m.0/cv2/act/Mul_output_0\"], resultMap = [(d0, d1, d2, d3) -> (d0, d3, d1, d2)], resultType = [!qnt.uniform<si8:f32, 0.014290308579802513>], layerName = \"/model.6/m.0/m/m.0/cv2/act/Mul_id_241\", layerId = 241, originalOps = 0, originalCycles = 800, originalOutputsShape = [<1, 64, 40, 40>]>>[\"/model.6/m.0/m/m.0/cv2/act/Mul\"])","op":"%136 = \"b30.lut\"(%134, %135) <{instanceId = -1 : i64, mode = #hbdk<LutMode NONE>, roundMode = #hbdk<RoundMode ROUND>, saturate = true, symmetricMode = #hbdk<SymmetricMode ASYM>}> ({\n}) : (tensor<1x40x40x64xsi8>, tensor<512xsi8>) -> tensor<1x40x40x64xsi8>","tensor_names":[{"data_type":"si8","tensor_name":"/model.6/m.0/m/m.0/cv2/act/Mul_output_0"}]},{"backend":"null","loc":"loc(fused<#hbdk.track<resultName = [\"/model.6/m.0/m/m.0/cv2/act/Mul_output_0\"], resultMap = [(d0, d1, d2, d3) -> (d0, d3, d1, d2)], resultType = [!qnt.uniform<si8:f32, 0.014290308579802513>], layerName = \"/model.6/m.0/m/m.0/cv2/act/Mul_output_0_HzDequantize_id_242\", layerId = 242, originalOps = 0, originalCycles = 1, originalOutputsShape = [<1, 64, 40, 40>]>>[\"/model.6/m.0/m/m.0/cv2/act/Mul_output_0_HzDequantize\"])","op":"%137 = \"qnt.scast\"(%136) : (tensor<1x40x40x64xsi8>) -> tensor<1x40x40x64x!qnt.uniform<si8:f32, 0.014290308579802513>>","tensor_names":[{"data_type":"si8","tensor_name":"/model.6/m.0/m/m.0/cv2/act/Mul_output_0"}]},{"backend":"bpu","loc":"loc(fused<#hbdk.track<resultName = [\"/model.6/m.0/m/m.0/Add_output_0_calibrated\"], resultMap = [(d0, d1, d2, d3) -> (d0, d3, d1, d2)], resultType = [!qnt.uniform<si8:f32, 0.015170996077358723>], layerName = \"/model.6/m.0/m/m.0/Add_id_244\", layerId = 244, originalOps = 0, originalCycles = 1600, originalOutputsShape = [<1, 64, 40, 40>]>>[\"/model.6/m.0/m/m.0/Add\"])","op":"%138 = \"hbir.add\"(%119, %137) : (tensor<1x40x40x64x!qnt.uniform<si8:f32, 0.0098109310492873192>>, tensor<1x40x40x64x!qnt.uniform<si8:f32, 0.014290308579802513>>) -> tensor<1x40x40x64x!qnt.uniform<si8:f32, 0.015170996077358723>>","tensor_names":[{"data_type":"si8","tensor_name":"/model.6/m.0/m/m.0/Add_output_0_calibrated"}]},{"backend":"bpu","loc":"loc(fused<#hbdk.track<resultName = [\"/model.6/m.0/m/m.1/cv1/conv/Conv_output_0_calibrated\"], resultMap = [(d0, d1, d2, d3) -> (d0, d3, d1, d2)], resultType = [!qnt.uniform<si8:f32, 0.025059308856725693>], layerName = \"/model.6/m.0/m/m.1/cv1/conv/Conv_id_251\", layerId = 251, originalOps = 117964800, originalCycles = 3600, originalOutputsShape = [<1, 40, 40, 64>]>>[\"/model.6/m.0/m/m.1/cv1/conv/Conv\"])","op":"%141 = \"hbir.conv\"(%138, %139, %140) <{channelLast = true, dilation = [1, 1], groupNum = 1 : i64, pad = [1, 1, 1, 1], stride = [1, 1]}> : (tensor<1x40x40x64x!qnt.uniform<si8:f32, 0.015170996077358723>>, tensor<64x3x3x64x!qnt.uniform<si8:f32:0, {… >>, tensor<64xf32>) -> tensor<1x40x40x64x!qnt.uniform<si8:f32, 0.025059308856725693>>","tensor_names":[{"data_type":"si8","tensor_name":"/model.6/m.0/m/m.1/cv1/conv/Conv_output_0_calibrated"}]},{"backend":"null","loc":"loc(fused<#hbdk.track<resultName = [\"/model.6/m.0/m/m.1/cv1/conv/Conv_output_0_calibrated_/model.6/m.0/m/m.1/cv1/act/Mul_quantized_input\"], resultMap = [(d0, d1, d2, d3) -> (d0, d3, d1, d2)], layerName = \"/model.6/m.0/m/m.1/cv1/conv/Conv_output_0_calibrated_/model.6/m.0/m/m.1/cv1/act/Mul_HzQuantize_id_254\", layerId = 254, originalOps = 0, originalCycles = 1, originalOutputsShape = [<1, 64, 40, 40>]>>[\"/model.6/m.0/m/m.1/cv1/conv/Conv_output_0_calibrated_/model.6/m.0/m/m.1/cv1/act/Mul_HzQuantize\"])","op":"%142 = \"qnt.scast\"(%141) : (tensor<1x40x40x64x!qnt.uniform<si8:f32, 0.025059308856725693>>) -> tensor<1x40x40x64xsi8>","tensor_names":[{"data_type":"si8","tensor_name":"/model.6/m.0/m/m.1/cv1/conv/Conv_output_0_calibrated_/model.6/m.0/m/m.1/cv1/act/Mul_quantized_input"}]},{"backend":"bpu","loc":"loc(fused<#hbdk.track<resultName = [\"/model.6/m.0/m/m.1/cv1/act/Mul_output_0\"], resultMap = [(d0, d1, d2, d3) -> (d0, d3, d1, d2)], resultType = [!qnt.uniform<si8:f32, 0.012665155343711376>], layerName = \"/model.6/m.0/m/m.1/cv1/act/Mul_id_256\", layerId = 256, originalOps = 0, originalCycles = 800, originalOutputsShape = [<1, 64, 40, 40>]>>[\"/model.6/m.0/m/m.1/cv1/act/Mul\"])","op":"%144 = \"b30.lut\"(%142, %143) <{instanceId = -1 : i64, mode = #hbdk<LutMode NONE>, roundMode = #hbdk<RoundMode ROUND>, saturate = true, symmetricMode = #hbdk<SymmetricMode ASYM>}> ({\n}) : (tensor<1x40x40x64xsi8>, tensor<512xsi8>) -> tensor<1x40x40x64xsi8>","tensor_names":[{"data_type":"si8","tensor_name":"/model.6/m.0/m/m.1/cv1/act/Mul_output_0"}]},{"backend":"null","loc":"loc(fused<#hbdk.track<resultName = [\"/model.6/m.0/m/m.1/cv1/act/Mul_output_0\"], resultMap = [(d0, d1, d2, d3) -> (d0, d3, d1, d2)], resultType = [!qnt.uniform<si8:f32, 0.012665155343711376>], layerName = \"/model.6/m.0/m/m.1/cv1/act/Mul_output_0_HzDequantize_id_257\", layerId = 257, originalOps = 0, originalCycles = 1, originalOutputsShape = [<1, 64, 40, 40>]>>[\"/model.6/m.0/m/m.1/cv1/act/Mul_output_0_HzDequantize\"])","op":"%145 = \"qnt.scast\"(%144) : (tensor<1x40x40x64xsi8>) -> tensor<1x40x40x64x!qnt.uniform<si8:f32, 0.012665155343711376>>","tensor_names":[{"data_type":"si8","tensor_name":"/model.6/m.0/m/m.1/cv1/act/Mul_output_0"}]},{"backend":"bpu","loc":"loc(fused<#hbdk.track<resultName = [\"/model.6/m.0/m/m.1/cv2/conv/Conv_output_0_calibrated\"], resultMap = [(d0, d1, d2, d3) -> (d0, d3, d1, d2)], resultType = [!qnt.uniform<si8:f32, 0.030230410397052765>], layerName = \"/model.6/m.0/m/m.1/cv2/conv/Conv_id_264\", layerId = 264, originalOps = 117964800, originalCycles = 3600, originalOutputsShape = [<1, 40, 40, 64>]>>[\"/model.6/m.0/m/m.1/cv2/conv/Conv\"])","op":"%148 = \"hbir.conv\"(%145, %146, %147) <{channelLast = true, dilation = [1, 1], groupNum = 1 : i64, pad = [1, 1, 1, 1], stride = [1, 1]}> : (tensor<1x40x40x64x!qnt.uniform<si8:f32, 0.012665155343711376>>, tensor<64x3x3x64x!qnt.uniform<si8:f32:0, {… >>, tensor<64xf32>) -> tensor<1x40x40x64x!qnt.uniform<si8:f32, 0.030230410397052765>>","tensor_names":[{"data_type":"si8","tensor_name":"/model.6/m.0/m/m.1/cv2/conv/Conv_output_0_calibrated"}]},{"backend":"null","loc":"loc(fused<#hbdk.track<resultName = [\"/model.6/m.0/m/m.1/cv2/conv/Conv_output_0_calibrated_/model.6/m.0/m/m.1/cv2/act/Mul_quantized_input\"], resultMap = [(d0, d1, d2, d3) -> (d0, d3, d1, d2)], layerName = \"/model.6/m.0/m/m.1/cv2/conv/Conv_output_0_calibrated_/model.6/m.0/m/m.1/cv2/act/Mul_HzQuantize_id_267\", layerId = 267, originalOps = 0, originalCycles = 1, originalOutputsShape = [<1, 64, 40, 40>]>>[\"/model.6/m.0/m/m.1/cv2/conv/Conv_output_0_calibrated_/model.6/m.0/m/m.1/cv2/act/Mul_HzQuantize\"])","op":"%149 = \"qnt.scast\"(%148) : (tensor<1x40x40x64x!qnt.uniform<si8:f32, 0.030230410397052765>>) -> tensor<1x40x40x64xsi8>","tensor_names":[{"data_type":"si8","tensor_name":"/model.6/m.0/m/m.1/cv2/conv/Conv_output_0_calibrated_/model.6/m.0/m/m.1/cv2/act/Mul_quantized_input"}]},{"backend":"bpu","loc":"loc(fused<#hbdk.track<resultName = [\"/model.6/m.0/m/m.1/cv2/act/Mul_output_0\"], resultMap = [(d0, d1, d2, d3) -> (d0, d3, d1, d2)], resultType = [!qnt.uniform<si8:f32, 0.029590072110295296>], layerName = \"/model.6/m.0/m/m.1/cv2/act/Mul_id_269\", layerId = 269, originalOps = 0, originalCycles = 800, originalOutputsShape = [<1, 64, 40, 40>]>>[\"/model.6/m.0/m/m.1/cv2/act/Mul\"])","op":"%151 = \"b30.lut\"(%149, %150) <{instanceId = -1 : i64, mode = #hbdk<LutMode NONE>, roundMode = #hbdk<RoundMode ROUND>, saturate = true, symmetricMode = #hbdk<SymmetricMode ASYM>}> ({\n}) : (tensor<1x40x40x64xsi8>, tensor<512xsi8>) -> tensor<1x40x40x64xsi8>","tensor_names":[{"data_type":"si8","tensor_name":"/model.6/m.0/m/m.1/cv2/act/Mul_output_0"}]},{"backend":"null","loc":"loc(fused<#hbdk.track<resultName = [\"/model.6/m.0/m/m.1/cv2/act/Mul_output_0\"], resultMap = [(d0, d1, d2, d3) -> (d0, d3, d1, d2)], resultType = [!qnt.uniform<si8:f32, 0.029590072110295296>], layerName = \"/model.6/m.0/m/m.1/cv2/act/Mul_output_0_HzDequantize_id_270\", layerId = 270, originalOps = 0, originalCycles = 1, originalOutputsShape = [<1, 64, 40, 40>]>>[\"/model.6/m.0/m/m.1/cv2/act/Mul_output_0_HzDequantize\"])","op":"%152 = \"qnt.scast\"(%151) : (tensor<1x40x40x64xsi8>) -> tensor<1x40x40x64x!qnt.uniform<si8:f32, 0.029590072110295296>>","tensor_names":[{"data_type":"si8","tensor_name":"/model.6/m.0/m/m.1/cv2/act/Mul_output_0"}]},{"backend":"bpu","loc":"loc(fused<#hbdk.track<resultName = [\"/model.6/m.0/m/m.1/Add_output_0_calibrated\"], resultMap = [(d0, d1, d2, d3) -> (d0, d3, d1, d2)], resultType = [!qnt.uniform<si8:f32, 0.033502571284770966>], layerName = \"/model.6/m.0/m/m.1/Add_id_272\", layerId = 272, originalOps = 0, originalCycles = 1600, originalOutputsShape = [<1, 64, 40, 40>]>>[\"/model.6/m.0/m/m.1/Add\"])","op":"%153 = \"hbir.add\"(%138, %152) : (tensor<1x40x40x64x!qnt.uniform<si8:f32, 0.015170996077358723>>, tensor<1x40x40x64x!qnt.uniform<si8:f32, 0.029590072110295296>>) -> tensor<1x40x40x64x!qnt.uniform<si8:f32, 0.033502571284770966>>","tensor_names":[{"data_type":"si8","tensor_name":"/model.6/m.0/m/m.1/Add_output_0_calibrated"}]},{"backend":"bpu","loc":"loc(fused<#hbdk.track<resultName = [\"/model.6/m.0/Concat_output_0_calibrated\"], resultMap = [(d0, d1, d2, d3) -> (d0, d3, d1, d2)], resultType = [!qnt.uniform<si8:f32, 0.033502571284770966>], layerName = \"/model.6/m.0/Concat_id_275\", layerId = 275, originalOps = 0, originalCycles = 80447, originalOutputsShape = [<1, 128, 40, 40>]>>[\"/model.6/m.0/Concat\"])","op":"%154 = \"hbir.concat\"(%153, %123) <{dim = 3 : i64}> : (tensor<1x40x40x64x!qnt.uniform<si8:f32, 0.033502571284770966>>, tensor<1x40x40x64x!qnt.uniform<si8:f32, 0.033502571284770966>>) -> tensor<1x40x40x128x!qnt.uniform<si8:f32, 0.033502571284770966>>","tensor_names":[{"data_type":"si8","tensor_name":"/model.6/m.0/Concat_output_0_calibrated"}]},{"backend":"bpu","loc":"loc(fused<#hbdk.track<resultName = [\"/model.6/m.0/cv3/conv/Conv_output_0_calibrated\"], resultMap = [(d0, d1, d2, d3) -> (d0, d3, d1, d2)], resultType = [!qnt.uniform<si8:f32, 0.028615467250347137>], layerName = \"/model.6/m.0/cv3/conv/Conv_id_282\", layerId = 282, originalOps = 52428800, originalCycles = 1600, originalOutputsShape = [<1, 40, 40, 128>]>>[\"/model.6/m.0/cv3/conv/Conv\"])","op":"%157 = \"hbir.conv\"(%154, %155, %156) <{channelLast = true, dilation = [1, 1], groupNum = 1 : i64, pad = [0, 0, 0, 0], stride = [1, 1]}> : (tensor<1x40x40x128x!qnt.uniform<si8:f32, 0.033502571284770966>>, tensor<128x1x1x128x!qnt.uniform<si8:f32:0, {… >>, tensor<128xf32>) -> tensor<1x40x40x128x!qnt.uniform<si8:f32, 0.028615467250347137>>","tensor_names":[{"data_type":"si8","tensor_name":"/model.6/m.0/cv3/conv/Conv_output_0_calibrated"}]},{"backend":"null","loc":"loc(fused<#hbdk.track<resultName = [\"/model.6/m.0/cv3/conv/Conv_output_0_calibrated_/model.6/m.0/cv3/act/Mul_quantized_input\"], resultMap = [(d0, d1, d2, d3) -> (d0, d3, d1, d2)], layerName = \"/model.6/m.0/cv3/conv/Conv_output_0_calibrated_/model.6/m.0/cv3/act/Mul_HzQuantize_id_285\", layerId = 285, originalOps = 0, originalCycles = 1, originalOutputsShape = [<1, 128, 40, 40>]>>[\"/model.6/m.0/cv3/conv/Conv_output_0_calibrated_/model.6/m.0/cv3/act/Mul_HzQuantize\"])","op":"%158 = \"qnt.scast\"(%157) : (tensor<1x40x40x128x!qnt.uniform<si8:f32, 0.028615467250347137>>) -> tensor<1x40x40x128xsi8>","tensor_names":[{"data_type":"si8","tensor_name":"/model.6/m.0/cv3/conv/Conv_output_0_calibrated_/model.6/m.0/cv3/act/Mul_quantized_input"}]},{"backend":"bpu","loc":"loc(fused<#hbdk.track<resultName = [\"/model.6/m.0/cv3/act/Mul_output_0\"], resultMap = [(d0, d1, d2, d3) -> (d0, d3, d1, d2)], resultType = [!qnt.uniform<si8:f32, 0.026677871122956276>], layerName = \"/model.6/m.0/cv3/act/Mul_id_287\", layerId = 287, originalOps = 0, originalCycles = 1600, originalOutputsShape = [<1, 128, 40, 40>]>>[\"/model.6/m.0/cv3/act/Mul\"])","op":"%160 = \"b30.lut\"(%158, %159) <{instanceId = -1 : i64, mode = #hbdk<LutMode NONE>, roundMode = #hbdk<RoundMode ROUND>, saturate = true, symmetricMode = #hbdk<SymmetricMode ASYM>}> ({\n}) : (tensor<1x40x40x128xsi8>, tensor<512xsi8>) -> tensor<1x40x40x128xsi8>","tensor_names":[{"data_type":"si8","tensor_name":"/model.6/m.0/cv3/act/Mul_output_0"}]},{"backend":"null","loc":"loc(fused<#hbdk.track<resultName = [\"/model.6/m.0/cv3/act/Mul_output_0\"], resultMap = [(d0, d1, d2, d3) -> (d0, d3, d1, d2)], resultType = [!qnt.uniform<si8:f32, 0.026677871122956276>], layerName = \"/model.6/m.0/cv3/act/Mul_output_0_HzDequantize_id_288\", layerId = 288, originalOps = 0, originalCycles = 1, originalOutputsShape = [<1, 128, 40, 40>]>>[\"/model.6/m.0/cv3/act/Mul_output_0_HzDequantize\"])","op":"%161 = \"qnt.scast\"(%160) : (tensor<1x40x40x128xsi8>) -> tensor<1x40x40x128x!qnt.uniform<si8:f32, 0.026677871122956276>>","tensor_names":[{"data_type":"si8","tensor_name":"/model.6/m.0/cv3/act/Mul_output_0"}]},{"backend":"null","loc":"loc(fused<#hbdk.track<resultName = [\"/model.6/Split_output_0_calibrated\"], resultMap = [(d0, d1, d2, d3) -> (d0, d3, d1, d2)], resultType = [!qnt.uniform<si8:f32, 0.026677871122956276>], layerName = \"/model.6/Split_output_0_HzCalibration_id_289\", layerId = 289, originalOps = 0, originalCycles = 1, originalOutputsShape = [<1, 128, 40, 40>]>>[\"/model.6/Split_output_0_HzCalibration\"])","op":"%162 = \"qnt.rcast\"(%107) : (tensor<1x40x40x128x!qnt.uniform<si8:f32, 0.026274237781763077>>) -> tensor<1x40x40x128x!qnt.uniform<si8:f32, 0.026677871122956276>>","tensor_names":[{"data_type":"si8","tensor_name":"/model.6/Split_output_0_calibrated"}]},{"backend":"null","loc":"loc(fused<#hbdk.track<resultName = [\"/model.6/Split_output_1_calibrated\"], resultMap = [(d0, d1, d2, d3) -> (d0, d3, d1, d2)], resultType = [!qnt.uniform<si8:f32, 0.026677871122956276>], layerName = \"/model.6/Split_output_1_HzCalibration_id_194\", layerId = 194, originalOps = 0, originalCycles = 1, originalOutputsShape = [<1, 128, 40, 40>]>>[\"/model.6/Split_output_1_HzCalibration\"])","op":"%163 = \"qnt.rcast\"(%109) : (tensor<1x40x40x128x!qnt.uniform<si8:f32, 0.024966994300484657>>) -> tensor<1x40x40x128x!qnt.uniform<si8:f32, 0.026677871122956276>>","tensor_names":[{"data_type":"si8","tensor_name":"/model.6/Split_output_1_calibrated"}]},{"backend":"bpu","loc":"loc(fused<#hbdk.track<resultName = [\"/model.6/Concat_output_0_calibrated\"], resultMap = [(d0, d1, d2, d3) -> (d0, d3, d1, d2)], resultType = [!qnt.uniform<si8:f32, 0.026677871122956276>], layerName = \"/model.6/Concat_id_291\", layerId = 291, originalOps = 0, originalCycles = 241140, originalOutputsShape = [<1, 384, 40, 40>]>>[\"/model.6/Concat\"])","op":"%164 = \"hbir.concat\"(%162, %163, %161) <{dim = 3 : i64}> : (tensor<1x40x40x128x!qnt.uniform<si8:f32, 0.026677871122956276>>, tensor<1x40x40x128x!qnt.uniform<si8:f32, 0.026677871122956276>>, tensor<1x40x40x128x!qnt.uniform<si8:f32, 0.026677871122956276>>) -> tensor<1x40x40x384x!qnt.uniform<si8:f32, 0.026677871122956276>>","tensor_names":[{"data_type":"si8","tensor_name":"/model.6/Concat_output_0_calibrated"}]},{"backend":"bpu","loc":"loc(fused<#hbdk.track<resultName = [\"/model.6/cv2/conv/Conv_output_0_calibrated\"], resultMap = [(d0, d1, d2, d3) -> (d0, d3, d1, d2)], resultType = [!qnt.uniform<si8:f32, 0.037344347685575485>], layerName = \"/model.6/cv2/conv/Conv_id_298\", layerId = 298, originalOps = 314572800, originalCycles = 9600, originalOutputsShape = [<1, 40, 40, 256>]>>[\"/model.6/cv2/conv/Conv\"])","op":"%167 = \"hbir.conv\"(%164, %165, %166) <{channelLast = true, dilation = [1, 1], groupNum = 1 : i64, pad = [0, 0, 0, 0], stride = [1, 1]}> : (tensor<1x40x40x384x!qnt.uniform<si8:f32, 0.026677871122956276>>, tensor<256x1x1x384x!qnt.uniform<si8:f32:0, {… >>, tensor<256xf32>) -> tensor<1x40x40x256x!qnt.uniform<si8:f32, 0.037344347685575485>>","tensor_names":[{"data_type":"si8","tensor_name":"/model.6/cv2/conv/Conv_output_0_calibrated"}]},{"backend":"null","loc":"loc(fused<#hbdk.track<resultName = [\"/model.6/cv2/conv/Conv_output_0_calibrated_/model.6/cv2/act/Mul_quantized_input\"], resultMap = [(d0, d1, d2, d3) -> (d0, d3, d1, d2)], layerName = \"/model.6/cv2/conv/Conv_output_0_calibrated_/model.6/cv2/act/Mul_HzQuantize_id_301\", layerId = 301, originalOps = 0, originalCycles = 1, originalOutputsShape = [<1, 256, 40, 40>]>>[\"/model.6/cv2/conv/Conv_output_0_calibrated_/model.6/cv2/act/Mul_HzQuantize\"])","op":"%168 = \"qnt.scast\"(%167) : (tensor<1x40x40x256x!qnt.uniform<si8:f32, 0.037344347685575485>>) -> tensor<1x40x40x256xsi8>","tensor_names":[{"data_type":"si8","tensor_name":"/model.6/cv2/conv/Conv_output_0_calibrated_/model.6/cv2/act/Mul_quantized_input"}]},{"backend":"bpu","loc":"loc(fused<#hbdk.track<resultName = [\"/model.6/cv2/act/Mul_output_0\"], resultMap = [(d0, d1, d2, d3) -> (d0, d3, d1, d2)], resultType = [!qnt.uniform<si8:f32, 0.01492010336369276>], layerName = \"/model.6/cv2/act/Mul_id_303\", layerId = 303, originalOps = 0, originalCycles = 3200, originalOutputsShape = [<1, 256, 40, 40>]>>[\"/model.6/cv2/act/Mul\"])","op":"%170 = \"b30.lut\"(%168, %169) <{instanceId = -1 : i64, mode = #hbdk<LutMode NONE>, roundMode = #hbdk<RoundMode ROUND>, saturate = true, symmetricMode = #hbdk<SymmetricMode ASYM>}> ({\n}) : (tensor<1x40x40x256xsi8>, tensor<512xsi8>) -> tensor<1x40x40x256xsi8>","tensor_names":[{"data_type":"si8","tensor_name":"/model.6/cv2/act/Mul_output_0"}]},{"backend":"null","loc":"loc(fused<#hbdk.track<resultName = [\"/model.6/cv2/act/Mul_output_0\"], resultMap = [(d0, d1, d2, d3) -> (d0, d3, d1, d2)], resultType = [!qnt.uniform<si8:f32, 0.01492010336369276>], layerName = \"/model.6/cv2/act/Mul_output_0_HzDequantize_id_304\", layerId = 304, originalOps = 0, originalCycles = 1, originalOutputsShape = [<1, 256, 40, 40>]>>[\"/model.6/cv2/act/Mul_output_0_HzDequantize\"])","op":"%171 = \"qnt.scast\"(%170) : (tensor<1x40x40x256xsi8>) -> tensor<1x40x40x256x!qnt.uniform<si8:f32, 0.01492010336369276>>","tensor_names":[{"data_type":"si8","tensor_name":"/model.6/cv2/act/Mul_output_0"}]},{"backend":"bpu","loc":"loc(fused<#hbdk.track<resultName = [\"/model.7/conv/Conv_output_0_calibrated\"], resultMap = [(d0, d1, d2, d3) -> (d0, d3, d1, d2)], resultType = [!qnt.uniform<si8:f32, 0.063433386385440826>], layerName = \"/model.7/conv/Conv_id_311\", layerId = 311, originalOps = 943718400, originalCycles = 28800, originalOutputsShape = [<1, 20, 20, 512>]>>[\"/model.7/conv/Conv\"])","op":"%174 = \"hbir.conv\"(%171, %172, %173) <{channelLast = true, dilation = [1, 1], groupNum = 1 : i64, pad = [1, 1, 0, 0], stride = [2, 2]}> : (tensor<1x40x40x256x!qnt.uniform<si8:f32, 0.01492010336369276>>, tensor<512x3x3x256x!qnt.uniform<si8:f32:0, {… >>, tensor<512xf32>) -> tensor<1x20x20x512x!qnt.uniform<si8:f32, 0.063433386385440826>>","tensor_names":[{"data_type":"si8","tensor_name":"/model.7/conv/Conv_output_0_calibrated"}]},{"backend":"null","loc":"loc(fused<#hbdk.track<resultName = [\"/model.7/conv/Conv_output_0_calibrated_/model.7/act/Mul_quantized_input\"], resultMap = [(d0, d1, d2, d3) -> (d0, d3, d1, d2)], layerName = \"/model.7/conv/Conv_output_0_calibrated_/model.7/act/Mul_HzQuantize_id_314\", layerId = 314, originalOps = 0, originalCycles = 1, originalOutputsShape = [<1, 512, 20, 20>]>>[\"/model.7/conv/Conv_output_0_calibrated_/model.7/act/Mul_HzQuantize\"])","op":"%175 = \"qnt.scast\"(%174) : (tensor<1x20x20x512x!qnt.uniform<si8:f32, 0.063433386385440826>>) -> tensor<1x20x20x512xsi8>","tensor_names":[{"data_type":"si8","tensor_name":"/model.7/conv/Conv_output_0_calibrated_/model.7/act/Mul_quantized_input"}]},{"backend":"bpu","loc":"loc(fused<#hbdk.track<resultName = [\"/model.7/act/Mul_output_0\"], resultMap = [(d0, d1, d2, d3) -> (d0, d3, d1, d2)], resultType = [!qnt.uniform<si8:f32, 0.032961547374725342>], layerName = \"/model.7/act/Mul_id_316\", layerId = 316, originalOps = 0, originalCycles = 1600, originalOutputsShape = [<1, 512, 20, 20>]>>[\"/model.7/act/Mul\"])","op":"%177 = \"b30.lut\"(%175, %176) <{instanceId = -1 : i64, mode = #hbdk<LutMode NONE>, roundMode = #hbdk<RoundMode ROUND>, saturate = true, symmetricMode = #hbdk<SymmetricMode ASYM>}> ({\n}) : (tensor<1x20x20x512xsi8>, tensor<512xsi8>) -> tensor<1x20x20x512xsi8>","tensor_names":[{"data_type":"si8","tensor_name":"/model.7/act/Mul_output_0"}]},{"backend":"null","loc":"loc(fused<#hbdk.track<resultName = [\"/model.7/act/Mul_output_0\"], resultMap = [(d0, d1, d2, d3) -> (d0, d3, d1, d2)], resultType = [!qnt.uniform<si8:f32, 0.032961547374725342>], layerName = \"/model.7/act/Mul_output_0_HzDequantize_id_317\", layerId = 317, originalOps = 0, originalCycles = 1, originalOutputsShape = [<1, 512, 20, 20>]>>[\"/model.7/act/Mul_output_0_HzDequantize\"])","op":"%178 = \"qnt.scast\"(%177) : (tensor<1x20x20x512xsi8>) -> tensor<1x20x20x512x!qnt.uniform<si8:f32, 0.032961547374725342>>","tensor_names":[{"data_type":"si8","tensor_name":"/model.7/act/Mul_output_0"}]},{"backend":"bpu","loc":"loc(fused<#hbdk.track<resultName = [\"/model.8/cv1/conv/Conv_output_0_calibrated\"], resultMap = [(d0, d1, d2, d3) -> (d0, d3, d1, d2)], resultType = [!qnt.uniform<si8:f32, 0.058704685419797897>], layerName = \"/model.8/cv1/conv/Conv_id_324\", layerId = 324, originalOps = 209715200, originalCycles = 6400, originalOutputsShape = [<1, 20, 20, 512>]>>[\"/model.8/cv1/conv/Conv\"])","op":"%181 = \"hbir.conv\"(%178, %179, %180) <{channelLast = true, dilation = [1, 1], groupNum = 1 : i64, pad = [0, 0, 0, 0], stride = [1, 1]}> : (tensor<1x20x20x512x!qnt.uniform<si8:f32, 0.032961547374725342>>, tensor<512x1x1x512x!qnt.uniform<si8:f32:0, {… >>, tensor<512xf32>) -> tensor<1x20x20x512x!qnt.uniform<si8:f32, 0.058704685419797897>>","tensor_names":[{"data_type":"si8","tensor_name":"/model.8/cv1/conv/Conv_output_0_calibrated"}]},{"backend":"null","loc":"loc(fused<#hbdk.track<resultName = [\"/model.8/cv1/conv/Conv_output_0_calibrated_/model.8/cv1/act/Mul_quantized_input\"], resultMap = [(d0, d1, d2, d3) -> (d0, d3, d1, d2)], layerName = \"/model.8/cv1/conv/Conv_output_0_calibrated_/model.8/cv1/act/Mul_HzQuantize_id_327\", layerId = 327, originalOps = 0, originalCycles = 1, originalOutputsShape = [<1, 512, 20, 20>]>>[\"/model.8/cv1/conv/Conv_output_0_calibrated_/model.8/cv1/act/Mul_HzQuantize\"])","op":"%182 = \"qnt.scast\"(%181) : (tensor<1x20x20x512x!qnt.uniform<si8:f32, 0.058704685419797897>>) -> tensor<1x20x20x512xsi8>","tensor_names":[{"data_type":"si8","tensor_name":"/model.8/cv1/conv/Conv_output_0_calibrated_/model.8/cv1/act/Mul_quantized_input"}]},{"backend":"bpu","loc":"loc(fused<#hbdk.track<resultName = [\"/model.8/cv1/act/Mul_output_0\"], resultMap = [(d0, d1, d2, d3) -> (d0, d3, d1, d2)], resultType = [!qnt.uniform<si8:f32, 0.045205533504486084>], layerName = \"/model.8/cv1/act/Mul_id_329\", layerId = 329, originalOps = 0, originalCycles = 1600, originalOutputsShape = [<1, 512, 20, 20>]>>[\"/model.8/cv1/act/Mul\"])","op":"%184 = \"b30.lut\"(%182, %183) <{instanceId = -1 : i64, mode = #hbdk<LutMode NONE>, roundMode = #hbdk<RoundMode ROUND>, saturate = true, symmetricMode = #hbdk<SymmetricMode ASYM>}> ({\n}) : (tensor<1x20x20x512xsi8>, tensor<512xsi8>) -> tensor<1x20x20x512xsi8>","tensor_names":[{"data_type":"si8","tensor_name":"/model.8/cv1/act/Mul_output_0"}]},{"backend":"null","loc":"loc(fused<#hbdk.track<resultName = [\"/model.8/cv1/act/Mul_output_0\"], resultMap = [(d0, d1, d2, d3) -> (d0, d3, d1, d2)], resultType = [!qnt.uniform<si8:f32, 0.045205533504486084>], layerName = \"/model.8/cv1/act/Mul_output_0_HzDequantize_id_330\", layerId = 330, originalOps = 0, originalCycles = 1, originalOutputsShape = [<1, 512, 20, 20>]>>[\"/model.8/cv1/act/Mul_output_0_HzDequantize\"])","op":"%185 = \"qnt.scast\"(%184) : (tensor<1x20x20x512xsi8>) -> tensor<1x20x20x512x!qnt.uniform<si8:f32, 0.045205533504486084>>","tensor_names":[{"data_type":"si8","tensor_name":"/model.8/cv1/act/Mul_output_0"}]},{"backend":"bpu","loc":"loc(fused<#hbdk.track<resultName = [\"/model.8/Split_output_0_calibrated\"], resultMap = [(d0, d1, d2, d3) -> (d0, d3, d1, d2)], resultType = [!qnt.uniform<si8:f32, 0.045205533504486084>], layerName = \"/model.8/Split_id_332\", layerId = 332, originalOps = 0, originalCycles = 1572, originalOutputsShape = [<1, 256, 20, 20>]>>[\"/model.8/Split\"])","op":"%186 = \"hbir.slice\"(%185) <{begin = [0, 0, 0, 0], end = [1, 20, 20, 256], foldable = true, step = [1, 1, 1, 1]}> : (tensor<1x20x20x512x!qnt.uniform<si8:f32, 0.045205533504486084>>) -> tensor<1x20x20x256x!qnt.uniform<si8:f32, 0.045205533504486084>>","tensor_names":[{"data_type":"si8","tensor_name":"/model.8/Split_output_0_calibrated"}]},{"backend":"null","loc":"loc(fused<#hbdk.track<resultName = [\"/model.8/cv1/act/Mul_output_0_calibrated\"], resultMap = [(d0, d1, d2, d3) -> (d0, d3, d1, d2)], resultType = [!qnt.uniform<si8:f32, 0.022312002256512642>], layerName = \"/model.8/cv1/act/Mul_output_0_HzCalibration_id_331\", layerId = 331, originalOps = 0, originalCycles = 1, originalOutputsShape = [<1, 512, 20, 20>]>>[\"/model.8/cv1/act/Mul_output_0_HzCalibration\"])","op":"%187 = \"qnt.rcast\"(%185) : (tensor<1x20x20x512x!qnt.uniform<si8:f32, 0.045205533504486084>>) -> tensor<1x20x20x512x!qnt.uniform<si8:f32, 0.022312002256512642>>","tensor_names":[{"data_type":"si8","tensor_name":"/model.8/cv1/act/Mul_output_0_calibrated"}]},{"backend":"bpu","loc":"loc(fused<#hbdk.track<resultName = [\"/model.8/Split_output_1_calibrated\"], resultMap = [(d0, d1, d2, d3) -> (d0, d3, d1, d2)], resultType = [!qnt.uniform<si8:f32, 0.022312002256512642>], layerName = \"/model.8/Split_id_333\", layerId = 333, originalOps = 0, originalCycles = 1572, originalOutputsShape = [<1, 256, 20, 20>]>>[\"/model.8/Split\"])","op":"%188 = \"hbir.slice\"(%187) <{begin = [0, 0, 0, 256], end = [1, 20, 20, 512], foldable = true, step = [1, 1, 1, 1]}> : (tensor<1x20x20x512x!qnt.uniform<si8:f32, 0.022312002256512642>>) -> tensor<1x20x20x256x!qnt.uniform<si8:f32, 0.022312002256512642>>","tensor_names":[{"data_type":"si8","tensor_name":"/model.8/Split_output_1_calibrated"}]},{"backend":"bpu","loc":"loc(fused<#hbdk.track<resultName = [\"/model.8/m.0/cv1/conv/Conv_output_0_calibrated\"], resultMap = [(d0, d1, d2, d3) -> (d0, d3, d1, d2)], resultType = [!qnt.uniform<si8:f32, 0.026167178526520729>], layerName = \"/model.8/m.0/cv1/conv/Conv_id_340\", layerId = 340, originalOps = 26214400, originalCycles = 800, originalOutputsShape = [<1, 20, 20, 128>]>>[\"/model.8/m.0/cv1/conv/Conv\"])","op":"%191 = \"hbir.conv\"(%188, %189, %190) <{channelLast = true, dilation = [1, 1], groupNum = 1 : i64, pad = [0, 0, 0, 0], stride = [1, 1]}> : (tensor<1x20x20x256x!qnt.uniform<si8:f32, 0.022312002256512642>>, tensor<128x1x1x256x!qnt.uniform<si8:f32:0, {… >>, tensor<128xf32>) -> tensor<1x20x20x128x!qnt.uniform<si8:f32, 0.026167178526520729>>","tensor_names":[{"data_type":"si8","tensor_name":"/model.8/m.0/cv1/conv/Conv_output_0_calibrated"}]},{"backend":"bpu","loc":"loc(fused<#hbdk.track<resultName = [\"/model.8/m.0/cv2/conv/Conv_output_0_calibrated\"], resultMap = [(d0, d1, d2, d3) -> (d0, d3, d1, d2)], resultType = [!qnt.uniform<si8:f32, 0.036185003817081451>], layerName = \"/model.8/m.0/cv2/conv/Conv_id_347\", layerId = 347, originalOps = 26214400, originalCycles = 800, originalOutputsShape = [<1, 20, 20, 128>]>>[\"/model.8/m.0/cv2/conv/Conv\"])","op":"%194 = \"hbir.conv\"(%188, %192, %193) <{channelLast = true, dilation = [1, 1], groupNum = 1 : i64, pad = [0, 0, 0, 0], stride = [1, 1]}> : (tensor<1x20x20x256x!qnt.uniform<si8:f32, 0.022312002256512642>>, tensor<128x1x1x256x!qnt.uniform<si8:f32:0, {… >>, tensor<128xf32>) -> tensor<1x20x20x128x!qnt.uniform<si8:f32, 0.036185003817081451>>","tensor_names":[{"data_type":"si8","tensor_name":"/model.8/m.0/cv2/conv/Conv_output_0_calibrated"}]},{"backend":"null","loc":"loc(fused<#hbdk.track<resultName = [\"/model.8/m.0/cv1/conv/Conv_output_0_calibrated_/model.8/m.0/cv1/act/Mul_quantized_input\"], resultMap = [(d0, d1, d2, d3) -> (d0, d3, d1, d2)], layerName = \"/model.8/m.0/cv1/conv/Conv_output_0_calibrated_/model.8/m.0/cv1/act/Mul_HzQuantize_id_350\", layerId = 350, originalOps = 0, originalCycles = 1, originalOutputsShape = [<1, 128, 20, 20>]>>[\"/model.8/m.0/cv1/conv/Conv_output_0_calibrated_/model.8/m.0/cv1/act/Mul_HzQuantize\"])","op":"%195 = \"qnt.scast\"(%191) : (tensor<1x20x20x128x!qnt.uniform<si8:f32, 0.026167178526520729>>) -> tensor<1x20x20x128xsi8>","tensor_names":[{"data_type":"si8","tensor_name":"/model.8/m.0/cv1/conv/Conv_output_0_calibrated_/model.8/m.0/cv1/act/Mul_quantized_input"}]},{"backend":"bpu","loc":"loc(fused<#hbdk.track<resultName = [\"/model.8/m.0/cv1/act/Mul_output_0\"], resultMap = [(d0, d1, d2, d3) -> (d0, d3, d1, d2)], resultType = [!qnt.uniform<si8:f32, 0.015250064432621002>], layerName = \"/model.8/m.0/cv1/act/Mul_id_352\", layerId = 352, originalOps = 0, originalCycles = 400, originalOutputsShape = [<1, 128, 20, 20>]>>[\"/model.8/m.0/cv1/act/Mul\"])","op":"%197 = \"b30.lut\"(%195, %196) <{instanceId = -1 : i64, mode = #hbdk<LutMode NONE>, roundMode = #hbdk<RoundMode ROUND>, saturate = true, symmetricMode = #hbdk<SymmetricMode ASYM>}> ({\n}) : (tensor<1x20x20x128xsi8>, tensor<512xsi8>) -> tensor<1x20x20x128xsi8>","tensor_names":[{"data_type":"si8","tensor_name":"/model.8/m.0/cv1/act/Mul_output_0"}]},{"backend":"null","loc":"loc(fused<#hbdk.track<resultName = [\"/model.8/m.0/cv1/act/Mul_output_0\"], resultMap = [(d0, d1, d2, d3) -> (d0, d3, d1, d2)], resultType = [!qnt.uniform<si8:f32, 0.015250064432621002>], layerName = \"/model.8/m.0/cv1/act/Mul_output_0_HzDequantize_id_353\", layerId = 353, originalOps = 0, originalCycles = 1, originalOutputsShape = [<1, 128, 20, 20>]>>[\"/model.8/m.0/cv1/act/Mul_output_0_HzDequantize\"])","op":"%198 = \"qnt.scast\"(%197) : (tensor<1x20x20x128xsi8>) -> tensor<1x20x20x128x!qnt.uniform<si8:f32, 0.015250064432621002>>","tensor_names":[{"data_type":"si8","tensor_name":"/model.8/m.0/cv1/act/Mul_output_0"}]},{"backend":"null","loc":"loc(fused<#hbdk.track<resultName = [\"/model.8/m.0/cv2/conv/Conv_output_0_calibrated_/model.8/m.0/cv2/act/Mul_quantized_input\"], resultMap = [(d0, d1, d2, d3) -> (d0, d3, d1, d2)], layerName = \"/model.8/m.0/cv2/conv/Conv_output_0_calibrated_/model.8/m.0/cv2/act/Mul_HzQuantize_id_355\", layerId = 355, originalOps = 0, originalCycles = 1, originalOutputsShape = [<1, 128, 20, 20>]>>[\"/model.8/m.0/cv2/conv/Conv_output_0_calibrated_/model.8/m.0/cv2/act/Mul_HzQuantize\"])","op":"%199 = \"qnt.scast\"(%194) : (tensor<1x20x20x128x!qnt.uniform<si8:f32, 0.036185003817081451>>) -> tensor<1x20x20x128xsi8>","tensor_names":[{"data_type":"si8","tensor_name":"/model.8/m.0/cv2/conv/Conv_output_0_calibrated_/model.8/m.0/cv2/act/Mul_quantized_input"}]},{"backend":"bpu","loc":"loc(fused<#hbdk.track<resultName = [\"/model.8/m.0/cv2/act/Mul_output_0\"], resultMap = [(d0, d1, d2, d3) -> (d0, d3, d1, d2)], resultType = [!qnt.uniform<si8:f32, 0.058643106371164322>], layerName = \"/model.8/m.0/cv2/act/Mul_id_357\", layerId = 357, originalOps = 0, originalCycles = 400, originalOutputsShape = [<1, 128, 20, 20>]>>[\"/model.8/m.0/cv2/act/Mul\"])","op":"%201 = \"b30.lut\"(%199, %200) <{instanceId = -1 : i64, mode = #hbdk<LutMode NONE>, roundMode = #hbdk<RoundMode ROUND>, saturate = true, symmetricMode = #hbdk<SymmetricMode ASYM>}> ({\n}) : (tensor<1x20x20x128xsi8>, tensor<512xsi8>) -> tensor<1x20x20x128xsi8>","tensor_names":[{"data_type":"si8","tensor_name":"/model.8/m.0/cv2/act/Mul_output_0"}]},{"backend":"null","loc":"loc(fused<#hbdk.track<resultName = [\"/model.8/m.0/cv2/act/Mul_output_0\"], resultMap = [(d0, d1, d2, d3) -> (d0, d3, d1, d2)], resultType = [!qnt.uniform<si8:f32, 0.058643106371164322>], layerName = \"/model.8/m.0/cv2/act/Mul_output_0_HzDequantize_id_358\", layerId = 358, originalOps = 0, originalCycles = 1, originalOutputsShape = [<1, 128, 20, 20>]>>[\"/model.8/m.0/cv2/act/Mul_output_0_HzDequantize\"])","op":"%202 = \"qnt.scast\"(%201) : (tensor<1x20x20x128xsi8>) -> tensor<1x20x20x128x!qnt.uniform<si8:f32, 0.058643106371164322>>","tensor_names":[{"data_type":"si8","tensor_name":"/model.8/m.0/cv2/act/Mul_output_0"}]},{"backend":"bpu","loc":"loc(fused<#hbdk.track<resultName = [\"/model.8/m.0/m/m.0/cv1/conv/Conv_output_0_calibrated\"], resultMap = [(d0, d1, d2, d3) -> (d0, d3, d1, d2)], resultType = [!qnt.uniform<si8:f32, 0.046529252082109451>], layerName = \"/model.8/m.0/m/m.0/cv1/conv/Conv_id_365\", layerId = 365, originalOps = 117964800, originalCycles = 3600, originalOutputsShape = [<1, 20, 20, 128>]>>[\"/model.8/m.0/m/m.0/cv1/conv/Conv\"])","op":"%205 = \"hbir.conv\"(%198, %203, %204) <{channelLast = true, dilation = [1, 1], groupNum = 1 : i64, pad = [1, 1, 1, 1], stride = [1, 1]}> : (tensor<1x20x20x128x!qnt.uniform<si8:f32, 0.015250064432621002>>, tensor<128x3x3x128x!qnt.uniform<si8:f32:0, {… >>, tensor<128xf32>) -> tensor<1x20x20x128x!qnt.uniform<si8:f32, 0.046529252082109451>>","tensor_names":[{"data_type":"si8","tensor_name":"/model.8/m.0/m/m.0/cv1/conv/Conv_output_0_calibrated"}]},{"backend":"null","loc":"loc(fused<#hbdk.track<resultName = [\"/model.8/m.0/m/m.0/cv1/conv/Conv_output_0_calibrated_/model.8/m.0/m/m.0/cv1/act/Mul_quantized_input\"], resultMap = [(d0, d1, d2, d3) -> (d0, d3, d1, d2)], layerName = \"/model.8/m.0/m/m.0/cv1/conv/Conv_output_0_calibrated_/model.8/m.0/m/m.0/cv1/act/Mul_HzQuantize_id_368\", layerId = 368, originalOps = 0, originalCycles = 1, originalOutputsShape = [<1, 128, 20, 20>]>>[\"/model.8/m.0/m/m.0/cv1/conv/Conv_output_0_calibrated_/model.8/m.0/m/m.0/cv1/act/Mul_HzQuantize\"])","op":"%206 = \"qnt.scast\"(%205) : (tensor<1x20x20x128x!qnt.uniform<si8:f32, 0.046529252082109451>>) -> tensor<1x20x20x128xsi8>","tensor_names":[{"data_type":"si8","tensor_name":"/model.8/m.0/m/m.0/cv1/conv/Conv_output_0_calibrated_/model.8/m.0/m/m.0/cv1/act/Mul_quantized_input"}]},{"backend":"bpu","loc":"loc(fused<#hbdk.track<resultName = [\"/model.8/m.0/m/m.0/cv1/act/Mul_output_0\"], resultMap = [(d0, d1, d2, d3) -> (d0, d3, d1, d2)], resultType = [!qnt.uniform<si8:f32, 0.018683053553104401>], layerName = \"/model.8/m.0/m/m.0/cv1/act/Mul_id_370\", layerId = 370, originalOps = 0, originalCycles = 400, originalOutputsShape = [<1, 128, 20, 20>]>>[\"/model.8/m.0/m/m.0/cv1/act/Mul\"])","op":"%208 = \"b30.lut\"(%206, %207) <{instanceId = -1 : i64, mode = #hbdk<LutMode NONE>, roundMode = #hbdk<RoundMode ROUND>, saturate = true, symmetricMode = #hbdk<SymmetricMode ASYM>}> ({\n}) : (tensor<1x20x20x128xsi8>, tensor<512xsi8>) -> tensor<1x20x20x128xsi8>","tensor_names":[{"data_type":"si8","tensor_name":"/model.8/m.0/m/m.0/cv1/act/Mul_output_0"}]},{"backend":"null","loc":"loc(fused<#hbdk.track<resultName = [\"/model.8/m.0/m/m.0/cv1/act/Mul_output_0\"], resultMap = [(d0, d1, d2, d3) -> (d0, d3, d1, d2)], resultType = [!qnt.uniform<si8:f32, 0.018683053553104401>], layerName = \"/model.8/m.0/m/m.0/cv1/act/Mul_output_0_HzDequantize_id_371\", layerId = 371, originalOps = 0, originalCycles = 1, originalOutputsShape = [<1, 128, 20, 20>]>>[\"/model.8/m.0/m/m.0/cv1/act/Mul_output_0_HzDequantize\"])","op":"%209 = \"qnt.scast\"(%208) : (tensor<1x20x20x128xsi8>) -> tensor<1x20x20x128x!qnt.uniform<si8:f32, 0.018683053553104401>>","tensor_names":[{"data_type":"si8","tensor_name":"/model.8/m.0/m/m.0/cv1/act/Mul_output_0"}]},{"backend":"bpu","loc":"loc(fused<#hbdk.track<resultName = [\"/model.8/m.0/m/m.0/cv2/conv/Conv_output_0_calibrated\"], resultMap = [(d0, d1, d2, d3) -> (d0, d3, d1, d2)], resultType = [!qnt.uniform<si8:f32, 0.031354062259197235>], layerName = \"/model.8/m.0/m/m.0/cv2/conv/Conv_id_378\", layerId = 378, originalOps = 117964800, originalCycles = 3600, originalOutputsShape = [<1, 20, 20, 128>]>>[\"/model.8/m.0/m/m.0/cv2/conv/Conv\"])","op":"%212 = \"hbir.conv\"(%209, %210, %211) <{channelLast = true, dilation = [1, 1], groupNum = 1 : i64, pad = [1, 1, 1, 1], stride = [1, 1]}> : (tensor<1x20x20x128x!qnt.uniform<si8:f32, 0.018683053553104401>>, tensor<128x3x3x128x!qnt.uniform<si8:f32:0, {… >>, tensor<128xf32>) -> tensor<1x20x20x128x!qnt.uniform<si8:f32, 0.031354062259197235>>","tensor_names":[{"data_type":"si8","tensor_name":"/model.8/m.0/m/m.0/cv2/conv/Conv_output_0_calibrated"}]},{"backend":"null","loc":"loc(fused<#hbdk.track<resultName = [\"/model.8/m.0/m/m.0/cv2/conv/Conv_output_0_calibrated_/model.8/m.0/m/m.0/cv2/act/Mul_quantized_input\"], resultMap = [(d0, d1, d2, d3) -> (d0, d3, d1, d2)], layerName = \"/model.8/m.0/m/m.0/cv2/conv/Conv_output_0_calibrated_/model.8/m.0/m/m.0/cv2/act/Mul_HzQuantize_id_381\", layerId = 381, originalOps = 0, originalCycles = 1, originalOutputsShape = [<1, 128, 20, 20>]>>[\"/model.8/m.0/m/m.0/cv2/conv/Conv_output_0_calibrated_/model.8/m.0/m/m.0/cv2/act/Mul_HzQuantize\"])","op":"%213 = \"qnt.scast\"(%212) : (tensor<1x20x20x128x!qnt.uniform<si8:f32, 0.031354062259197235>>) -> tensor<1x20x20x128xsi8>","tensor_names":[{"data_type":"si8","tensor_name":"/model.8/m.0/m/m.0/cv2/conv/Conv_output_0_calibrated_/model.8/m.0/m/m.0/cv2/act/Mul_quantized_input"}]},{"backend":"bpu","loc":"loc(fused<#hbdk.track<resultName = [\"/model.8/m.0/m/m.0/cv2/act/Mul_output_0\"], resultMap = [(d0, d1, d2, d3) -> (d0, d3, d1, d2)], resultType = [!qnt.uniform<si8:f32, 0.030780047178268433>], layerName = \"/model.8/m.0/m/m.0/cv2/act/Mul_id_383\", layerId = 383, originalOps = 0, originalCycles = 400, originalOutputsShape = [<1, 128, 20, 20>]>>[\"/model.8/m.0/m/m.0/cv2/act/Mul\"])","op":"%215 = \"b30.lut\"(%213, %214) <{instanceId = -1 : i64, mode = #hbdk<LutMode NONE>, roundMode = #hbdk<RoundMode ROUND>, saturate = true, symmetricMode = #hbdk<SymmetricMode ASYM>}> ({\n}) : (tensor<1x20x20x128xsi8>, tensor<512xsi8>) -> tensor<1x20x20x128xsi8>","tensor_names":[{"data_type":"si8","tensor_name":"/model.8/m.0/m/m.0/cv2/act/Mul_output_0"}]},{"backend":"null","loc":"loc(fused<#hbdk.track<resultName = [\"/model.8/m.0/m/m.0/cv2/act/Mul_output_0\"], resultMap = [(d0, d1, d2, d3) -> (d0, d3, d1, d2)], resultType = [!qnt.uniform<si8:f32, 0.030780047178268433>], layerName = \"/model.8/m.0/m/m.0/cv2/act/Mul_output_0_HzDequantize_id_384\", layerId = 384, originalOps = 0, originalCycles = 1, originalOutputsShape = [<1, 128, 20, 20>]>>[\"/model.8/m.0/m/m.0/cv2/act/Mul_output_0_HzDequantize\"])","op":"%216 = \"qnt.scast\"(%215) : (tensor<1x20x20x128xsi8>) -> tensor<1x20x20x128x!qnt.uniform<si8:f32, 0.030780047178268433>>","tensor_names":[{"data_type":"si8","tensor_name":"/model.8/m.0/m/m.0/cv2/act/Mul_output_0"}]},{"backend":"bpu","loc":"loc(fused<#hbdk.track<resultName = [\"/model.8/m.0/m/m.0/Add_output_0_calibrated\"], resultMap = [(d0, d1, d2, d3) -> (d0, d3, d1, d2)], resultType = [!qnt.uniform<si8:f32, 0.029492177069187164>], layerName = \"/model.8/m.0/m/m.0/Add_id_386\", layerId = 386, originalOps = 0, originalCycles = 800, originalOutputsShape = [<1, 128, 20, 20>]>>[\"/model.8/m.0/m/m.0/Add\"])","op":"%217 = \"hbir.add\"(%198, %216) : (tensor<1x20x20x128x!qnt.uniform<si8:f32, 0.015250064432621002>>, tensor<1x20x20x128x!qnt.uniform<si8:f32, 0.030780047178268433>>) -> tensor<1x20x20x128x!qnt.uniform<si8:f32, 0.029492177069187164>>","tensor_names":[{"data_type":"si8","tensor_name":"/model.8/m.0/m/m.0/Add_output_0_calibrated"}]},{"backend":"bpu","loc":"loc(fused<#hbdk.track<resultName = [\"/model.8/m.0/m/m.1/cv1/conv/Conv_output_0_calibrated\"], resultMap = [(d0, d1, d2, d3) -> (d0, d3, d1, d2)], resultType = [!qnt.uniform<si8:f32, 0.024014841765165329>], layerName = \"/model.8/m.0/m/m.1/cv1/conv/Conv_id_393\", layerId = 393, originalOps = 117964800, originalCycles = 3600, originalOutputsShape = [<1, 20, 20, 128>]>>[\"/model.8/m.0/m/m.1/cv1/conv/Conv\"])","op":"%220 = \"hbir.conv\"(%217, %218, %219) <{channelLast = true, dilation = [1, 1], groupNum = 1 : i64, pad = [1, 1, 1, 1], stride = [1, 1]}> : (tensor<1x20x20x128x!qnt.uniform<si8:f32, 0.029492177069187164>>, tensor<128x3x3x128x!qnt.uniform<si8:f32:0, {… >>, tensor<128xf32>) -> tensor<1x20x20x128x!qnt.uniform<si8:f32, 0.024014841765165329>>","tensor_names":[{"data_type":"si8","tensor_name":"/model.8/m.0/m/m.1/cv1/conv/Conv_output_0_calibrated"}]},{"backend":"null","loc":"loc(fused<#hbdk.track<resultName = [\"/model.8/m.0/m/m.1/cv1/conv/Conv_output_0_calibrated_/model.8/m.0/m/m.1/cv1/act/Mul_quantized_input\"], resultMap = [(d0, d1, d2, d3) -> (d0, d3, d1, d2)], layerName = \"/model.8/m.0/m/m.1/cv1/conv/Conv_output_0_calibrated_/model.8/m.0/m/m.1/cv1/act/Mul_HzQuantize_id_396\", layerId = 396, originalOps = 0, originalCycles = 1, originalOutputsShape = [<1, 128, 20, 20>]>>[\"/model.8/m.0/m/m.1/cv1/conv/Conv_output_0_calibrated_/model.8/m.0/m/m.1/cv1/act/Mul_HzQuantize\"])","op":"%221 = \"qnt.scast\"(%220) : (tensor<1x20x20x128x!qnt.uniform<si8:f32, 0.024014841765165329>>) -> tensor<1x20x20x128xsi8>","tensor_names":[{"data_type":"si8","tensor_name":"/model.8/m.0/m/m.1/cv1/conv/Conv_output_0_calibrated_/model.8/m.0/m/m.1/cv1/act/Mul_quantized_input"}]},{"backend":"bpu","loc":"loc(fused<#hbdk.track<resultName = [\"/model.8/m.0/m/m.1/cv1/act/Mul_output_0\"], resultMap = [(d0, d1, d2, d3) -> (d0, d3, d1, d2)], resultType = [!qnt.uniform<si8:f32, 0.01621987484395504>], layerName = \"/model.8/m.0/m/m.1/cv1/act/Mul_id_398\", layerId = 398, originalOps = 0, originalCycles = 400, originalOutputsShape = [<1, 128, 20, 20>]>>[\"/model.8/m.0/m/m.1/cv1/act/Mul\"])","op":"%223 = \"b30.lut\"(%221, %222) <{instanceId = -1 : i64, mode = #hbdk<LutMode NONE>, roundMode = #hbdk<RoundMode ROUND>, saturate = true, symmetricMode = #hbdk<SymmetricMode ASYM>}> ({\n}) : (tensor<1x20x20x128xsi8>, tensor<512xsi8>) -> tensor<1x20x20x128xsi8>","tensor_names":[{"data_type":"si8","tensor_name":"/model.8/m.0/m/m.1/cv1/act/Mul_output_0"}]},{"backend":"null","loc":"loc(fused<#hbdk.track<resultName = [\"/model.8/m.0/m/m.1/cv1/act/Mul_output_0\"], resultMap = [(d0, d1, d2, d3) -> (d0, d3, d1, d2)], resultType = [!qnt.uniform<si8:f32, 0.01621987484395504>], layerName = \"/model.8/m.0/m/m.1/cv1/act/Mul_output_0_HzDequantize_id_399\", layerId = 399, originalOps = 0, originalCycles = 1, originalOutputsShape = [<1, 128, 20, 20>]>>[\"/model.8/m.0/m/m.1/cv1/act/Mul_output_0_HzDequantize\"])","op":"%224 = \"qnt.scast\"(%223) : (tensor<1x20x20x128xsi8>) -> tensor<1x20x20x128x!qnt.uniform<si8:f32, 0.01621987484395504>>","tensor_names":[{"data_type":"si8","tensor_name":"/model.8/m.0/m/m.1/cv1/act/Mul_output_0"}]},{"backend":"bpu","loc":"loc(fused<#hbdk.track<resultName = [\"/model.8/m.0/m/m.1/cv2/conv/Conv_output_0_calibrated\"], resultMap = [(d0, d1, d2, d3) -> (d0, d3, d1, d2)], resultType = [!qnt.uniform<si8:f32, 0.049153551459312439>], layerName = \"/model.8/m.0/m/m.1/cv2/conv/Conv_id_406\", layerId = 406, originalOps = 117964800, originalCycles = 3600, originalOutputsShape = [<1, 20, 20, 128>]>>[\"/model.8/m.0/m/m.1/cv2/conv/Conv\"])","op":"%227 = \"hbir.conv\"(%224, %225, %226) <{channelLast = true, dilation = [1, 1], groupNum = 1 : i64, pad = [1, 1, 1, 1], stride = [1, 1]}> : (tensor<1x20x20x128x!qnt.uniform<si8:f32, 0.01621987484395504>>, tensor<128x3x3x128x!qnt.uniform<si8:f32:0, {… >>, tensor<128xf32>) -> tensor<1x20x20x128x!qnt.uniform<si8:f32, 0.049153551459312439>>","tensor_names":[{"data_type":"si8","tensor_name":"/model.8/m.0/m/m.1/cv2/conv/Conv_output_0_calibrated"}]},{"backend":"null","loc":"loc(fused<#hbdk.track<resultName = [\"/model.8/m.0/m/m.1/cv2/conv/Conv_output_0_calibrated_/model.8/m.0/m/m.1/cv2/act/Mul_quantized_input\"], resultMap = [(d0, d1, d2, d3) -> (d0, d3, d1, d2)], layerName = \"/model.8/m.0/m/m.1/cv2/conv/Conv_output_0_calibrated_/model.8/m.0/m/m.1/cv2/act/Mul_HzQuantize_id_409\", layerId = 409, originalOps = 0, originalCycles = 1, originalOutputsShape = [<1, 128, 20, 20>]>>[\"/model.8/m.0/m/m.1/cv2/conv/Conv_output_0_calibrated_/model.8/m.0/m/m.1/cv2/act/Mul_HzQuantize\"])","op":"%228 = \"qnt.scast\"(%227) : (tensor<1x20x20x128x!qnt.uniform<si8:f32, 0.049153551459312439>>) -> tensor<1x20x20x128xsi8>","tensor_names":[{"data_type":"si8","tensor_name":"/model.8/m.0/m/m.1/cv2/conv/Conv_output_0_calibrated_/model.8/m.0/m/m.1/cv2/act/Mul_quantized_input"}]},{"backend":"bpu","loc":"loc(fused<#hbdk.track<resultName = [\"/model.8/m.0/m/m.1/cv2/act/Mul_output_0\"], resultMap = [(d0, d1, d2, d3) -> (d0, d3, d1, d2)], resultType = [!qnt.uniform<si8:f32, 0.049058131873607635>], layerName = \"/model.8/m.0/m/m.1/cv2/act/Mul_id_411\", layerId = 411, originalOps = 0, originalCycles = 400, originalOutputsShape = [<1, 128, 20, 20>]>>[\"/model.8/m.0/m/m.1/cv2/act/Mul\"])","op":"%230 = \"b30.lut\"(%228, %229) <{instanceId = -1 : i64, mode = #hbdk<LutMode NONE>, roundMode = #hbdk<RoundMode ROUND>, saturate = true, symmetricMode = #hbdk<SymmetricMode ASYM>}> ({\n}) : (tensor<1x20x20x128xsi8>, tensor<512xsi8>) -> tensor<1x20x20x128xsi8>","tensor_names":[{"data_type":"si8","tensor_name":"/model.8/m.0/m/m.1/cv2/act/Mul_output_0"}]},{"backend":"null","loc":"loc(fused<#hbdk.track<resultName = [\"/model.8/m.0/m/m.1/cv2/act/Mul_output_0\"], resultMap = [(d0, d1, d2, d3) -> (d0, d3, d1, d2)], resultType = [!qnt.uniform<si8:f32, 0.049058131873607635>], layerName = \"/model.8/m.0/m/m.1/cv2/act/Mul_output_0_HzDequantize_id_412\", layerId = 412, originalOps = 0, originalCycles = 1, originalOutputsShape = [<1, 128, 20, 20>]>>[\"/model.8/m.0/m/m.1/cv2/act/Mul_output_0_HzDequantize\"])","op":"%231 = \"qnt.scast\"(%230) : (tensor<1x20x20x128xsi8>) -> tensor<1x20x20x128x!qnt.uniform<si8:f32, 0.049058131873607635>>","tensor_names":[{"data_type":"si8","tensor_name":"/model.8/m.0/m/m.1/cv2/act/Mul_output_0"}]},{"backend":"bpu","loc":"loc(fused<#hbdk.track<resultName = [\"/model.8/m.0/m/m.1/Add_output_0_calibrated\"], resultMap = [(d0, d1, d2, d3) -> (d0, d3, d1, d2)], resultType = [!qnt.uniform<si8:f32, 0.058643106371164322>], layerName = \"/model.8/m.0/m/m.1/Add_id_414\", layerId = 414, originalOps = 0, originalCycles = 800, originalOutputsShape = [<1, 128, 20, 20>]>>[\"/model.8/m.0/m/m.1/Add\"])","op":"%232 = \"hbir.add\"(%217, %231) : (tensor<1x20x20x128x!qnt.uniform<si8:f32, 0.029492177069187164>>, tensor<1x20x20x128x!qnt.uniform<si8:f32, 0.049058131873607635>>) -> tensor<1x20x20x128x!qnt.uniform<si8:f32, 0.058643106371164322>>","tensor_names":[{"data_type":"si8","tensor_name":"/model.8/m.0/m/m.1/Add_output_0_calibrated"}]},{"backend":"bpu","loc":"loc(fused<#hbdk.track<resultName = [\"/model.8/m.0/Concat_output_0_calibrated\"], resultMap = [(d0, d1, d2, d3) -> (d0, d3, d1, d2)], resultType = [!qnt.uniform<si8:f32, 0.058643106371164322>], layerName = \"/model.8/m.0/Concat_id_417\", layerId = 417, originalOps = 0, originalCycles = 40290, originalOutputsShape = [<1, 256, 20, 20>]>>[\"/model.8/m.0/Concat\"])","op":"%233 = \"hbir.concat\"(%232, %202) <{dim = 3 : i64}> : (tensor<1x20x20x128x!qnt.uniform<si8:f32, 0.058643106371164322>>, tensor<1x20x20x128x!qnt.uniform<si8:f32, 0.058643106371164322>>) -> tensor<1x20x20x256x!qnt.uniform<si8:f32, 0.058643106371164322>>","tensor_names":[{"data_type":"si8","tensor_name":"/model.8/m.0/Concat_output_0_calibrated"}]},{"backend":"bpu","loc":"loc(fused<#hbdk.track<resultName = [\"/model.8/m.0/cv3/conv/Conv_output_0_calibrated\"], resultMap = [(d0, d1, d2, d3) -> (d0, d3, d1, d2)], resultType = [!qnt.uniform<si8:f32, 0.036495856940746307>], layerName = \"/model.8/m.0/cv3/conv/Conv_id_424\", layerId = 424, originalOps = 52428800, originalCycles = 1600, originalOutputsShape = [<1, 20, 20, 256>]>>[\"/model.8/m.0/cv3/conv/Conv\"])","op":"%236 = \"hbir.conv\"(%233, %234, %235) <{channelLast = true, dilation = [1, 1], groupNum = 1 : i64, pad = [0, 0, 0, 0], stride = [1, 1]}> : (tensor<1x20x20x256x!qnt.uniform<si8:f32, 0.058643106371164322>>, tensor<256x1x1x256x!qnt.uniform<si8:f32:0, {… >>, tensor<256xf32>) -> tensor<1x20x20x256x!qnt.uniform<si8:f32, 0.036495856940746307>>","tensor_names":[{"data_type":"si8","tensor_name":"/model.8/m.0/cv3/conv/Conv_output_0_calibrated"}]},{"backend":"null","loc":"loc(fused<#hbdk.track<resultName = [\"/model.8/m.0/cv3/conv/Conv_output_0_calibrated_/model.8/m.0/cv3/act/Mul_quantized_input\"], resultMap = [(d0, d1, d2, d3) -> (d0, d3, d1, d2)], layerName = \"/model.8/m.0/cv3/conv/Conv_output_0_calibrated_/model.8/m.0/cv3/act/Mul_HzQuantize_id_427\", layerId = 427, originalOps = 0, originalCycles = 1, originalOutputsShape = [<1, 256, 20, 20>]>>[\"/model.8/m.0/cv3/conv/Conv_output_0_calibrated_/model.8/m.0/cv3/act/Mul_HzQuantize\"])","op":"%237 = \"qnt.scast\"(%236) : (tensor<1x20x20x256x!qnt.uniform<si8:f32, 0.036495856940746307>>) -> tensor<1x20x20x256xsi8>","tensor_names":[{"data_type":"si8","tensor_name":"/model.8/m.0/cv3/conv/Conv_output_0_calibrated_/model.8/m.0/cv3/act/Mul_quantized_input"}]},{"backend":"bpu","loc":"loc(fused<#hbdk.track<resultName = [\"/model.8/m.0/cv3/act/Mul_output_0\"], resultMap = [(d0, d1, d2, d3) -> (d0, d3, d1, d2)], resultType = [!qnt.uniform<si8:f32, 0.044656544923782349>], layerName = \"/model.8/m.0/cv3/act/Mul_id_429\", layerId = 429, originalOps = 0, originalCycles = 800, originalOutputsShape = [<1, 256, 20, 20>]>>[\"/model.8/m.0/cv3/act/Mul\"])","op":"%239 = \"b30.lut\"(%237, %238) <{instanceId = -1 : i64, mode = #hbdk<LutMode NONE>, roundMode = #hbdk<RoundMode ROUND>, saturate = true, symmetricMode = #hbdk<SymmetricMode ASYM>}> ({\n}) : (tensor<1x20x20x256xsi8>, tensor<512xsi8>) -> tensor<1x20x20x256xsi8>","tensor_names":[{"data_type":"si8","tensor_name":"/model.8/m.0/cv3/act/Mul_output_0"}]},{"backend":"null","loc":"loc(fused<#hbdk.track<resultName = [\"/model.8/m.0/cv3/act/Mul_output_0\"], resultMap = [(d0, d1, d2, d3) -> (d0, d3, d1, d2)], resultType = [!qnt.uniform<si8:f32, 0.044656544923782349>], layerName = \"/model.8/m.0/cv3/act/Mul_output_0_HzDequantize_id_430\", layerId = 430, originalOps = 0, originalCycles = 1, originalOutputsShape = [<1, 256, 20, 20>]>>[\"/model.8/m.0/cv3/act/Mul_output_0_HzDequantize\"])","op":"%240 = \"qnt.scast\"(%239) : (tensor<1x20x20x256xsi8>) -> tensor<1x20x20x256x!qnt.uniform<si8:f32, 0.044656544923782349>>","tensor_names":[{"data_type":"si8","tensor_name":"/model.8/m.0/cv3/act/Mul_output_0"}]},{"backend":"null","loc":"loc(fused<#hbdk.track<resultName = [\"/model.8/Split_output_0_calibrated\"], resultMap = [(d0, d1, d2, d3) -> (d0, d3, d1, d2)], resultType = [!qnt.uniform<si8:f32, 0.044656544923782349>], layerName = \"/model.8/Split_output_0_HzCalibration_id_431\", layerId = 431, originalOps = 0, originalCycles = 1, originalOutputsShape = [<1, 256, 20, 20>]>>[\"/model.8/Split_output_0_HzCalibration\"])","op":"%241 = \"qnt.rcast\"(%186) : (tensor<1x20x20x256x!qnt.uniform<si8:f32, 0.045205533504486084>>) -> tensor<1x20x20x256x!qnt.uniform<si8:f32, 0.044656544923782349>>","tensor_names":[{"data_type":"si8","tensor_name":"/model.8/Split_output_0_calibrated"}]},{"backend":"null","loc":"loc(fused<#hbdk.track<resultName = [\"/model.8/Split_output_1_calibrated\"], resultMap = [(d0, d1, d2, d3) -> (d0, d3, d1, d2)], resultType = [!qnt.uniform<si8:f32, 0.044656544923782349>], layerName = \"/model.8/Split_output_1_HzCalibration_id_336\", layerId = 336, originalOps = 0, originalCycles = 1, originalOutputsShape = [<1, 256, 20, 20>]>>[\"/model.8/Split_output_1_HzCalibration\"])","op":"%242 = \"qnt.rcast\"(%188) : (tensor<1x20x20x256x!qnt.uniform<si8:f32, 0.022312002256512642>>) -> tensor<1x20x20x256x!qnt.uniform<si8:f32, 0.044656544923782349>>","tensor_names":[{"data_type":"si8","tensor_name":"/model.8/Split_output_1_calibrated"}]},{"backend":"bpu","loc":"loc(fused<#hbdk.track<resultName = [\"/model.8/Concat_output_0_calibrated\"], resultMap = [(d0, d1, d2, d3) -> (d0, d3, d1, d2)], resultType = [!qnt.uniform<si8:f32, 0.044656544923782349>], layerName = \"/model.8/Concat_id_433\", layerId = 433, originalOps = 0, originalCycles = 120669, originalOutputsShape = [<1, 768, 20, 20>]>>[\"/model.8/Concat\"])","op":"%243 = \"hbir.concat\"(%241, %242, %240) <{dim = 3 : i64}> : (tensor<1x20x20x256x!qnt.uniform<si8:f32, 0.044656544923782349>>, tensor<1x20x20x256x!qnt.uniform<si8:f32, 0.044656544923782349>>, tensor<1x20x20x256x!qnt.uniform<si8:f32, 0.044656544923782349>>) -> tensor<1x20x20x768x!qnt.uniform<si8:f32, 0.044656544923782349>>","tensor_names":[{"data_type":"si8","tensor_name":"/model.8/Concat_output_0_calibrated"}]},{"backend":"bpu","loc":"loc(fused<#hbdk.track<resultName = [\"/model.8/cv2/conv/Conv_output_0_calibrated\"], resultMap = [(d0, d1, d2, d3) -> (d0, d3, d1, d2)], resultType = [!qnt.uniform<si8:f32, 0.046434368938207626>], layerName = \"/model.8/cv2/conv/Conv_id_440\", layerId = 440, originalOps = 314572800, originalCycles = 9600, originalOutputsShape = [<1, 20, 20, 512>]>>[\"/model.8/cv2/conv/Conv\"])","op":"%246 = \"hbir.conv\"(%243, %244, %245) <{channelLast = true, dilation = [1, 1], groupNum = 1 : i64, pad = [0, 0, 0, 0], stride = [1, 1]}> : (tensor<1x20x20x768x!qnt.uniform<si8:f32, 0.044656544923782349>>, tensor<512x1x1x768x!qnt.uniform<si8:f32:0, {… >>, tensor<512xf32>) -> tensor<1x20x20x512x!qnt.uniform<si8:f32, 0.046434368938207626>>","tensor_names":[{"data_type":"si8","tensor_name":"/model.8/cv2/conv/Conv_output_0_calibrated"}]},{"backend":"null","loc":"loc(fused<#hbdk.track<resultName = [\"/model.8/cv2/conv/Conv_output_0_calibrated_/model.8/cv2/act/Mul_quantized_input\"], resultMap = [(d0, d1, d2, d3) -> (d0, d3, d1, d2)], layerName = \"/model.8/cv2/conv/Conv_output_0_calibrated_/model.8/cv2/act/Mul_HzQuantize_id_443\", layerId = 443, originalOps = 0, originalCycles = 1, originalOutputsShape = [<1, 512, 20, 20>]>>[\"/model.8/cv2/conv/Conv_output_0_calibrated_/model.8/cv2/act/Mul_HzQuantize\"])","op":"%247 = \"qnt.scast\"(%246) : (tensor<1x20x20x512x!qnt.uniform<si8:f32, 0.046434368938207626>>) -> tensor<1x20x20x512xsi8>","tensor_names":[{"data_type":"si8","tensor_name":"/model.8/cv2/conv/Conv_output_0_calibrated_/model.8/cv2/act/Mul_quantized_input"}]},{"backend":"bpu","loc":"loc(fused<#hbdk.track<resultName = [\"/model.8/cv2/act/Mul_output_0\"], resultMap = [(d0, d1, d2, d3) -> (d0, d3, d1, d2)], resultType = [!qnt.uniform<si8:f32, 0.046301562339067459>], layerName = \"/model.8/cv2/act/Mul_id_445\", layerId = 445, originalOps = 0, originalCycles = 1600, originalOutputsShape = [<1, 512, 20, 20>]>>[\"/model.8/cv2/act/Mul\"])","op":"%249 = \"b30.lut\"(%247, %248) <{instanceId = -1 : i64, mode = #hbdk<LutMode NONE>, roundMode = #hbdk<RoundMode ROUND>, saturate = true, symmetricMode = #hbdk<SymmetricMode ASYM>}> ({\n}) : (tensor<1x20x20x512xsi8>, tensor<512xsi8>) -> tensor<1x20x20x512xsi8>","tensor_names":[{"data_type":"si8","tensor_name":"/model.8/cv2/act/Mul_output_0"}]},{"backend":"null","loc":"loc(fused<#hbdk.track<resultName = [\"/model.8/cv2/act/Mul_output_0\"], resultMap = [(d0, d1, d2, d3) -> (d0, d3, d1, d2)], resultType = [!qnt.uniform<si8:f32, 0.046301562339067459>], layerName = \"/model.8/cv2/act/Mul_output_0_HzDequantize_id_446\", layerId = 446, originalOps = 0, originalCycles = 1, originalOutputsShape = [<1, 512, 20, 20>]>>[\"/model.8/cv2/act/Mul_output_0_HzDequantize\"])","op":"%250 = \"qnt.scast\"(%249) : (tensor<1x20x20x512xsi8>) -> tensor<1x20x20x512x!qnt.uniform<si8:f32, 0.046301562339067459>>","tensor_names":[{"data_type":"si8","tensor_name":"/model.8/cv2/act/Mul_output_0"}]},{"backend":"bpu","loc":"loc(fused<#hbdk.track<resultName = [\"/model.9/cv1/conv/Conv_output_0_calibrated\"], resultMap = [(d0, d1, d2, d3) -> (d0, d3, d1, d2)], resultType = [!qnt.uniform<si8:f32, 0.052493933588266373>], layerName = \"/model.9/cv1/conv/Conv_id_453\", layerId = 453, originalOps = 104857600, originalCycles = 3200, originalOutputsShape = [<1, 20, 20, 256>]>>[\"/model.9/cv1/conv/Conv\"])","op":"%253 = \"hbir.conv\"(%250, %251, %252) <{channelLast = true, dilation = [1, 1], groupNum = 1 : i64, pad = [0, 0, 0, 0], stride = [1, 1]}> : (tensor<1x20x20x512x!qnt.uniform<si8:f32, 0.046301562339067459>>, tensor<256x1x1x512x!qnt.uniform<si8:f32:0, {… >>, tensor<256xf32>) -> tensor<1x20x20x256x!qnt.uniform<si8:f32, 0.052493933588266373>>","tensor_names":[{"data_type":"si8","tensor_name":"/model.9/cv1/conv/Conv_output_0_calibrated"}]},{"backend":"bpu","loc":"loc(fused<#hbdk.track<resultName = [\"/model.9/m/MaxPool_output_0_calibrated\"], resultMap = [(d0, d1, d2, d3) -> (d0, d3, d1, d2)], resultType = [!qnt.uniform<si8:f32, 0.052493933588266373>], layerName = \"/model.9/m/MaxPool_id_457\", layerId = 457, originalOps = 0, originalCycles = 1067, originalOutputsShape = [<1, 20, 20, 256>]>>[\"/model.9/m/MaxPool\"])","op":"%254 = \"hbir.max_pool\"(%253) <{ceilMode = false, dilation = [1, 1], kernel = [5, 5], pad = [2, 2, 2, 2], stride = [1, 1]}> : (tensor<1x20x20x256x!qnt.uniform<si8:f32, 0.052493933588266373>>) -> tensor<1x20x20x256x!qnt.uniform<si8:f32, 0.052493933588266373>>","tensor_names":[{"data_type":"si8","tensor_name":"/model.9/m/MaxPool_output_0_calibrated"}]},{"backend":"bpu","loc":"loc(fused<#hbdk.track<resultName = [\"/model.9/m_1/MaxPool_output_0_calibrated\"], resultMap = [(d0, d1, d2, d3) -> (d0, d3, d1, d2)], resultType = [!qnt.uniform<si8:f32, 0.052493933588266373>], layerName = \"/model.9/m_1/MaxPool_id_461\", layerId = 461, originalOps = 0, originalCycles = 1067, originalOutputsShape = [<1, 20, 20, 256>]>>[\"/model.9/m_1/MaxPool\"])","op":"%255 = \"hbir.max_pool\"(%254) <{ceilMode = false, dilation = [1, 1], kernel = [5, 5], pad = [2, 2, 2, 2], stride = [1, 1]}> : (tensor<1x20x20x256x!qnt.uniform<si8:f32, 0.052493933588266373>>) -> tensor<1x20x20x256x!qnt.uniform<si8:f32, 0.052493933588266373>>","tensor_names":[{"data_type":"si8","tensor_name":"/model.9/m_1/MaxPool_output_0_calibrated"}]},{"backend":"bpu","loc":"loc(fused<#hbdk.track<resultName = [\"/model.9/m_2/MaxPool_output_0_calibrated\"], resultMap = [(d0, d1, d2, d3) -> (d0, d3, d1, d2)], resultType = [!qnt.uniform<si8:f32, 0.052493933588266373>], layerName = \"/model.9/m_2/MaxPool_id_465\", layerId = 465, originalOps = 0, originalCycles = 1067, originalOutputsShape = [<1, 20, 20, 256>]>>[\"/model.9/m_2/MaxPool\"])","op":"%256 = \"hbir.max_pool\"(%255) <{ceilMode = false, dilation = [1, 1], kernel = [5, 5], pad = [2, 2, 2, 2], stride = [1, 1]}> : (tensor<1x20x20x256x!qnt.uniform<si8:f32, 0.052493933588266373>>) -> tensor<1x20x20x256x!qnt.uniform<si8:f32, 0.052493933588266373>>","tensor_names":[{"data_type":"si8","tensor_name":"/model.9/m_2/MaxPool_output_0_calibrated"}]},{"backend":"null","loc":"loc(fused<#hbdk.track<resultName = [\"/model.9/cv1/conv/Conv_output_0_calibrated\"], resultMap = [(d0, d1, d2, d3) -> (d0, d3, d1, d2)], resultType = [!qnt.uniform<si8:f32, 0.053784601390361786>], layerName = \"/model.9/cv1/conv/Conv_output_0_HzCalibration_id_455\", layerId = 455, originalOps = 0, originalCycles = 1, originalOutputsShape = [<1, 256, 20, 20>]>>[\"/model.9/cv1/conv/Conv_output_0_HzCalibration\"])","op":"%257 = \"qnt.rcast\"(%253) : (tensor<1x20x20x256x!qnt.uniform<si8:f32, 0.052493933588266373>>) -> tensor<1x20x20x256x!qnt.uniform<si8:f32, 0.053784601390361786>>","tensor_names":[{"data_type":"si8","tensor_name":"/model.9/cv1/conv/Conv_output_0_calibrated"}]},{"backend":"null","loc":"loc(fused<#hbdk.track<resultName = [\"/model.9/m/MaxPool_output_0_calibrated\"], resultMap = [(d0, d1, d2, d3) -> (d0, d3, d1, d2)], resultType = [!qnt.uniform<si8:f32, 0.053784601390361786>], layerName = \"/model.9/m/MaxPool_output_0_HzCalibration_id_459\", layerId = 459, originalOps = 0, originalCycles = 1, originalOutputsShape = [<1, 256, 20, 20>]>>[\"/model.9/m/MaxPool_output_0_HzCalibration\"])","op":"%258 = \"qnt.rcast\"(%254) : (tensor<1x20x20x256x!qnt.uniform<si8:f32, 0.052493933588266373>>) -> tensor<1x20x20x256x!qnt.uniform<si8:f32, 0.053784601390361786>>","tensor_names":[{"data_type":"si8","tensor_name":"/model.9/m/MaxPool_output_0_calibrated"}]},{"backend":"null","loc":"loc(fused<#hbdk.track<resultName = [\"/model.9/m_1/MaxPool_output_0_calibrated\"], resultMap = [(d0, d1, d2, d3) -> (d0, d3, d1, d2)], resultType = [!qnt.uniform<si8:f32, 0.053784601390361786>], layerName = \"/model.9/m_1/MaxPool_output_0_HzCalibration_id_463\", layerId = 463, originalOps = 0, originalCycles = 1, originalOutputsShape = [<1, 256, 20, 20>]>>[\"/model.9/m_1/MaxPool_output_0_HzCalibration\"])","op":"%259 = \"qnt.rcast\"(%255) : (tensor<1x20x20x256x!qnt.uniform<si8:f32, 0.052493933588266373>>) -> tensor<1x20x20x256x!qnt.uniform<si8:f32, 0.053784601390361786>>","tensor_names":[{"data_type":"si8","tensor_name":"/model.9/m_1/MaxPool_output_0_calibrated"}]},{"backend":"null","loc":"loc(fused<#hbdk.track<resultName = [\"/model.9/m_2/MaxPool_output_0_calibrated\"], resultMap = [(d0, d1, d2, d3) -> (d0, d3, d1, d2)], resultType = [!qnt.uniform<si8:f32, 0.053784601390361786>], layerName = \"/model.9/m_2/MaxPool_output_0_HzCalibration_id_467\", layerId = 467, originalOps = 0, originalCycles = 1, originalOutputsShape = [<1, 256, 20, 20>]>>[\"/model.9/m_2/MaxPool_output_0_HzCalibration\"])","op":"%260 = \"qnt.rcast\"(%256) : (tensor<1x20x20x256x!qnt.uniform<si8:f32, 0.052493933588266373>>) -> tensor<1x20x20x256x!qnt.uniform<si8:f32, 0.053784601390361786>>","tensor_names":[{"data_type":"si8","tensor_name":"/model.9/m_2/MaxPool_output_0_calibrated"}]},{"backend":"bpu","loc":"loc(fused<#hbdk.track<resultName = [\"/model.9/Concat_output_0_calibrated\"], resultMap = [(d0, d1, d2, d3) -> (d0, d3, d1, d2)], resultType = [!qnt.uniform<si8:f32, 0.053784601390361786>], layerName = \"/model.9/Concat_id_468\", layerId = 468, originalOps = 0, originalCycles = 160893, originalOutputsShape = [<1, 1024, 20, 20>]>>[\"/model.9/Concat\"])","op":"%261 = \"hbir.concat\"(%257, %258, %259, %260) <{dim = 3 : i64}> : (tensor<1x20x20x256x!qnt.uniform<si8:f32, 0.053784601390361786>>, tensor<1x20x20x256x!qnt.uniform<si8:f32, 0.053784601390361786>>, tensor<1x20x20x256x!qnt.uniform<si8:f32, 0.053784601390361786>>, tensor<1x20x20x256x!qnt.uniform<si8:f32, 0.053784601390361786>>) -> tensor<1x20x20x1024x!qnt.uniform<si8:f32, 0.053784601390361786>>","tensor_names":[{"data_type":"si8","tensor_name":"/model.9/Concat_output_0_calibrated"}]},{"backend":"bpu","loc":"loc(fused<#hbdk.track<resultName = [\"/model.9/cv2/conv/Conv_output_0_calibrated\"], resultMap = [(d0, d1, d2, d3) -> (d0, d3, d1, d2)], resultType = [!qnt.uniform<si8:f32, 0.10912579298019409>], layerName = \"/model.9/cv2/conv/Conv_id_475\", layerId = 475, originalOps = 419430400, originalCycles = 12800, originalOutputsShape = [<1, 20, 20, 512>]>>[\"/model.9/cv2/conv/Conv\"])","op":"%264 = \"hbir.conv\"(%261, %262, %263) <{channelLast = true, dilation = [1, 1], groupNum = 1 : i64, pad = [0, 0, 0, 0], stride = [1, 1]}> : (tensor<1x20x20x1024x!qnt.uniform<si8:f32, 0.053784601390361786>>, tensor<512x1x1x1024x!qnt.uniform<si8:f32:0, {… >>, tensor<512xf32>) -> tensor<1x20x20x512x!qnt.uniform<si8:f32, 0.10912579298019409>>","tensor_names":[{"data_type":"si8","tensor_name":"/model.9/cv2/conv/Conv_output_0_calibrated"}]},{"backend":"null","loc":"loc(fused<#hbdk.track<resultName = [\"/model.9/cv2/conv/Conv_output_0_calibrated_/model.9/cv2/act/Mul_quantized_input\"], resultMap = [(d0, d1, d2, d3) -> (d0, d3, d1, d2)], layerName = \"/model.9/cv2/conv/Conv_output_0_calibrated_/model.9/cv2/act/Mul_HzQuantize_id_478\", layerId = 478, originalOps = 0, originalCycles = 1, originalOutputsShape = [<1, 512, 20, 20>]>>[\"/model.9/cv2/conv/Conv_output_0_calibrated_/model.9/cv2/act/Mul_HzQuantize\"])","op":"%265 = \"qnt.scast\"(%264) : (tensor<1x20x20x512x!qnt.uniform<si8:f32, 0.10912579298019409>>) -> tensor<1x20x20x512xsi8>","tensor_names":[{"data_type":"si8","tensor_name":"/model.9/cv2/conv/Conv_output_0_calibrated_/model.9/cv2/act/Mul_quantized_input"}]},{"backend":"bpu","loc":"loc(fused<#hbdk.track<resultName = [\"/model.9/cv2/act/Mul_output_0\"], resultMap = [(d0, d1, d2, d3) -> (d0, d3, d1, d2)], resultType = [!qnt.uniform<si8:f32, 0.063855253159999847>], layerName = \"/model.9/cv2/act/Mul_id_480\", layerId = 480, originalOps = 0, originalCycles = 1600, originalOutputsShape = [<1, 512, 20, 20>]>>[\"/model.9/cv2/act/Mul\"])","op":"%267 = \"b30.lut\"(%265, %266) <{instanceId = -1 : i64, mode = #hbdk<LutMode NONE>, roundMode = #hbdk<RoundMode ROUND>, saturate = true, symmetricMode = #hbdk<SymmetricMode ASYM>}> ({\n}) : (tensor<1x20x20x512xsi8>, tensor<512xsi8>) -> tensor<1x20x20x512xsi8>","tensor_names":[{"data_type":"si8","tensor_name":"/model.9/cv2/act/Mul_output_0"}]},{"backend":"null","loc":"loc(fused<#hbdk.track<resultName = [\"/model.9/cv2/act/Mul_output_0\"], resultMap = [(d0, d1, d2, d3) -> (d0, d3, d1, d2)], resultType = [!qnt.uniform<si8:f32, 0.063855253159999847>], layerName = \"/model.9/cv2/act/Mul_output_0_HzDequantize_id_481\", layerId = 481, originalOps = 0, originalCycles = 1, originalOutputsShape = [<1, 512, 20, 20>]>>[\"/model.9/cv2/act/Mul_output_0_HzDequantize\"])","op":"%268 = \"qnt.scast\"(%267) : (tensor<1x20x20x512xsi8>) -> tensor<1x20x20x512x!qnt.uniform<si8:f32, 0.063855253159999847>>","tensor_names":[{"data_type":"si8","tensor_name":"/model.9/cv2/act/Mul_output_0"}]},{"backend":"bpu","loc":"loc(fused<#hbdk.track<resultName = [\"/model.9/Add_output_0_calibrated\"], resultMap = [(d0, d1, d2, d3) -> (d0, d3, d1, d2)], resultType = [!qnt.uniform<si8:f32, 0.083551317453384399>], layerName = \"/model.9/Add_id_483\", layerId = 483, originalOps = 0, originalCycles = 3200, originalOutputsShape = [<1, 512, 20, 20>]>>[\"/model.9/Add\"])","op":"%269 = \"hbir.add\"(%268, %250) : (tensor<1x20x20x512x!qnt.uniform<si8:f32, 0.063855253159999847>>, tensor<1x20x20x512x!qnt.uniform<si8:f32, 0.046301562339067459>>) -> tensor<1x20x20x512x!qnt.uniform<si8:f32, 0.083551317453384399>>","tensor_names":[{"data_type":"si8","tensor_name":"/model.9/Add_output_0_calibrated"}]},{"backend":"bpu","loc":"loc(fused<#hbdk.track<resultName = [\"/model.10/cv1/conv/Conv_output_0_calibrated\"], resultMap = [(d0, d1, d2, d3) -> (d0, d3, d1, d2)], resultType = [!qnt.uniform<si8:f32, 0.063085220754146576>], layerName = \"/model.10/cv1/conv/Conv_id_490\", layerId = 490, originalOps = 209715200, originalCycles = 6400, originalOutputsShape = [<1, 20, 20, 512>]>>[\"/model.10/cv1/conv/Conv\"])","op":"%272 = \"hbir.conv\"(%269, %270, %271) <{channelLast = true, dilation = [1, 1], groupNum = 1 : i64, pad = [0, 0, 0, 0], stride = [1, 1]}> : (tensor<1x20x20x512x!qnt.uniform<si8:f32, 0.083551317453384399>>, tensor<512x1x1x512x!qnt.uniform<si8:f32:0, {… >>, tensor<512xf32>) -> tensor<1x20x20x512x!qnt.uniform<si8:f32, 0.063085220754146576>>","tensor_names":[{"data_type":"si8","tensor_name":"/model.10/cv1/conv/Conv_output_0_calibrated"}]},{"backend":"null","loc":"loc(fused<#hbdk.track<resultName = [\"/model.10/cv1/conv/Conv_output_0_calibrated_/model.10/cv1/act/Mul_quantized_input\"], resultMap = [(d0, d1, d2, d3) -> (d0, d3, d1, d2)], layerName = \"/model.10/cv1/conv/Conv_output_0_calibrated_/model.10/cv1/act/Mul_HzQuantize_id_493\", layerId = 493, originalOps = 0, originalCycles = 1, originalOutputsShape = [<1, 512, 20, 20>]>>[\"/model.10/cv1/conv/Conv_output_0_calibrated_/model.10/cv1/act/Mul_HzQuantize\"])","op":"%273 = \"qnt.scast\"(%272) : (tensor<1x20x20x512x!qnt.uniform<si8:f32, 0.063085220754146576>>) -> tensor<1x20x20x512xsi8>","tensor_names":[{"data_type":"si8","tensor_name":"/model.10/cv1/conv/Conv_output_0_calibrated_/model.10/cv1/act/Mul_quantized_input"}]},{"backend":"bpu","loc":"loc(fused<#hbdk.track<resultName = [\"/model.10/cv1/act/Mul_output_0\"], resultMap = [(d0, d1, d2, d3) -> (d0, d3, d1, d2)], resultType = [!qnt.uniform<si8:f32, 0.055481128394603729>], layerName = \"/model.10/cv1/act/Mul_id_495\", layerId = 495, originalOps = 0, originalCycles = 1600, originalOutputsShape = [<1, 512, 20, 20>]>>[\"/model.10/cv1/act/Mul\"])","op":"%275 = \"b30.lut\"(%273, %274) <{instanceId = -1 : i64, mode = #hbdk<LutMode NONE>, roundMode = #hbdk<RoundMode ROUND>, saturate = true, symmetricMode = #hbdk<SymmetricMode ASYM>}> ({\n}) : (tensor<1x20x20x512xsi8>, tensor<512xsi8>) -> tensor<1x20x20x512xsi8>","tensor_names":[{"data_type":"si8","tensor_name":"/model.10/cv1/act/Mul_output_0"}]},{"backend":"null","loc":"loc(fused<#hbdk.track<resultName = [\"/model.10/cv1/act/Mul_output_0\"], resultMap = [(d0, d1, d2, d3) -> (d0, d3, d1, d2)], resultType = [!qnt.uniform<si8:f32, 0.055481128394603729>], layerName = \"/model.10/cv1/act/Mul_output_0_HzDequantize_id_496\", layerId = 496, originalOps = 0, originalCycles = 1, originalOutputsShape = [<1, 512, 20, 20>]>>[\"/model.10/cv1/act/Mul_output_0_HzDequantize\"])","op":"%276 = \"qnt.scast\"(%275) : (tensor<1x20x20x512xsi8>) -> tensor<1x20x20x512x!qnt.uniform<si8:f32, 0.055481128394603729>>","tensor_names":[{"data_type":"si8","tensor_name":"/model.10/cv1/act/Mul_output_0"}]},{"backend":"bpu","loc":"loc(fused<#hbdk.track<resultName = [\"/model.10/Split_output_0_calibrated\"], resultMap = [(d0, d1, d2, d3) -> (d0, d3, d1, d2)], resultType = [!qnt.uniform<si8:f32, 0.055481128394603729>], layerName = \"/model.10/Split_id_498\", layerId = 498, originalOps = 0, originalCycles = 1572, originalOutputsShape = [<1, 256, 20, 20>]>>[\"/model.10/Split\"])","op":"%277 = \"hbir.slice\"(%276) <{begin = [0, 0, 0, 0], end = [1, 20, 20, 256], foldable = true, step = [1, 1, 1, 1]}> : (tensor<1x20x20x512x!qnt.uniform<si8:f32, 0.055481128394603729>>) -> tensor<1x20x20x256x!qnt.uniform<si8:f32, 0.055481128394603729>>","tensor_names":[{"data_type":"si8","tensor_name":"/model.10/Split_output_0_calibrated"}]},{"backend":"null","loc":"loc(fused<#hbdk.track<resultName = [\"/model.10/cv1/act/Mul_output_0_calibrated\"], resultMap = [(d0, d1, d2, d3) -> (d0, d3, d1, d2)], resultType = [!qnt.uniform<si8:f32, 0.055767450481653214>], layerName = \"/model.10/cv1/act/Mul_output_0_HzCalibration_id_497\", layerId = 497, originalOps = 0, originalCycles = 1, originalOutputsShape = [<1, 512, 20, 20>]>>[\"/model.10/cv1/act/Mul_output_0_HzCalibration\"])","op":"%278 = \"qnt.rcast\"(%276) : (tensor<1x20x20x512x!qnt.uniform<si8:f32, 0.055481128394603729>>) -> tensor<1x20x20x512x!qnt.uniform<si8:f32, 0.055767450481653214>>","tensor_names":[{"data_type":"si8","tensor_name":"/model.10/cv1/act/Mul_output_0_calibrated"}]},{"backend":"bpu","loc":"loc(fused<#hbdk.track<resultName = [\"/model.10/Split_output_1_calibrated\"], resultMap = [(d0, d1, d2, d3) -> (d0, d3, d1, d2)], resultType = [!qnt.uniform<si8:f32, 0.055767450481653214>], layerName = \"/model.10/Split_id_499\", layerId = 499, originalOps = 0, originalCycles = 1572, originalOutputsShape = [<1, 256, 20, 20>]>>[\"/model.10/Split\"])","op":"%279 = \"hbir.slice\"(%278) <{begin = [0, 0, 0, 256], end = [1, 20, 20, 512], foldable = true, step = [1, 1, 1, 1]}> : (tensor<1x20x20x512x!qnt.uniform<si8:f32, 0.055767450481653214>>) -> tensor<1x20x20x256x!qnt.uniform<si8:f32, 0.055767450481653214>>","tensor_names":[{"data_type":"si8","tensor_name":"/model.10/Split_output_1_calibrated"}]},{"backend":"bpu","loc":"loc(fused<#hbdk.track<resultName = [\"/model.10/m/m.0/attn/qkv/conv/Conv_output_0_calibrated\"], resultMap = [(d0, d1, d2, d3) -> (d0, d3, d1, d2)], resultType = [!qnt.uniform<si8:f32, 0.085338175296783447>], layerName = \"/model.10/m/m.0/attn/qkv/conv/Conv_id_506\", layerId = 506, originalOps = 104857600, originalCycles = 3200, originalOutputsShape = [<1, 20, 20, 512>]>>[\"/model.10/m/m.0/attn/qkv/conv/Conv\"])","op":"%282 = \"hbir.conv\"(%279, %280, %281) <{channelLast = true, dilation = [1, 1], groupNum = 1 : i64, pad = [0, 0, 0, 0], stride = [1, 1]}> : (tensor<1x20x20x256x!qnt.uniform<si8:f32, 0.055767450481653214>>, tensor<512x1x1x256x!qnt.uniform<si8:f32:0, {… >>, tensor<512xf32>) -> tensor<1x20x20x512x!qnt.uniform<si8:f32, 0.085338175296783447>>","tensor_names":[{"data_type":"si8","tensor_name":"/model.10/m/m.0/attn/qkv/conv/Conv_output_0_calibrated"}]},{"backend":"bpu","loc":"loc(fused<#hbdk.track<resultName = [\"/model.10/m/m.0/attn/Reshape_output_0_calibrated\"], resultMap = [(d0, d1, d2, d3) -> (d0, d2, d3, d1)], resultType = [!qnt.uniform<si8:f32, 0.085338175296783447>], layerName = \"/model.10/m/m.0/attn/Reshape_id_509\", layerId = 509, originalOps = 0, originalCycles = 2134, originalOutputsShape = [<1, 4, 128, 400>]>>[\"/model.10/m/m.0/attn/Reshape\"])","op":"%283 = \"hbir.reshape\"(%282) <{foldable = true, shape = [1, 400, 4, 128]}> : (tensor<1x20x20x512x!qnt.uniform<si8:f32, 0.085338175296783447>>) -> tensor<1x400x4x128x!qnt.uniform<si8:f32, 0.085338175296783447>>","tensor_names":[{"data_type":"si8","tensor_name":"/model.10/m/m.0/attn/Reshape_output_0_calibrated"}]},{"backend":"bpu","loc":"loc(fused<#hbdk.track<resultName = [\"/model.10/m/m.0/attn/Transpose_output_0_calibrated\"], resultMap = [(d0, d1, d2, d3) -> (d0, d2, d1, d3)], resultType = [!qnt.uniform<si8:f32, 0.085338175296783447>], layerName = \"/model.10/m/m.0/attn/Split_id_511\", layerId = 511, originalOps = 0, originalCycles = 695, originalOutputsShape = [<1, 4, 32, 400>]>>[\"/model.10/m/m.0/attn/Split\"])","op":"%284 = \"hbir.slice\"(%283) <{begin = [0, 0, 0, 0], end = [1, 400, 4, 32], foldable = true, step = [1, 1, 1, 1]}> : (tensor<1x400x4x128x!qnt.uniform<si8:f32, 0.085338175296783447>>) -> tensor<1x400x4x32x!qnt.uniform<si8:f32, 0.085338175296783447>>","tensor_names":[{"data_type":"si8","tensor_name":"/model.10/m/m.0/attn/Transpose_output_0_calibrated"}]},{"backend":"null","loc":"loc(fused<#hbdk.track<resultName = [\"/model.10/m/m.0/attn/Reshape_output_0_calibrated\"], resultMap = [(d0, d1, d2, d3) -> (d0, d2, d3, d1)], resultType = [!qnt.uniform<si8:f32, 0.087502427399158477>], layerName = \"/model.10/m/m.0/attn/Reshape_output_0_HzCalibration_id_510\", layerId = 510, originalOps = 0, originalCycles = 1, originalOutputsShape = [<1, 4, 128, 400>]>>[\"/model.10/m/m.0/attn/Reshape_output_0_HzCalibration\"])","op":"%285 = \"qnt.rcast\"(%283) : (tensor<1x400x4x128x!qnt.uniform<si8:f32, 0.085338175296783447>>) -> tensor<1x400x4x128x!qnt.uniform<si8:f32, 0.087502427399158477>>","tensor_names":[{"data_type":"si8","tensor_name":"/model.10/m/m.0/attn/Reshape_output_0_calibrated"}]},{"backend":"bpu","loc":"loc(fused<#hbdk.track<resultName = [\"/model.10/m/m.0/attn/Split_output_1_calibrated\"], resultMap = [(d0, d1, d2, d3) -> (d0, d2, d3, d1)], resultType = [!qnt.uniform<si8:f32, 0.087502427399158477>], layerName = \"/model.10/m/m.0/attn/Split_id_512\", layerId = 512, originalOps = 0, originalCycles = 695, originalOutputsShape = [<1, 4, 32, 400>]>>[\"/model.10/m/m.0/attn/Split\"])","op":"%286 = \"hbir.slice\"(%285) <{begin = [0, 0, 0, 32], end = [1, 400, 4, 64], foldable = true, step = [1, 1, 1, 1]}> : (tensor<1x400x4x128x!qnt.uniform<si8:f32, 0.087502427399158477>>) -> tensor<1x400x4x32x!qnt.uniform<si8:f32, 0.087502427399158477>>","tensor_names":[{"data_type":"si8","tensor_name":"/model.10/m/m.0/attn/Split_output_1_calibrated"}]},{"backend":"null","loc":"loc(fused<#hbdk.track<resultName = [\"/model.10/m/m.0/attn/Reshape_output_0_calibrated\"], resultMap = [(d0, d1, d2, d3) -> (d0, d2, d3, d1)], resultType = [!qnt.uniform<si8:f32, 0.062268335372209549>], layerName = \"/model.10/m/m.0/attn/Reshape_output_0_HzCalibration_id_510\", layerId = 510, originalOps = 0, originalCycles = 1, originalOutputsShape = [<1, 4, 128, 400>]>>[\"/model.10/m/m.0/attn/Reshape_output_0_HzCalibration\"])","op":"%287 = \"qnt.rcast\"(%283) : (tensor<1x400x4x128x!qnt.uniform<si8:f32, 0.085338175296783447>>) -> tensor<1x400x4x128x!qnt.uniform<si8:f32, 0.062268335372209549>>","tensor_names":[{"data_type":"si8","tensor_name":"/model.10/m/m.0/attn/Reshape_output_0_calibrated"}]},{"backend":"bpu","loc":"loc(fused<#hbdk.track<resultName = [\"/model.10/m/m.0/attn/Split_output_2_calibrated\"], resultMap = [(d0, d1, d2, d3) -> (d0, d2, d3, d1)], resultType = [!qnt.uniform<si8:f32, 0.062268335372209549>], layerName = \"/model.10/m/m.0/attn/Split_id_513\", layerId = 513, originalOps = 0, originalCycles = 1322, originalOutputsShape = [<1, 4, 64, 400>]>>[\"/model.10/m/m.0/attn/Split\"])","op":"%288 = \"hbir.slice\"(%287) <{begin = [0, 0, 0, 64], end = [1, 400, 4, 128], foldable = true, step = [1, 1, 1, 1]}> : (tensor<1x400x4x128x!qnt.uniform<si8:f32, 0.062268335372209549>>) -> tensor<1x400x4x64x!qnt.uniform<si8:f32, 0.062268335372209549>>","tensor_names":[{"data_type":"si8","tensor_name":"/model.10/m/m.0/attn/Split_output_2_calibrated"}]},{"backend":"bpu","loc":"loc(fused<#hbdk.track<resultName = [\"/model.10/m/m.0/attn/Split_output_2_calibrated\"], resultType = [!qnt.uniform<si8:f32, 0.062268335372209549>], layerName = \"/model.10/m/m.0/attn/Split_output_2_HzCalibration_id_515\", layerId = 515, originalOps = 0, originalCycles = 1, originalOutputsShape = [<1, 4, 64, 400>]>>[\"/model.10/m/m.0/attn/Split_output_2_HzCalibration\"])","op":"%289 = \"hbir.transpose\"(%288) <{dims = [0, 2, 3, 1]}> : (tensor<1x400x4x64x!qnt.uniform<si8:f32, 0.062268335372209549>>) -> tensor<1x4x64x400x!qnt.uniform<si8:f32, 0.062268335372209549>>","tensor_names":[{"data_type":"si8","tensor_name":"/model.10/m/m.0/attn/Split_output_2_calibrated"}]},{"backend":"bpu","loc":"loc(fused<#hbdk.track<resultName = [\"/model.10/m/m.0/attn/Reshape_2_output_0_calibrated\"], resultMap = [(d0, d1, d2, d3) -> (d0, d3, d1, d2)], resultType = [!qnt.uniform<si8:f32, 0.062268335372209549>], layerName = \"/model.10/m/m.0/attn/Reshape_2_id_516\", layerId = 516, originalOps = 0, originalCycles = 1067, originalOutputsShape = [<1, 256, 20, 20>]>>[\"/model.10/m/m.0/attn/Reshape_2\"])","op":"%290 = \"hbir.reshape\"(%288) <{foldable = true, shape = [1, 20, 20, 256]}> : (tensor<1x400x4x64x!qnt.uniform<si8:f32, 0.062268335372209549>>) -> tensor<1x20x20x256x!qnt.uniform<si8:f32, 0.062268335372209549>>","tensor_names":[{"data_type":"si8","tensor_name":"/model.10/m/m.0/attn/Reshape_2_output_0_calibrated"}]},{"backend":"bpu","loc":"loc(fused<#hbdk.track<resultName = [\"/model.10/m/m.0/attn/Transpose_output_0_calibrated\"], resultType = [!qnt.uniform<si8:f32, 0.085338175296783447>], layerName = \"/model.10/m/m.0/attn/Transpose_output_0_HzCalibration_id_517\", layerId = 517, originalOps = 0, originalCycles = 1, originalOutputsShape = [<1, 4, 400, 32>]>>[\"/model.10/m/m.0/attn/Transpose_output_0_HzCalibration\"])","op":"%291 = \"hbir.transpose\"(%284) <{dims = [0, 2, 1, 3]}> : (tensor<1x400x4x32x!qnt.uniform<si8:f32, 0.085338175296783447>>) -> tensor<1x4x400x32x!qnt.uniform<si8:f32, 0.085338175296783447>>","tensor_names":[{"data_type":"si8","tensor_name":"/model.10/m/m.0/attn/Transpose_output_0_calibrated"}]},{"backend":"bpu","loc":"loc(fused<#hbdk.track<resultName = [\"/model.10/m/m.0/attn/Split_output_1_calibrated\"], resultType = [!qnt.uniform<si8:f32, 0.087502427399158477>], layerName = \"/model.10/m/m.0/attn/Split_output_1_HzCalibration_id_518\", layerId = 518, originalOps = 0, originalCycles = 1, originalOutputsShape = [<1, 4, 32, 400>]>>[\"/model.10/m/m.0/attn/Split_output_1_HzCalibration\"])","op":"%292 = \"hbir.transpose\"(%286) <{dims = [0, 2, 3, 1]}> : (tensor<1x400x4x32x!qnt.uniform<si8:f32, 0.087502427399158477>>) -> tensor<1x4x32x400x!qnt.uniform<si8:f32, 0.087502427399158477>>","tensor_names":[{"data_type":"si8","tensor_name":"/model.10/m/m.0/attn/Split_output_1_calibrated"}]},{"backend":"bpu","loc":"loc(fused<#hbdk.track<resultName = [\"/model.10/m/m.0/attn/MatMul_output_0_calibrated\"], resultMap = [(d0, d1, d2, d3) -> (d0, d1, d2, d3)], resultType = [!qnt.uniform<si8:f32, 0.41104462742805481>], layerName = \"/model.10/m/m.0/attn/MatMul_id_519\", layerId = 519, originalOps = 40960000, originalCycles = 1250, originalOutputsShape = [<1, 4, 400, 400>]>>[\"/model.10/m/m.0/attn/MatMul\"])","op":"%293 = \"hbir.matmul\"(%291, %292) : (tensor<1x4x400x32x!qnt.uniform<si8:f32, 0.085338175296783447>>, tensor<1x4x32x400x!qnt.uniform<si8:f32, 0.087502427399158477>>) -> tensor<1x4x400x400x!qnt.uniform<si8:f32, 0.41104462742805481>>","tensor_names":[{"data_type":"si8","tensor_name":"/model.10/m/m.0/attn/MatMul_output_0_calibrated"}]},{"backend":"bpu","loc":"loc(fused<#hbdk.track<resultName = [\"/model.10/m/m.0/attn/pe/conv/Conv_output_0\"], resultMap = [(d0, d1, d2, d3) -> (d0, d3, d1, d2)], resultType = [!qnt.uniform<si32:f32:3, {… >], layerName = \"/model.10/m/m.0/attn/pe/conv/Conv_id_526\", layerId = 526, originalOps = 1843200, originalCycles = 800, originalOutputsShape = [<1, 20, 20, 256>]>>[\"/model.10/m/m.0/attn/pe/conv/Conv\"])","op":"%296 = \"hbir.conv\"(%290, %294, %295) <{channelLast = true, dilation = [1, 1], groupNum = 256 : i64, pad = [1, 1, 1, 1], stride = [1, 1]}> : (tensor<1x20x20x256x!qnt.uniform<si8:f32, 0.062268335372209549>>, tensor<256x3x3x1x!qnt.uniform<si8:f32:0, {… >>, tensor<256xf32>) -> tensor<1x20x20x256x!qnt.uniform<si32:f32:3, {… >>","tensor_names":[{"data_type":"si32","tensor_name":"/model.10/m/m.0/attn/pe/conv/Conv_output_0"}]},{"backend":"bpu","loc":"loc(fused<#hbdk.track<resultName = [\"/model.10/m/m.0/attn/Mul_output_0_calibrated\"], resultMap = [(d0, d1, d2, d3) -> (d0, d1, d2, d3)], resultType = [!qnt.uniform<si16:f32, 2.8163136448711157E-4>], layerName = \"/model.10/m/m.0/attn/Mul_id_531\", layerId = 531, originalOps = 0, originalCycles = 10000, originalOutputsShape = [<1, 4, 400, 400>]>>[\"/model.10/m/m.0/attn/Mul\"])","op":"%298 = \"hbir.mul\"(%293, %297) : (tensor<1x4x400x400x!qnt.uniform<si8:f32, 0.41104462742805481>>, tensor<1x1x1x1x!qnt.uniform<si8:f32, 0.0013919424964115024>>) -> tensor<1x4x400x400x!qnt.uniform<si16:f32, 2.8163136448711157E-4>>","tensor_names":[{"data_type":"si16","tensor_name":"/model.10/m/m.0/attn/Mul_output_0_calibrated"}]},{"backend":"bpu","loc":"loc(fused<#hbdk.track<resultName = [\"/model.10/m/m.0/attn/Softmax_output_0_max_calibrated\"], resultMap = [(d0, d1, d2, d3) -> (d0, d1, d2, d3)], resultType = [!qnt.uniform<si16:f32, 2.8163136448711157E-4>], layerName = \"/model.10/m/m.0/attn/Softmax_reducemax_FROM_QUANTIZED_SOFTMAX_id_533\", layerId = 533, originalOps = 0, originalCycles = 10000, originalOutputsShape = [<1, 4, 400, 1>]>>[\"/model.10/m/m.0/attn/Softmax_reducemax_FROM_QUANTIZED_SOFTMAX\"])","op":"%299 = \"hbir.reduce_max\"(%298) <{dims = [3], keepDim = true}> : (tensor<1x4x400x400x!qnt.uniform<si16:f32, 2.8163136448711157E-4>>) -> tensor<1x4x400x1x!qnt.uniform<si16:f32, 2.8163136448711157E-4>>","tensor_names":[{"data_type":"si16","tensor_name":"/model.10/m/m.0/attn/Softmax_output_0_max_calibrated"}]},{"backend":"bpu","loc":"loc(fused<#hbdk.track<resultName = [\"/model.10/m/m.0/attn/Softmax_output_0_sub_calibrated\"], resultMap = [(d0, d1, d2, d3) -> (d0, d1, d2, d3)], resultType = [!qnt.uniform<si16:f32, 3.384601732250303E-4>], layerName = \"/model.10/m/m.0/attn/Softmax_sub_FROM_QUANTIZED_SOFTMAX_id_535\", layerId = 535, originalOps = 0, originalCycles = 10000, originalOutputsShape = [<1, 4, 400, 400>]>>[\"/model.10/m/m.0/attn/Softmax_sub_FROM_QUANTIZED_SOFTMAX\"])","op":"%300 = \"hbir.sub\"(%298, %299) : (tensor<1x4x400x400x!qnt.uniform<si16:f32, 2.8163136448711157E-4>>, tensor<1x4x400x1x!qnt.uniform<si16:f32, 2.8163136448711157E-4>>) -> tensor<1x4x400x400x!qnt.uniform<si16:f32, 3.384601732250303E-4>>","tensor_names":[{"data_type":"si16","tensor_name":"/model.10/m/m.0/attn/Softmax_output_0_sub_calibrated"}]},{"backend":"null","loc":"loc(fused<#hbdk.track<resultName = [\"/model.10/m/m.0/attn/Softmax_output_0_sub_calibrated_/model.10/m/m.0/attn/Softmax_exp_FROM_QUANTIZED_SOFTMAX_quantized_input\"], resultMap = [(d0, d1, d2, d3) -> (d0, d1, d2, d3)], layerName = \"/model.10/m/m.0/attn/Softmax_output_0_sub_calibrated_/model.10/m/m.0/attn/Softmax_exp_FROM_QUANTIZED_SOFTMAX_HzQuantize_id_537\", layerId = 537, originalOps = 0, originalCycles = 1, originalOutputsShape = [<1, 4, 400, 400>]>>[\"/model.10/m/m.0/attn/Softmax_output_0_sub_calibrated_/model.10/m/m.0/attn/Softmax_exp_FROM_QUANTIZED_SOFTMAX_HzQuantize\"])","op":"%301 = \"qnt.scast\"(%300) : (tensor<1x4x400x400x!qnt.uniform<si16:f32, 3.384601732250303E-4>>) -> tensor<1x4x400x400xsi16>","tensor_names":[{"data_type":"si16","tensor_name":"/model.10/m/m.0/attn/Softmax_output_0_sub_calibrated_/model.10/m/m.0/attn/Softmax_exp_FROM_QUANTIZED_SOFTMAX_quantized_input"}]},{"backend":"bpu","loc":"loc(fused<#hbdk.track<resultName = [\"/model.10/m/m.0/attn/Softmax_output_0_exp\"], resultMap = [(d0, d1, d2, d3) -> (d0, d1, d2, d3)], resultType = [!qnt.uniform<si16:f32, 3.0518509447574615E-5>], layerName = \"/model.10/m/m.0/attn/Softmax_exp_FROM_QUANTIZED_SOFTMAX_id_539\", layerId = 539, originalOps = 0, originalCycles = 10000, originalOutputsShape = [<1, 4, 400, 400>]>>[\"/model.10/m/m.0/attn/Softmax_exp_FROM_QUANTIZED_SOFTMAX\"])","op":"%303 = \"b30.lut\"(%301, %302) <{instanceId = -1 : i64, mode = #hbdk<LutMode NONE>, roundMode = #hbdk<RoundMode ROUND>, saturate = true, symmetricMode = #hbdk<SymmetricMode ASYM>}> ({\n}) : (tensor<1x4x400x400xsi16>, tensor<512xsi16>) -> tensor<1x4x400x400xsi16>","tensor_names":[{"data_type":"si16","tensor_name":"/model.10/m/m.0/attn/Softmax_output_0_exp"}]},{"backend":"null","loc":"loc(fused<#hbdk.track<resultName = [\"/model.10/m/m.0/attn/Softmax_output_0_exp\"], resultMap = [(d0, d1, d2, d3) -> (d0, d1, d2, d3)], resultType = [!qnt.uniform<si16:f32, 3.0518509447574615E-5>], layerName = \"/model.10/m/m.0/attn/Softmax_output_0_exp_HzDequantize_id_540\", layerId = 540, originalOps = 0, originalCycles = 1, originalOutputsShape = [<1, 4, 400, 400>]>>[\"/model.10/m/m.0/attn/Softmax_output_0_exp_HzDequantize\"])","op":"%304 = \"qnt.scast\"(%303) : (tensor<1x4x400x400xsi16>) -> tensor<1x4x400x400x!qnt.uniform<si16:f32, 3.0518509447574615E-5>>","tensor_names":[{"data_type":"si16","tensor_name":"/model.10/m/m.0/attn/Softmax_output_0_exp"}]},{"backend":"bpu","loc":"loc(fused<#hbdk.track<resultName = [\"/model.10/m/m.0/attn/Softmax_output_0_reducesum_calibrated\"], resultMap = [(d0, d1, d2, d3) -> (d0, d1, d2, d3)], resultType = [!qnt.uniform<si16:f32, 0.0075740381143987179>], layerName = \"/model.10/m/m.0/attn/Softmax_reducesum_FROM_QUANTIZED_SOFTMAX_id_542\", layerId = 542, originalOps = 0, originalCycles = 10000, originalOutputsShape = [<1, 4, 400, 1>]>>[\"/model.10/m/m.0/attn/Softmax_reducesum_FROM_QUANTIZED_SOFTMAX\"])","op":"%305 = \"hbir.reduce_sum\"(%304) <{dims = [3], keepDim = true}> : (tensor<1x4x400x400x!qnt.uniform<si16:f32, 3.0518509447574615E-5>>) -> tensor<1x4x400x1x!qnt.uniform<si16:f32, 0.0075740381143987179>>","tensor_names":[{"data_type":"si16","tensor_name":"/model.10/m/m.0/attn/Softmax_output_0_reducesum_calibrated"}]},{"backend":"null","loc":"loc(fused<#hbdk.track<resultName = [\"/model.10/m/m.0/attn/Softmax_output_0_reducesum_calibrated_/model.10/m/m.0/attn/Softmax_reciprocal_FROM_QUANTIZED_SOFTMAX_quantized_input\"], resultMap = [(d0, d1, d2, d3) -> (d0, d1, d2, d3)], layerName = \"/model.10/m/m.0/attn/Softmax_output_0_reducesum_calibrated_/model.10/m/m.0/attn/Softmax_reciprocal_FROM_QUANTIZED_SOFTMAX_HzQuantize_id_544\", layerId = 544, originalOps = 0, originalCycles = 1, originalOutputsShape = [<1, 4, 400, 1>]>>[\"/model.10/m/m.0/attn/Softmax_output_0_reducesum_calibrated_/model.10/m/m.0/attn/Softmax_reciprocal_FROM_QUANTIZED_SOFTMAX_HzQuantize\"])","op":"%306 = \"qnt.scast\"(%305) : (tensor<1x4x400x1x!qnt.uniform<si16:f32, 0.0075740381143987179>>) -> tensor<1x4x400x1xsi16>","tensor_names":[{"data_type":"si16","tensor_name":"/model.10/m/m.0/attn/Softmax_output_0_reducesum_calibrated_/model.10/m/m.0/attn/Softmax_reciprocal_FROM_QUANTIZED_SOFTMAX_quantized_input"}]},{"backend":"bpu","loc":"loc(fused<#hbdk.track<resultName = [\"/model.10/m/m.0/attn/Softmax_output_0_reciprocal\"], resultMap = [(d0, d1, d2, d3) -> (d0, d1, d2, d3)], resultType = [!qnt.uniform<si16:f32, 3.0518509447574615E-5>], layerName = \"/model.10/m/m.0/attn/Softmax_reciprocal_FROM_QUANTIZED_SOFTMAX_id_546\", layerId = 546, originalOps = 0, originalCycles = 26, originalOutputsShape = [<1, 4, 400, 1>]>>[\"/model.10/m/m.0/attn/Softmax_reciprocal_FROM_QUANTIZED_SOFTMAX\"])","op":"%308 = \"b30.lut\"(%306, %307) <{instanceId = -1 : i64, mode = #hbdk<LutMode NONE>, roundMode = #hbdk<RoundMode ROUND>, saturate = true, symme…
s = 102400, originalCycles = 100, originalOutputsShape = [<1, 20, 20, 4>]>>[\"/model.23/one2one_cv2.2/one2one_cv2.2.2/Conv\"])","op":"%869 = \"hbir.conv\"(%855, %867, %868) <{channelLast = true, dilation = [1, 1], groupNum = 1 : i64, pad = [0, 0, 0, 0], stride = [1, 1]}> : (tensor<1x20x20x32x!qnt.uniform<si8:f32, 0.06535784900188446>>, tensor<4x1x1x32x!qnt.uniform<si8:f32:0, {0.0053941621445119381,0.0047482466325163841,0.005136564839631319,0.0040177474729716778}>>, tensor<4xf32>) -> tensor<1x20x20x4x!qnt.uniform<si8:f32, 0.10266993194818497>>","tensor_names":[{"data_type":"si8","tensor_name":"/model.23/one2one_cv2.2/one2one_cv2.2.2/Conv_output_0_calibrated"}]},{"backend":"bpu","loc":"loc(fused<#hbdk.track<resultName = [\"/model.23/one2one_cv3.2/one2one_cv3.2.1/one2one_cv3.2.1.0/conv/Conv_output_0_calibrated\"], resultMap = [(d0, d1, d2, d3) -> (d0, d3, d1, d2)], resultType = [!qnt.uniform<si8:f32, 0.13816662132740021>], layerName = \"/model.23/one2one_cv3.2/one2one_cv3.2.1/one2one_cv3.2.1.0/conv/Conv_id_1580\", layerId = 1580, originalOps = 921600, originalCycles = 400, originalOutputsShape = [<1, 20, 20, 128>]>>[\"/model.23/one2one_cv3.2/one2one_cv3.2.1/one2one_cv3.2.1.0/conv/Conv\"])","op":"%872 = \"hbir.conv\"(%859, %870, %871) <{channelLast = true, dilation = [1, 1], groupNum = 128 : i64, pad = [1, 1, 1, 1], stride = [1, 1]}> : (tensor<1x20x20x128x!qnt.uniform<si8:f32, 0.036502435803413391>>, tensor<128x3x3x1x!qnt.uniform<si8:f32:0, {… >>, tensor<128xf32>) -> tensor<1x20x20x128x!qnt.uniform<si8:f32, 0.13816662132740021>>","tensor_names":[{"data_type":"si8","tensor_name":"/model.23/one2one_cv3.2/one2one_cv3.2.1/one2one_cv3.2.1.0/conv/Conv_output_0_calibrated"}]},{"backend":"bpu","loc":"loc(fused<#hbdk.track<resultName = [\"/model.23/one2one_cv5.2/one2one_cv5.2.2/Conv_output_0_calibrated\"], resultMap = [(d0, d1, d2, d3) -> (d0, d3, d1, d2)], resultType = [!qnt.uniform<si16:f32, 0.01961609348654747>], layerName = \"/model.23/one2one_cv5.2/one2one_cv5.2.2/Conv_id_1588\", layerId = 1588, originalOps = 819200, originalCycles = 100, originalOutputsShape = [<1, 20, 20, 32>]>>[\"/model.23/one2one_cv5.2/one2one_cv5.2.2/Conv\"])","op":"%875 = \"hbir.conv\"(%863, %873, %874) <{channelLast = true, dilation = [1, 1], groupNum = 1 : i64, pad = [0, 0, 0, 0], stride = [1, 1]}> : (tensor<1x20x20x32x!qnt.uniform<si8:f32, 0.026896055787801743>>, tensor<32x1x1x32x!qnt.uniform<si8:f32:0, {… >>, tensor<32xf32>) -> tensor<1x20x20x32x!qnt.uniform<si16:f32, 0.01961609348654747>>","tensor_names":[{"data_type":"si16","tensor_name":"/model.23/one2one_cv5.2/one2one_cv5.2.2/Conv_output_0_calibrated"}]},{"backend":"bpu","loc":"loc(fused<#hbdk.track<resultName = [\"/model.23/Reshape_2_output_0_calibrated\"], resultMap = [(d0, d1, d2) -> (d0, d2, d1)], resultType = [!qnt.uniform<si8:f32, 0.10266993194818497>], layerName = \"/model.23/Reshape_2_id_1591\", layerId = 1591, originalOps = 0, originalCycles = 17, originalOutputsShape = [<1, 4, 400>]>>[\"/model.23/Reshape_2\"])","op":"%876 = \"hbir.reshape\"(%869) <{foldable = true, shape = [1, 400, 4]}> : (tensor<1x20x20x4x!qnt.uniform<si8:f32, 0.10266993194818497>>) -> tensor<1x400x4x!qnt.uniform<si8:f32, 0.10266993194818497>>","tensor_names":[{"data_type":"si8","tensor_name":"/model.23/Reshape_2_output_0_calibrated"}]},{"backend":"bpu","loc":"loc(fused<#hbdk.track<resultName = [\"/model.23/Reshape_8_output_0_calibrated\"], resultMap = [(d0, d1, d2) -> (d0, d2, d1)], resultType = [!qnt.uniform<si16:f32, 0.01961609348654747>], layerName = \"/model.23/Reshape_8_id_1593\", layerId = 1593, originalOps = 0, originalCycles = 134, originalOutputsShape = [<1, 32, 400>]>>[\"/model.23/Reshape_8\"])","op":"%877 = \"hbir.reshape\"(%875) <{foldable = true, shape = [1, 400, 32]}> : (tensor<1x20x20x32x!qnt.uniform<si16:f32, 0.01961609348654747>>) -> tensor<1x400x32x!qnt.uniform<si16:f32, 0.01961609348654747>>","tensor_names":[{"data_type":"si16","tensor_name":"/model.23/Reshape_8_output_0_calibrated"}]},{"backend":"null","loc":"loc(fused<#hbdk.track<resultName = [\"/model.23/proto/feat_fuse/conv/Conv_output_0_calibrated_/model.23/proto/feat_fuse/act/Mul_quantized_input\"], resultMap = [(d0, d1, d2, d3) -> (d0, d3, d1, d2)], layerName = \"/model.23/proto/feat_fuse/conv/Conv_output_0_calibrated_/model.23/proto/feat_fuse/act/Mul_HzQuantize_id_1595\", layerId = 1595, originalOps = 0, originalCycles = 1, originalOutputsShape = [<1, 128, 80, 80>]>>[\"/model.23/proto/feat_fuse/conv/Conv_output_0_calibrated_/model.23/proto/feat_fuse/act/Mul_HzQuantize\"])","op":"%878 = \"qnt.scast\"(%866) : (tensor<1x80x80x128x!qnt.uniform<si8:f32, 0.021645992994308472>>) -> tensor<1x80x80x128xsi8>","tensor_names":[{"data_type":"si8","tensor_name":"/model.23/proto/feat_fuse/conv/Conv_output_0_calibrated_/model.23/proto/feat_fuse/act/Mul_quantized_input"}]},{"backend":"bpu","loc":"loc(fused<#hbdk.track<resultName = [\"/model.23/proto/feat_fuse/act/Mul_output_0\"], resultMap = [(d0, d1, d2, d3) -> (d0, d3, d1, d2)], resultType = [!qnt.uniform<si8:f32, 0.019142055884003639>], layerName = \"/model.23/proto/feat_fuse/act/Mul_id_1597\", layerId = 1597, originalOps = 0, originalCycles = 6400, originalOutputsShape = [<1, 128, 80, 80>]>>[\"/model.23/proto/feat_fuse/act/Mul\"])","op":"%880 = \"b30.lut\"(%878, %879) <{instanceId = -1 : i64, mode = #hbdk<LutMode NONE>, roundMode = #hbdk<RoundMode ROUND>, saturate = true, symmetricMode = #hbdk<SymmetricMode ASYM>}> ({\n}) : (tensor<1x80x80x128xsi8>, tensor<512xsi8>) -> tensor<1x80x80x128xsi8>","tensor_names":[{"data_type":"si8","tensor_name":"/model.23/proto/feat_fuse/act/Mul_output_0"}]},{"backend":"null","loc":"loc(fused<#hbdk.track<resultName = [\"/model.23/proto/feat_fuse/act/Mul_output_0\"], resultMap = [(d0, d1, d2, d3) -> (d0, d3, d1, d2)], resultType = [!qnt.uniform<si8:f32, 0.019142055884003639>], layerName = \"/model.23/proto/feat_fuse/act/Mul_output_0_HzDequantize_id_1598\", layerId = 1598, originalOps = 0, originalCycles = 1, originalOutputsShape = [<1, 128, 80, 80>]>>[\"/model.23/proto/feat_fuse/act/Mul_output_0_HzDequantize\"])","op":"%881 = \"qnt.scast\"(%880) : (tensor<1x80x80x128xsi8>) -> tensor<1x80x80x128x!qnt.uniform<si8:f32, 0.019142055884003639>>","tensor_names":[{"data_type":"si8","tensor_name":"/model.23/proto/feat_fuse/act/Mul_output_0"}]},{"backend":"bpu","loc":"loc(fused<#hbdk.track<resultName = [\"/model.23/Concat_output_0_calibrated\"], resultMap = [(d0, d1, d2) -> (d0, d2, d1)], resultType = [!qnt.uniform<si8:f32, 0.10266993194818497>], layerName = \"/model.23/Concat_id_1602\", layerId = 1602, originalOps = 0, originalCycles = 13375, originalOutputsShape = [<1, 4, 8400>]>>[\"/model.23/Concat\"])","op":"%882 = \"hbir.concat\"(%562, %720, %876) <{dim = 1 : i64}> : (tensor<1x6400x4x!qnt.uniform<si8:f32, 0.10266993194818497>>, tensor<1x1600x4x!qnt.uniform<si8:f32, 0.10266993194818497>>, tensor<1x400x4x!qnt.uniform<si8:f32, 0.10266993194818497>>) -> tensor<1x8400x4x!qnt.uniform<si8:f32, 0.10266993194818497>>","tensor_names":[{"data_type":"si8","tensor_name":"/model.23/Concat_output_0_calibrated"}]},{"backend":"null","loc":"loc(fused<#hbdk.track<resultName = [\"/model.23/one2one_cv3.2/one2one_cv3.2.1/one2one_cv3.2.1.0/conv/Conv_output_0_calibrated_/model.23/one2one_cv3.2/one2one_cv3.2.1/one2one_cv3.2.1.0/act/Mul_quantized_input\"], resultMap = [(d0, d1, d2, d3) -> (d0, d3, d1, d2)], layerName = \"/model.23/one2one_cv3.2/one2one_cv3.2.1/one2one_cv3.2.1.0/conv/Conv_output_0_calibrated_/model.23/one2one_cv3.2/one2one_cv3.2.1/one2one_cv3.2.1.0/act/Mul_HzQuantize_id_1604\", layerId = 1604, originalOps = 0, originalCycles = 1, originalOutputsShape = [<1, 128, 20, 20>]>>[\"/model.23/one2one_cv3.2/one2one_cv3.2.1/one2one_cv3.2.1.0/conv/Conv_output_0_calibrated_/model.23/one2one_cv3.2/one2one_cv3.2.1/one2one_cv3.2.1.0/act/Mul_HzQuantize\"])","op":"%883 = \"qnt.scast\"(%872) : (tensor<1x20x20x128x!qnt.uniform<si8:f32, 0.13816662132740021>>) -> tensor<1x20x20x128xsi8>","tensor_names":[{"data_type":"si8","tensor_name":"/model.23/one2one_cv3.2/one2one_cv3.2.1/one2one_cv3.2.1.0/conv/Conv_output_0_calibrated_/model.23/one2one_cv3.2/one2one_cv3.2.1/one2one_cv3.2.1.0/act/Mul_quantized_input"}]},{"backend":"bpu","loc":"loc(fused<#hbdk.track<resultName = [\"/model.23/one2one_cv3.2/one2one_cv3.2.1/one2one_cv3.2.1.0/act/Mul_output_0\"], resultMap = [(d0, d1, d2, d3) -> (d0, d3, d1, d2)], resultType = [!qnt.uniform<si8:f32, 0.12054644525051117>], layerName = \"/model.23/one2one_cv3.2/one2one_cv3.2.1/one2one_cv3.2.1.0/act/Mul_id_1606\", layerId = 1606, originalOps = 0, originalCycles = 400, originalOutputsShape = [<1, 128, 20, 20>]>>[\"/model.23/one2one_cv3.2/one2one_cv3.2.1/one2one_cv3.2.1.0/act/Mul\"])","op":"%885 = \"b30.lut\"(%883, %884) <{instanceId = -1 : i64, mode = #hbdk<LutMode NONE>, roundMode = #hbdk<RoundMode ROUND>, saturate = true, symmetricMode = #hbdk<SymmetricMode ASYM>}> ({\n}) : (tensor<1x20x20x128xsi8>, tensor<512xsi8>) -> tensor<1x20x20x128xsi8>","tensor_names":[{"data_type":"si8","tensor_name":"/model.23/one2one_cv3.2/one2one_cv3.2.1/one2one_cv3.2.1.0/act/Mul_output_0"}]},{"backend":"null","loc":"loc(fused<#hbdk.track<resultName = [\"/model.23/one2one_cv3.2/one2one_cv3.2.1/one2one_cv3.2.1.0/act/Mul_output_0\"], resultMap = [(d0, d1, d2, d3) -> (d0, d3, d1, d2)], resultType = [!qnt.uniform<si8:f32, 0.12054644525051117>], layerName = \"/model.23/one2one_cv3.2/one2one_cv3.2.1/one2one_cv3.2.1.0/act/Mul_output_0_HzDequantize_id_1607\", layerId = 1607, originalOps = 0, originalCycles = 1, originalOutputsShape = [<1, 128, 20, 20>]>>[\"/model.23/one2one_cv3.2/one2one_cv3.2.1/one2one_cv3.2.1.0/act/Mul_output_0_HzDequantize\"])","op":"%886 = \"qnt.scast\"(%885) : (tensor<1x20x20x128xsi8>) -> tensor<1x20x20x128x!qnt.uniform<si8:f32, 0.12054644525051117>>","tensor_names":[{"data_type":"si8","tensor_name":"/model.23/one2one_cv3.2/one2one_cv3.2.1/one2one_cv3.2.1.0/act/Mul_output_0"}]},{"backend":"bpu","loc":"loc(fused<#hbdk.track<resultName = [\"/model.23/Concat_2_output_0_calibrated\"], resultMap = [(d0, d1, d2) -> (d0, d2, d1)], resultType = [!qnt.uniform<si16:f32, 0.01961609348654747>], layerName = \"/model.23/Concat_2_id_1611\", layerId = 1611, originalOps = 0, originalCycles = 105610, originalOutputsShape = [<1, 32, 8400>]>>[\"/model.23/Concat_2\"])","op":"%887 = \"hbir.concat\"(%563, %721, %877) <{dim = 1 : i64}> : (tensor<1x6400x32x!qnt.uniform<si16:f32, 0.01961609348654747>>, tensor<1x1600x32x!qnt.uniform<si16:f32, 0.01961609348654747>>, tensor<1x400x32x!qnt.uniform<si16:f32, 0.01961609348654747>>) -> tensor<1x8400x32x!qnt.uniform<si16:f32, 0.01961609348654747>>","tensor_names":[{"data_type":"si16","tensor_name":"/model.23/Concat_2_output_0_calibrated"}]},{"backend":"bpu","loc":"loc(fused<#hbdk.track<resultName = [\"/model.23/proto/cv1/conv/Conv_output_0_calibrated\"], resultMap = [(d0, d1, d2, d3) -> (d0, d3, d1, d2)], resultType = [!qnt.uniform<si8:f32, 0.017448121681809425>], layerName = \"/model.23/proto/cv1/conv/Conv_id_1619\", layerId = 1619, originalOps = 1887436800, originalCycles = 57600, originalOutputsShape = [<1, 80, 80, 128>]>>[\"/model.23/proto/cv1/conv/Conv\"])","op":"%890 = \"hbir.conv\"(%881, %888, %889) <{channelLast = true, dilation = [1, 1], groupNum = 1 : i64, pad = [1, 1, 1, 1], stride = [1, 1]}> : (tensor<1x80x80x128x!qnt.uniform<si8:f32, 0.019142055884003639>>, tensor<128x3x3x128x!qnt.uniform<si8:f32:0, {… >>, tensor<128xf32>) -> tensor<1x80x80x128x!qnt.uniform<si8:f32, 0.017448121681809425>>","tensor_names":[{"data_type":"si8","tensor_name":"/model.23/proto/cv1/conv/Conv_output_0_calibrated"}]},{"backend":"bpu","loc":"loc(fused<#hbdk.track<resultName = [\"/model.23/one2one_cv3.2/one2one_cv3.2.1/one2one_cv3.2.1.1/conv/Conv_output_0_calibrated\"], resultMap = [(d0, d1, d2, d3) -> (d0, d3, d1, d2)], resultType = [!qnt.uniform<si8:f32, 0.21476484835147858>], layerName = \"/model.23/one2one_cv3.2/one2one_cv3.2.1/one2one_cv3.2.1.1/conv/Conv_id_1627\", layerId = 1627, originalOps = 13107200, originalCycles = 400, originalOutputsShape = [<1, 20, 20, 128>]>>[\"/model.23/one2one_cv3.2/one2one_cv3.2.1/one2one_cv3.2.1.1/conv/Conv\"])","op":"%893 = \"hbir.conv\"(%886, %891, %892) <{channelLast = true, dilation = [1, 1], groupNum = 1 : i64, pad = [0, 0, 0, 0], stride = [1, 1]}> : (tensor<1x20x20x128x!qnt.uniform<si8:f32, 0.12054644525051117>>, tensor<128x1x1x128x!qnt.uniform<si8:f32:0, {… >>, tensor<128xf32>) -> tensor<1x20x20x128x!qnt.uniform<si8:f32, 0.21476484835147858>>","tensor_names":[{"data_type":"si8","tensor_name":"/model.23/one2one_cv3.2/one2one_cv3.2.1/one2one_cv3.2.1.1/conv/Conv_output_0_calibrated"}]},{"backend":"bpu","loc":"loc(fused<#hbdk.track<resultName = [\"/model.23/Slice_output_0_calibrated\"], resultMap = [(d0, d1, d2) -> (d0, d2, d1)], resultType = [!qnt.uniform<si8:f32, 0.10266993194818497>], layerName = \"/model.23/Slice_id_1630\", layerId = 1630, originalOps = 0, originalCycles = 890, originalOutputsShape = [<1, 2, 8400>]>>[\"/model.23/Slice\"])","op":"%894 = \"hbir.slice\"(%882) <{begin = [0, 0, 0], end = [1, 8400, 2], foldable = true, step = [1, 1, 1]}> : (tensor<1x8400x4x!qnt.uniform<si8:f32, 0.10266993194818497>>) -> tensor<1x8400x2x!qnt.uniform<si8:f32, 0.10266993194818497>>","tensor_names":[{"data_type":"si8","tensor_name":"/model.23/Slice_output_0_calibrated"}]},{"backend":"bpu","loc":"loc(fused<#hbdk.track<resultName = [\"/model.23/Slice_1_output_0_calibrated\"], resultMap = [(d0, d1, d2) -> (d0, d2, d1)], resultType = [!qnt.uniform<si8:f32, 0.10266993194818497>], layerName = \"/model.23/Slice_1_id_1631\", layerId = 1631, originalOps = 0, originalCycles = 890, originalOutputsShape = [<1, 2, 8400>]>>[\"/model.23/Slice_1\"])","op":"%895 = \"hbir.slice\"(%882) <{begin = [0, 0, 2], end = [1, 8400, 4], foldable = true, step = [1, 1, 1]}> : (tensor<1x8400x4x!qnt.uniform<si8:f32, 0.10266993194818497>>) -> tensor<1x8400x2x!qnt.uniform<si8:f32, 0.10266993194818497>>","tensor_names":[{"data_type":"si8","tensor_name":"/model.23/Slice_1_output_0_calibrated"}]},{"backend":"null","loc":"loc(fused<#hbdk.track<resultName = [\"/model.23/proto/cv1/conv/Conv_output_0_calibrated_/model.23/proto/cv1/act/Mul_quantized_input\"], resultMap = [(d0, d1, d2, d3) -> (d0, d3, d1, d2)], layerName = \"/model.23/proto/cv1/conv/Conv_output_0_calibrated_/model.23/proto/cv1/act/Mul_HzQuantize_id_1633\", layerId = 1633, originalOps = 0, originalCycles = 1, originalOutputsShape = [<1, 128, 80, 80>]>>[\"/model.23/proto/cv1/conv/Conv_output_0_calibrated_/model.23/proto/cv1/act/Mul_HzQuantize\"])","op":"%896 = \"qnt.scast\"(%890) : (tensor<1x80x80x128x!qnt.uniform<si8:f32, 0.017448121681809425>>) -> tensor<1x80x80x128xsi8>","tensor_names":[{"data_type":"si8","tensor_name":"/model.23/proto/cv1/conv/Conv_output_0_calibrated_/model.23/proto/cv1/act/Mul_quantized_input"}]},{"backend":"bpu","loc":"loc(fused<#hbdk.track<resultName = [\"/model.23/proto/cv1/act/Mul_output_0\"], resultMap = [(d0, d1, d2, d3) -> (d0, d3, d1, d2)], resultType = [!qnt.uniform<si8:f32, 0.014706423506140709>], layerName = \"/model.23/proto/cv1/act/Mul_id_1635\", layerId = 1635, originalOps = 0, originalCycles = 6400, originalOutputsShape = [<1, 128, 80, 80>]>>[\"/model.23/proto/cv1/act/Mul\"])","op":"%898 = \"b30.lut\"(%896, %897) <{instanceId = -1 : i64, mode = #hbdk<LutMode NONE>, roundMode = #hbdk<RoundMode ROUND>, saturate = true, symmetricMode = #hbdk<SymmetricMode ASYM>}> ({\n}) : (tensor<1x80x80x128xsi8>, tensor<512xsi8>) -> tensor<1x80x80x128xsi8>","tensor_names":[{"data_type":"si8","tensor_name":"/model.23/proto/cv1/act/Mul_output_0"}]},{"backend":"null","loc":"loc(fused<#hbdk.track<resultName = [\"/model.23/proto/cv1/act/Mul_output_0\"], resultMap = [(d0, d1, d2, d3) -> (d0, d3, d1, d2)], resultType = [!qnt.uniform<si8:f32, 0.014706423506140709>], layerName = \"/model.23/proto/cv1/act/Mul_output_0_HzDequantize_id_1636\", layerId = 1636, originalOps = 0, originalCycles = 1, originalOutputsShape = [<1, 128, 80, 80>]>>[\"/model.23/proto/cv1/act/Mul_output_0_HzDequantize\"])","op":"%899 = \"qnt.scast\"(%898) : (tensor<1x80x80x128xsi8>) -> tensor<1x80x80x128x!qnt.uniform<si8:f32, 0.014706423506140709>>","tensor_names":[{"data_type":"si8","tensor_name":"/model.23/proto/cv1/act/Mul_output_0"}]},{"backend":"bpu","loc":"loc(fused<#hbdk.track<resultName = [\"/model.23/Sub_output_0_calibrated\"], resultMap = [(d0, d1, d2) -> (d0, d2, d1)], resultType = [!qnt.uniform<si8:f32, 0.63130301237106323>], layerName = \"/model.23/Sub_id_1640\", layerId = 1640, originalOps = 0, originalCycles = 263, originalOutputsShape = [<1, 2, 8400>]>>[\"/model.23/Sub\"])","op":"%901 = \"hbir.sub\"(%900, %894) : (tensor<1x8400x2x!qnt.uniform<si8:f32, 0.62598425149917603>>, tensor<1x8400x2x!qnt.uniform<si8:f32, 0.10266993194818497>>) -> tensor<1x8400x2x!qnt.uniform<si8:f32, 0.63130301237106323>>","tensor_names":[{"data_type":"si8","tensor_name":"/model.23/Sub_output_0_calibrated"}]},{"backend":"bpu","loc":"loc(fused<#hbdk.track<resultName = [\"/model.23/Add_1_output_0_calibrated\"], resultMap = [(d0, d1, d2) -> (d0, d2, d1)], resultType = [!qnt.uniform<si8:f32, 0.63130301237106323>], layerName = \"/model.23/Add_1_id_1644\", layerId = 1644, originalOps = 0, originalCycles = 263, originalOutputsShape = [<1, 2, 8400>]>>[\"/model.23/Add_1\"])","op":"%903 = \"hbir.add\"(%902, %895) : (tensor<1x8400x2x!qnt.uniform<si8:f32, 0.62598425149917603>>, tensor<1x8400x2x!qnt.uniform<si8:f32, 0.10266993194818497>>) -> tensor<1x8400x2x!qnt.uniform<si8:f32, 0.63130301237106323>>","tensor_names":[{"data_type":"si8","tensor_name":"/model.23/Add_1_output_0_calibrated"}]},{"backend":"null","loc":"loc(fused<#hbdk.track<resultName = [\"/model.23/one2one_cv3.2/one2one_cv3.2.1/one2one_cv3.2.1.1/conv/Conv_output_0_calibrated_/model.23/one2one_cv3.2/one2one_cv3.2.1/one2one_cv3.2.1.1/act/Mul_quantized_input\"], resultMap = [(d0, d1, d2, d3) -> (d0, d3, d1, d2)], layerName = \"/model.23/one2one_cv3.2/one2one_cv3.2.1/one2one_cv3.2.1.1/conv/Conv_output_0_calibrated_/model.23/one2one_cv3.2/one2one_cv3.2.1/one2one_cv3.2.1.1/act/Mul_HzQuantize_id_1646\", layerId = 1646, originalOps = 0, originalCycles = 1, originalOutputsShape = [<1, 128, 20, 20>]>>[\"/model.23/one2one_cv3.2/one2one_cv3.2.1/one2one_cv3.2.1.1/conv/Conv_output_0_calibrated_/model.23/one2one_cv3.2/one2one_cv3.2.1/one2one_cv3.2.1.1/act/Mul_HzQuantize\"])","op":"%904 = \"qnt.scast\"(%893) : (tensor<1x20x20x128x!qnt.uniform<si8:f32, 0.21476484835147858>>) -> tensor<1x20x20x128xsi8>","tensor_names":[{"data_type":"si8","tensor_name":"/model.23/one2one_cv3.2/one2one_cv3.2.1/one2one_cv3.2.1.1/conv/Conv_output_0_calibrated_/model.23/one2one_cv3.2/one2one_cv3.2.1/one2one_cv3.2.1.1/act/Mul_quantized_input"}]},{"backend":"bpu","loc":"loc(fused<#hbdk.track<resultName = [\"/model.23/one2one_cv3.2/one2one_cv3.2.1/one2one_cv3.2.1.1/act/Mul_output_0\"], resultMap = [(d0, d1, d2, d3) -> (d0, d3, d1, d2)], resultType = [!qnt.uniform<si8:f32, 0.21476484835147858>], layerName = \"/model.23/one2one_cv3.2/one2one_cv3.2.1/one2one_cv3.2.1.1/act/Mul_id_1648\", layerId = 1648, originalOps = 0, originalCycles = 400, originalOutputsShape = [<1, 128, 20, 20>]>>[\"/model.23/one2one_cv3.2/one2one_cv3.2.1/one2one_cv3.2.1.1/act/Mul\"])","op":"%906 = \"b30.lut\"(%904, %905) <{instanceId = -1 : i64, mode = #hbdk<LutMode NONE>, roundMode = #hbdk<RoundMode ROUND>, saturate = true, symmetricMode = #hbdk<SymmetricMode ASYM>}> ({\n}) : (tensor<1x20x20x128xsi8>, tensor<512xsi8>) -> tensor<1x20x20x128xsi8>","tensor_names":[{"data_type":"si8","tensor_name":"/model.23/one2one_cv3.2/one2one_cv3.2.1/one2one_cv3.2.1.1/act/Mul_output_0"}]},{"backend":"null","loc":"loc(fused<#hbdk.track<resultName = [\"/model.23/one2one_cv3.2/one2one_cv3.2.1/one2one_cv3.2.1.1/act/Mul_output_0\"], resultMap = [(d0, d1, d2, d3) -> (d0, d3, d1, d2)], resultType = [!qnt.uniform<si8:f32, 0.21476484835147858>], layerName = \"/model.23/one2one_cv3.2/one2one_cv3.2.1/one2one_cv3.2.1.1/act/Mul_output_0_HzDequantize_id_1649\", layerId = 1649, originalOps = 0, originalCycles = 1, originalOutputsShape = [<1, 128, 20, 20>]>>[\"/model.23/one2one_cv3.2/one2one_cv3.2.1/one2one_cv3.2.1.1/act/Mul_output_0_HzDequantize\"])","op":"%907 = \"qnt.scast\"(%906) : (tensor<1x20x20x128xsi8>) -> tensor<1x20x20x128x!qnt.uniform<si8:f32, 0.21476484835147858>>","tensor_names":[{"data_type":"si8","tensor_name":"/model.23/one2one_cv3.2/one2one_cv3.2.1/one2one_cv3.2.1.1/act/Mul_output_0"}]},{"backend":"bpu","loc":"loc(fused<#hbdk.track<resultName = [\"/model.23/proto/upsample/ConvTranspose_output_0_calibrated\"], resultMap = [(d0, d1, d2, d3) -> (d0, d3, d1, d2)], resultType = [!qnt.uniform<si8:f32, 0.0024657400790601969>], layerName = \"/model.23/proto/upsample/ConvTranspose_id_1656\", layerId = 1656, originalOps = 838860800, originalCycles = 25600, originalOutputsShape = [<1, 160, 160, 128>]>>[\"/model.23/proto/upsample/ConvTranspose\"])","op":"%910 = \"hbir.convtranspose\"(%899, %908, %909) <{dilation = [1, 1], groupNum = 1 : i64, illegalWeight = false, pad = [0, 0, 0, 0], stride = [2, 2]}> : (tensor<1x80x80x128x!qnt.uniform<si8:f32, 0.014706423506140709>>, tensor<128x2x2x128x!qnt.uniform<si8:f32:0, {… >>, tensor<128xf32>) -> tensor<1x160x160x128x!qnt.uniform<si8:f32, 0.0024657400790601969>>","tensor_names":[{"data_type":"si8","tensor_name":"/model.23/proto/upsample/ConvTranspose_output_0_calibrated"}]},{"backend":"bpu","loc":"loc(fused<#hbdk.track<resultName = [\"/model.23/Concat_3_output_0_calibrated\"], resultMap = [(d0, d1, d2) -> (d0, d2, d1)], resultType = [!qnt.uniform<si8:f32, 0.63130301237106323>], layerName = \"/model.23/Concat_3_id_1660\", layerId = 1660, originalOps = 0, originalCycles = 13309, originalOutputsShape = [<1, 4, 8400>]>>[\"/model.23/Concat_3\"])","op":"%911 = \"hbir.concat\"(%901, %903) <{dim = 2 : i64}> : (tensor<1x8400x2x!qnt.uniform<si8:f32, 0.63130301237106323>>, tensor<1x8400x2x!qnt.uniform<si8:f32, 0.63130301237106323>>) -> tensor<1x8400x4x!qnt.uniform<si8:f32, 0.63130301237106323>>","tensor_names":[{"data_type":"si8","tensor_name":"/model.23/Concat_3_output_0_calibrated"}]},{"backend":"bpu","loc":"loc(fused<#hbdk.track<resultName = [\"/model.23/one2one_cv3.2/one2one_cv3.2.2/Conv_output_0_calibrated\"], resultMap = [(d0, d1, d2, d3) -> (d0, d3, d1, d2)], resultType = [!qnt.uniform<si16:f32, 3.3845973666757345E-4>], layerName = \"/model.23/one2one_cv3.2/one2one_cv3.2.2/Conv_id_1667\", layerId = 1667, originalOps = 12800000, originalCycles = 400, originalOutputsShape = [<1, 20, 20, 125>]>>[\"/model.23/one2one_cv3.2/one2one_cv3.2.2/Conv\"])","op":"%914 = \"hbir.conv\"(%907, %912, %913) <{channelLast = true, dilation = [1, 1], groupNum = 1 : i64, pad = [0, 0, 0, 0], stride = [1, 1]}> : (tensor<1x20x20x128x!qnt.uniform<si8:f32, 0.21476484835147858>>, tensor<125x1x1x128x!qnt.uniform<si8:f32:0, {… >>, tensor<125xf32>) -> tensor<1x20x20x125x!qnt.uniform<si16:f32, 3.3845973666757345E-4>>","tensor_names":[{"data_type":"si16","tensor_name":"/model.23/one2one_cv3.2/one2one_cv3.2.2/Conv_output_0_calibrated"}]},{"backend":"bpu","loc":"loc(fused<#hbdk.track<resultName = [\"/model.23/proto/cv2/conv/Conv_output_0_calibrated\"], resultMap = [(d0, d1, d2, d3) -> (d0, d3, d1, d2)], resultType = [!qnt.uniform<si8:f32, 0.019501909613609314>], layerName = \"/model.23/proto/cv2/conv/Conv_id_1675\", layerId = 1675, originalOps = 7549747200, originalCycles = 230400, originalOutputsShape = [<1, 160, 160, 128>]>>[\"/model.23/proto/cv2/conv/Conv\"])","op":"%917 = \"hbir.conv\"(%910, %915, %916) <{channelLast = true, dilation = [1, 1], groupNum = 1 : i64, pad = [1, 1, 1, 1], stride = [1, 1]}> : (tensor<1x160x160x128x!qnt.uniform<si8:f32, 0.0024657400790601969>>, tensor<128x3x3x128x!qnt.uniform<si8:f32:0, {… >>, tensor<128xf32>) -> tensor<1x160x160x128x!qnt.uniform<si8:f32, 0.019501909613609314>>","tensor_names":[{"data_type":"si8","tensor_name":"/model.23/proto/cv2/conv/Conv_output_0_calibrated"}]},{"backend":"bpu","loc":"loc(fused<#hbdk.track<resultName = [\"/model.23/Mul_2_output_0_calibrated\"], resultMap = [(d0, d1, d2) -> (d0, d2, d1)], resultType = [!qnt.uniform<si16:f32, 0.01961609348654747>], layerName = \"/model.23/Mul_2_id_1680\", layerId = 1680, originalOps = 0, originalCycles = 525, originalOutputsShape = [<1, 4, 8400>]>>[\"/model.23/Mul_2\"])","op":"%919 = \"hbir.mul\"(%911, %918) : (tensor<1x8400x4x!qnt.uniform<si8:f32, 0.63130301237106323>>, tensor<1x8400x1x!qnt.uniform<si8:f32, 0.25196850299835205>>) -> tensor<1x8400x4x!qnt.uniform<si16:f32, 0.01961609348654747>>","tensor_names":[{"data_type":"si16","tensor_name":"/model.23/Mul_2_output_0_calibrated"}]},{"backend":"bpu","loc":"loc(fused<#hbdk.track<resultName = [\"/model.23/Reshape_5_output_0_calibrated\"], resultMap = [(d0, d1, d2) -> (d0, d2, d1)], resultType = [!qnt.uniform<si16:f32, 3.3845973666757345E-4>], layerName = \"/model.23/Reshape_5_id_1682\", layerId = 1682, originalOps = 0, originalCycles = 521, originalOutputsShape = [<1, 125, 400>]>>[\"/model.23/Reshape_5\"])","op":"%920 = \"hbir.reshape\"(%914) <{foldable = true, shape = [1, 400, 125]}> : (tensor<1x20x20x125x!qnt.uniform<si16:f32, 3.3845973666757345E-4>>) -> tensor<1x400x125x!qnt.uniform<si16:f32, 3.3845973666757345E-4>>","tensor_names":[{"data_type":"si16","tensor_name":"/model.23/Reshape_5_output_0_calibrated"}]},{"backend":"bpu","loc":"loc(fused<#hbdk.track<resultName = [\"/model.23/Concat_1_output_0_calibrated\"], resultMap = [(d0, d1, d2) -> (d0, d2, d1)], resultType = [!qnt.uniform<si16:f32, 3.3845973666757345E-4>], layerName = \"/model.23/Concat_1_id_1686\", layerId = 1686, originalOps = 0, originalCycles = 411963, originalOutputsShape = [<1, 125, 8400>]>>[\"/model.23/Concat_1\"])","op":"%921 = \"hbir.concat\"(%599, %750, %920) <{dim = 1 : i64}> : (tensor<1x6400x125x!qnt.uniform<si16:f32, 3.3845973666757345E-4>>, tensor<1x1600x125x!qnt.uniform<si16:f32, 3.3845973666757345E-4>>, tensor<1x400x125x!qnt.uniform<si16:f32, 3.3845973666757345E-4>>) -> tensor<1x8400x125x!qnt.uniform<si16:f32, 3.3845973666757345E-4>>","tensor_names":[{"data_type":"si16","tensor_name":"/model.23/Concat_1_output_0_calibrated"}]},{"backend":"null","loc":"loc(fused<#hbdk.track<resultName = [\"/model.23/proto/cv2/conv/Conv_output_0_calibrated_/model.23/proto/cv2/act/Mul_quantized_input\"], resultMap = [(d0, d1, d2, d3) -> (d0, d3, d1, d2)], layerName = \"/model.23/proto/cv2/conv/Conv_output_0_calibrated_/model.23/proto/cv2/act/Mul_HzQuantize_id_1688\", layerId = 1688, originalOps = 0, originalCycles = 1, originalOutputsShape = [<1, 128, 160, 160>]>>[\"/model.23/proto/cv2/conv/Conv_output_0_calibrated_/model.23/proto/cv2/act/Mul_HzQuantize\"])","op":"%922 = \"qnt.scast\"(%917) : (tensor<1x160x160x128x!qnt.uniform<si8:f32, 0.019501909613609314>>) -> tensor<1x160x160x128xsi8>","tensor_names":[{"data_type":"si8","tensor_name":"/model.23/proto/cv2/conv/Conv_output_0_calibrated_/model.23/proto/cv2/act/Mul_quantized_input"}]},{"backend":"bpu","loc":"loc(fused<#hbdk.track<resultName = [\"/model.23/proto/cv2/act/Mul_output_0\"], resultMap = [(d0, d1, d2, d3) -> (d0, d3, d1, d2)], resultType = [!qnt.uniform<si8:f32, 0.014468617737293243>], layerName = \"/model.23/proto/cv2/act/Mul_id_1690\", layerId = 1690, originalOps = 0, originalCycles = 25600, originalOutputsShape = [<1, 128, 160, 160>]>>[\"/model.23/proto/cv2/act/Mul\"])","op":"%924 = \"b30.lut\"(%922, %923) <{instanceId = -1 : i64, mode = #hbdk<LutMode NONE>, roundMode = #hbdk<RoundMode ROUND>, saturate = true, symmetricMode = #hbdk<SymmetricMode ASYM>}> ({\n}) : (tensor<1x160x160x128xsi8>, tensor<512xsi8>) -> tensor<1x160x160x128xsi8>","tensor_names":[{"data_type":"si8","tensor_name":"/model.23/proto/cv2/act/Mul_output_0"}]},{"backend":"null","loc":"loc(fused<#hbdk.track<resultName = [\"/model.23/proto/cv2/act/Mul_output_0\"], resultMap = [(d0, d1, d2, d3) -> (d0, d3, d1, d2)], resultType = [!qnt.uniform<si8:f32, 0.014468617737293243>], layerName = \"/model.23/proto/cv2/act/Mul_output_0_HzDequantize_id_1691\", layerId = 1691, originalOps = 0, originalCycles = 1, originalOutputsShape = [<1, 128, 160, 160>]>>[\"/model.23/proto/cv2/act/Mul_output_0_HzDequantize\"])","op":"%925 = \"qnt.scast\"(%924) : (tensor<1x160x160x128xsi8>) -> tensor<1x160x160x128x!qnt.uniform<si8:f32, 0.014468617737293243>>","tensor_names":[{"data_type":"si8","tensor_name":"/model.23/proto/cv2/act/Mul_output_0"}]},{"backend":"null","loc":"loc(fused<#hbdk.track<resultName = [\"/model.23/Concat_1_output_0_calibrated_/model.23/Sigmoid_quantized_input\"], resultMap = [(d0, d1, d2) -> (d0, d2, d1)], layerName = \"/model.23/Concat_1_output_0_calibrated_/model.23/Sigmoid_HzQuantize_id_1693\", layerId = 1693, originalOps = 0, originalCycles = 1, originalOutputsShape = [<1, 125, 8400>]>>[\"/model.23/Concat_1_output_0_calibrated_/model.23/Sigmoid_HzQuantize\"])","op":"%926 = \"qnt.scast\"(%921) : (tensor<1x8400x125x!qnt.uniform<si16:f32, 3.3845973666757345E-4>>) -> tensor<1x8400x125xsi16>","tensor_names":[{"data_type":"si16","tensor_name":"/model.23/Concat_1_output_0_calibrated_/model.23/Sigmoid_quantized_input"}]},{"backend":"bpu","loc":"loc(fused<#hbdk.track<resultName = [\"/model.23/Sigmoid_output_0\"], resultMap = [(d0, d1, d2) -> (d0, d2, d1)], resultType = [!qnt.uniform<si16:f32, 3.0518043786287308E-5>], layerName = \"/model.23/Sigmoid_id_1695\", layerId = 1695, originalOps = 0, originalCycles = 16408, originalOutputsShape = [<1, 125, 8400>]>>[\"/model.23/Sigmoid\"])","op":"%928 = \"b30.lut\"(%926, %927) <{instanceId = -1 : i64, mode = #hbdk<LutMode NONE>, roundMode = #hbdk<RoundMode ROUND>, saturate = true, symmetricMode = #hbdk<SymmetricMode ASYM>}> ({\n}) : (tensor<1x8400x125xsi16>, tensor<512xsi16>) -> tensor<1x8400x125xsi16>","tensor_names":[{"data_type":"si16","tensor_name":"/model.23/Sigmoid_output_0"}]},{"backend":"null","loc":"loc(fused<#hbdk.track<resultName = [\"/model.23/Sigmoid_output_0\"], resultMap = [(d0, d1, d2) -> (d0, d2, d1)], resultType = [!qnt.uniform<si16:f32, 3.0518043786287308E-5>], layerName = \"/model.23/Sigmoid_output_0_HzDequantize_id_1696\", layerId = 1696, originalOps = 0, originalCycles = 1, originalOutputsShape = [<1, 125, 8400>]>>[\"/model.23/Sigmoid_output_0_HzDequantize\"])","op":"%929 = \"qnt.scast\"(%928) : (tensor<1x8400x125xsi16>) -> tensor<1x8400x125x!qnt.uniform<si16:f32, 3.0518043786287308E-5>>","tensor_names":[{"data_type":"si16","tensor_name":"/model.23/Sigmoid_output_0"}]},{"backend":"bpu","loc":"loc(fused<#hbdk.track<resultName = [\"/model.23/proto/cv3/conv/Conv_output_0_calibrated\"], resultMap = [(d0, d1, d2, d3) -> (d0, d3, d1, d2)], resultType = [!qnt.uniform<si16:f32, 5.5778378737159073E-5>], layerName = \"/model.23/proto/cv3/conv/Conv_id_1703\", layerId = 1703, originalOps = 209715200, originalCycles = 25600, originalOutputsShape = [<1, 160, 160, 32>]>>[\"/model.23/proto/cv3/conv/Conv\"])","op":"%932 = \"hbir.conv\"(%925, %930, %931) <{channelLast = true, dilation = [1, 1], groupNum = 1 : i64, pad = [0, 0, 0, 0], stride = [1, 1]}> : (tensor<1x160x160x128x!qnt.uniform<si8:f32, 0.014468617737293243>>, tensor<32x1x1x128x!qnt.uniform<si8:f32:0, {… >>, tensor<32xf32>) -> tensor<1x160x160x32x!qnt.uniform<si16:f32, 5.5778378737159073E-5>>","tensor_names":[{"data_type":"si16","tensor_name":"/model.23/proto/cv3/conv/Conv_output_0_calibrated"}]},{"backend":"null","loc":"loc(fused<#hbdk.track<resultName = [\"/model.23/Sigmoid_output_0_calibrated\"], resultMap = [(d0, d1, d2) -> (d0, d2, d1)], resultType = [!qnt.uniform<si16:f32, 0.01961609348654747>], layerName = \"/model.23/Sigmoid_output_0_HzCalibration_id_1706\", layerId = 1706, originalOps = 0, originalCycles = 1, originalOutputsShape = [<1, 125, 8400>]>>[\"/model.23/Sigmoid_output_0_HzCalibration\"])","op":"%933 = \"qnt.rcast\"(%929) : (tensor<1x8400x125x!qnt.uniform<si16:f32, 3.0518043786287308E-5>>) -> tensor<1x8400x125x!qnt.uniform<si16:f32, 0.01961609348654747>>","tensor_names":[{"data_type":"si16","tensor_name":"/model.23/Sigmoid_output_0_calibrated"}]},{"backend":"null","loc":"loc(fused<#hbdk.track<resultName = [\"/model.23/proto/cv3/conv/Conv_output_0_calibrated_/model.23/proto/cv3/act/Mul_quantized_input\"], resultMap = [(d0, d1, d2, d3) -> (d0, d3, d1, d2)], layerName = \"/model.23/proto/cv3/conv/Conv_output_0_calibrated_/model.23/proto/cv3/act/Mul_HzQuantize_id_1711\", layerId = 1711, originalOps = 0, originalCycles = 1, originalOutputsShape = [<1, 32, 160, 160>]>>[\"/model.23/proto/cv3/conv/Conv_output_0_calibrated_/model.23/proto/cv3/act/Mul_HzQuantize\"])","op":"%934 = \"qnt.scast\"(%932) : (tensor<1x160x160x32x!qnt.uniform<si16:f32, 5.5778378737159073E-5>>) -> tensor<1x160x160x32xsi16>","tensor_names":[{"data_type":"si16","tensor_name":"/model.23/proto/cv3/conv/Conv_output_0_calibrated_/model.23/proto/cv3/act/Mul_quantized_input"}]},{"backend":"bpu","loc":"loc(fused<#hbdk.track<resultName = [\"output1_before\"], resultMap = [(d0, d1, d2, d3) -> (d0, d3, d1, d2)], resultType = [!qnt.uniform<si16:f32, 4.8043595597846434E-5>], layerName = \"/model.23/proto/cv3/act/Mul_id_1713\", layerId = 1713, originalOps = 0, originalCycles = 12800, originalOutputsShape = [<1, 32, 160, 160>]>>[\"/model.23/proto/cv3/act/Mul\"])","op":"%936 = \"b30.lut\"(%934, %935) <{instanceId = -1 : i64, mode = #hbdk<LutMode NONE>, roundMode = #hbdk<RoundMode ROUND>, saturate = true, symmetricMode = #hbdk<SymmetricMode ASYM>}> ({\n}) : (tensor<1x160x160x32xsi16>, tensor<512xsi16>) -> tensor<1x160x160x32xsi16>","tensor_names":[{"data_type":"si16","tensor_name":"output1_before"}]},{"backend":"null","loc":"loc(fused<#hbdk.track<resultName = [\"output1_before\"], resultMap = [(d0, d1, d2, d3) -> (d0, d3, d1, d2)], resultType = [!qnt.uniform<si16:f32, 4.8043595597846434E-5>], layerName = \"output1_before_HzDequantize_id_1714\", layerId = 1714, originalOps = 0, originalCycles = 1, originalOutputsShape = [<1, 32, 160, 160>]>>[\"output1_before_HzDequantize\"])","op":"%937 = \"qnt.scast\"(%936) : (tensor<1x160x160x32xsi16>) -> tensor<1x160x160x32x!qnt.uniform<si16:f32, 4.8043595597846434E-5>>","tensor_names":[{"data_type":"si16","tensor_name":"output1_before"}]},{"backend":"bpu","loc":"loc(fused<#hbdk.track<resultName = [\"output1\"], resultType = [!qnt.uniform<si16:f32, 4.8043595597846434E-5>], layerName = \"output1_HzCalibration_id_1715\", layerId = 1715, originalOps = 0, originalCycles = 1, originalOutputsShape = [<1, 32, 160, 160>]>>[\"output1_HzCalibration\"])","op":"%938 = \"hbir.transpose\"(%937) <{dims = [0, 3, 1, 2]}> : (tensor<1x160x160x32x!qnt.uniform<si16:f32, 4.8043595597846434E-5>>) -> tensor<1x32x160x160x!qnt.uniform<si16:f32, 4.8043595597846434E-5>>","tensor_names":[{"data_type":"si16","tensor_name":"output1"}]},{"backend":"vpu","loc":"loc(fused<#hbdk.track<resultName = [\"output1\"], layerName = \"output1_HzCalibration_id_1715\", layerId = 1715, originalOps = 0, originalCycles = 1, originalOutputsShape = [<1, 32, 160, 160>]>>[\"output1_HzCalibration\"])","op":"%939 = \"qnt.dcast\"(%938) : (tensor<1x32x160x160x!qnt.uniform<si16:f32, 4.8043595597846434E-5>>) -> tensor<1x32x160x160xf32>","tensor_names":[{"data_type":"f32","tensor_name":"output1"}]},{"backend":"bpu","loc":"loc(fused<#hbdk.track<resultType = [!qnt.uniform<si16:f32, 0.01961609348654747>], layerName = \"/model.23/ReduceMax_id_1720\", layerId = 1720, originalOps = 0, originalCycles = 16407, originalOutputsShape = [<1, 8400>]>>[\"/model.23/ReduceMax\"])","op":"%940 = \"hbir.reduce_max\"(%933) <{dims = [2], keepDim = true}> : (tensor<1x8400x125x!qnt.uniform<si16:f32, 0.01961609348654747>>) -> tensor<1x8400x1x!qnt.uniform<si16:f32, 0.01961609348654747>>","tensor_names":[{"data_type":"si16","tensor_name":""}]},{"backend":"bpu","loc":"loc(fused<#hbdk.track<resultName = [\"/model.23/ReduceMax_output_0_calibrated\"], resultType = [!qnt.uniform<si16:f32, 0.01961609348654747>], layerName = \"/model.23/ReduceMax_id_1720\", layerId = 1720, originalOps = 0, originalCycles = 16407, originalOutputsShape = [<1, 8400>]>>[\"/model.23/ReduceMax\"])","op":"%941 = \"hbir.reshape\"(%940) <{foldable = true, shape = [1, 8400]}> : (tensor<1x8400x1x!qnt.uniform<si16:f32, 0.01961609348654747>>) -> tensor<1x8400x!qnt.uniform<si16:f32, 0.01961609348654747>>","tensor_names":[{"data_type":"si16","tensor_name":"/model.23/ReduceMax_output_0_calibrated"}]},{"backend":"external_cpu","choice_reason":"hbir.topk is not currently supported on bpu.","loc":"loc(fused<#hbdk.track<resultName = [\"/model.23/TopK_output_0\", \"/model.23/TopK_output_1\"], resultType = [!qnt.uniform<si16:f32, 0.01961609348654747>], layerName = \"/model.23/TopK_id_1722\", layerId = 1722, originalOps = 0, originalCycles = 1, originalOutputsShape = [<1, 300>, <1, 300>]>>[\"/model.23/TopK\"])","op":"%values, %indices = \"hbir.topk\"(%941) <{dim = 1 : i64, k = 300 : i64, largest = true, sorted = true}> : (tensor<1x8400x!qnt.uniform<si16:f32, 0.01961609348654747>>) -> (tensor<1x300x!qnt.uniform<si16:f32, 0.01961609348654747>>, tensor<1x300xsi64>)","tensor_names":[{"data_type":"si16","tensor_name":"/model.23/TopK_output_0"},{"data_type":"si64","tensor_name":"/model.23/TopK_output_1"}]},{"backend":"bpu","loc":"loc(fused<#hbdk.track<resultName = [\"/model.23/Expand_output_0\"], layerName = \"/model.23/Unsqueeze_id_1723\", layerId = 1723, originalOps = 0, originalCycles = 7, originalOutputsShape = [<1, 300, 1>]>>[\"/model.23/Unsqueeze\"])","op":"%942 = \"hbir.reshape\"(%indices) <{foldable = true, shape = [1, 300, 1]}> : (tensor<1x300xsi64>) -> tensor<1x300x1xsi64>","tensor_names":[{"data_type":"si64","tensor_name":"/model.23/Expand_output_0"}]},{"backend":"bpu","loc":"loc(fused<#hbdk.track<resultName = [\"/model.23/Flatten_1_output_0\"], layerName = \"/model.23/Flatten_1_id_1724\", layerId = 1724, originalOps = 0, originalCycles = 7, originalOutputsShape = [<300, 1>]>>[\"/model.23/Flatten_1\"])","op":"%943 = \"hbir.reshape\"(%indices) <{foldable = true, shape = [300, 1]}> : (tensor<1x300xsi64>) -> tensor<300x1xsi64>","tensor_names":[{"data_type":"si64","tensor_name":"/model.23/Flatten_1_output_0"}]},{"backend":"bpu","loc":"loc(fused<#hbdk.track<resultName = [\"/model.23/Tile_output_0\"], layerName = \"/model.23/Tile_id_1725\", layerId = 1725, originalOps = 0, originalCycles = 782, originalOutputsShape = [<1, 300, 125>]>>[\"/model.23/Tile\"])","op":"%944 = \"hbir.tile\"(%942) <{multiplies = [1, 1, 125]}> : (tensor<1x300x1xsi64>) -> tensor<1x300x125xsi64>","tensor_names":[{"data_type":"si64","tensor_name":"/model.23/Tile_output_0"}]},{"backend":"bpu","loc":"loc(fused<#hbdk.track<resultName = [\"/model.23/GatherElements_output_0_calibrated\"], resultType = [!qnt.uniform<si16:f32, 0.01961609348654747>], layerName = \"/model.23/GatherElements_id_1726\", layerId = 1726, originalOps = 0, originalCycles = 10938, originalOutputsShape = [<1, 300, 125>]>>[\"/model.23/GatherElements\"])","op":"%945 = \"hbir.gather_elements\"(%933, %944) <{dim = 1 : i64}> : (tensor<1x8400x125x!qnt.uniform<si16:f32, 0.01961609348654747>>, tensor<1x300x125xsi64>) -> tensor<1x300x125x!qnt.uniform<si16:f32, 0.01961609348654747>>","tensor_names":[{"data_type":"si16","tensor_name":"/model.23/GatherElements_output_0_calibrated"}]},{"backend":"bpu","loc":"loc(fused<#hbdk.track<resultName = [\"/model.23/Flatten_output_0_calibrated\"], resultType = [!qnt.uniform<si16:f32, 0.01961609348654747>], layerName = \"/model.23/Flatten_id_1728\", layerId = 1728, originalOps = 0, originalCycles = 391, originalOutputsShape = [<1, 37500>]>>[\"/model.23/Flatten\"])","op":"%946 = \"hbir.reshape\"(%945) <{foldable = true, shape = [1, 37500]}> : (tensor<1x300x125x!qnt.uniform<si16:f32, 0.01961609348654747>>) -> tensor<1x37500x!qnt.uniform<si16:f32, 0.01961609348654747>>","tensor_names":[{"data_type":"si16","tensor_name":"/model.23/Flatten_output_0_calibrated"}]},{"backend":"external_cpu","choice_reason":"hbir.topk is not currently supported on bpu.","loc":"loc(fused<#hbdk.track<resultName = [\"/model.23/TopK_1_output_0\", \"/model.23/TopK_1_output_1\"], resultType = [!qnt.uniform<si16:f32, 0.01961609348654747>], layerName = \"/model.23/TopK_1_id_1730\", layerId = 1730, originalOps = 0, originalCycles = 1, originalOutputsShape = [<1, 300>, <1, 300>]>>[\"/model.23/TopK_1\"])","op":"%values_0, %indices_1 = \"hbir.topk\"(%946) <{dim = 1 : i64, k = 300 : i64, largest = true, sorted = true}> : (tensor<1x37500x!qnt.uniform<si16:f32, 0.01961609348654747>>) -> (tensor<1x300x!qnt.uniform<si16:f32, 0.01961609348654747>>, tensor<1x300xsi64>)","tensor_names":[{"data_type":"si16","tensor_name":"/model.23/TopK_1_output_0"},{"data_type":"si64","tensor_name":"/model.23/TopK_1_output_1"}]},{"backend":"external_cpu","choice_reason":"hbir.div is not currently supported on bpu.","loc":"loc(fused<#hbdk.track<resultName = [\"/model.23/Add_2_output_0\"], layerName = \"/model.23/Div_1_id_1732\", layerId = 1732, originalOps = 0, originalCycles = 10, originalOutputsShape = [<1, 300>]>>[\"/model.23/Div_1\"])","op":"%948 = \"hbir.div\"(%indices_1, %947) <{rounding_mode = #hbdk<RoundMode TRUNC>}> : (tensor<1x300xsi64>, tensor<1x1xsi64>) -> tensor<1x300xsi64>","tensor_names":[{"data_type":"si64","tensor_name":"/model.23/Add_2_output_0"}]},{"backend":"bpu","loc":"loc(fused<#hbdk.track<resultName = [\"/model.23/Unsqueeze_1_output_0_calibrated\"], resultType = [!qnt.uniform<si16:f32, 0.01961609348654747>], layerName = \"/model.23/Unsqueeze_1_id_1733\", layerId = 1733, originalOps = 0, originalCycles = 4, originalOutputsShape = [<1, 300, 1>]>>[\"/model.23/Unsqueeze_1\"])","op":"%949 = \"hbir.reshape\"(%values_0) <{foldable = true, shape = [1, 300, 1]}> : (tensor<1x300x!qnt.uniform<si16:f32, 0.01961609348654747>>) -> tensor<1x300x1x!qnt.uniform<si16:f32, 0.01961609348654747>>","tensor_names":[{"data_type":"si16","tensor_name":"/model.23/Unsqueeze_1_output_0_calibrated"}]},{"backend":"external_cpu","choice_reason":"hbir.mod is not currently supported on bpu.","loc":"loc(fused<#hbdk.track<resultName = [\"/model.23/Mod_output_0\"], layerName = \"/model.23/Mod_id_1735\", layerId = 1735, originalOps = 0, originalCycles = 10, originalOutputsShape = [<1, 300>]>>[\"/model.23/Mod\"])","op":"%951 = \"hbir.mod\"(%indices_1, %950) <{sameSignAsDividend = false}> : (tensor<1x300xsi64>, tensor<1xsi64>) -> tensor<1x300xsi64>","tensor_names":[{"data_type":"si64","tensor_name":"/model.23/Mod_output_0"}]},{"backend":"bpu","loc":"loc(fused<#hbdk.track<resultName = [\"/model.23/Unsqueeze_2_output_0\"], layerName = \"/model.23/Unsqueeze_2_id_1736\", layerId = 1736, originalOps = 0, originalCycles = 7, originalOutputsShape = [<1, 300, 1>]>>[\"/model.23/Unsqueeze_2\"])","op":"%952 = \"hbir.reshape\"(%951) <{foldable = true, shape = [1, 300, 1]}> : (tensor<1x300xsi64>) -> tensor<1x300x1xsi64>","tensor_names":[{"data_type":"si64","tensor_name":"/model.23/Unsqueeze_2_output_0"}]},{"backend":"external_cpu","choice_reason":"The type of hbir.index's fin is si64, which should be si8, si16, si32, f16, f32 on bpu.\n","loc":"loc(fused<#hbdk.track<resultName = [\"/model.23/Expand_1_output_0\"], layerName = \"/model.23/Gather_3_id_1737\", layerId = 1737, originalOps = 0, originalCycles = 7, originalOutputsShape = [<1, 300, 1>]>>[\"/model.23/Gather_3\"])","op":"%953 = \"hbir.index\"(%943, %948) <{dim = 0 : i64}> : (tensor<300x1xsi64>, tensor<1x300xsi64>) -> tensor<1x300x1xsi64>","tensor_names":[{"data_type":"si64","tensor_name":"/model.23/Expand_1_output_0"}]},{"backend":"external_cpu","choice_reason":"The type of hbir.cast_type's fin is si64, which should be si8, si16, !hbir.bool8 on bpu.\n","loc":"loc(fused<#hbdk.track<resultName = [\"/model.23/Cast_2_output_0_calibrated\"], resultType = [!qnt.uniform<si16:f32, 1.000000e+00>], layerName = \"/model.23/Cast_2_id_1738\", layerId = 1738, originalOps = 0, originalCycles = 1, originalOutputsShape = [<1, 300, 1>]>>[\"/model.23/Cast_2\"])","op":"%954 = \"hbir.cast_type\"(%952) : (tensor<1x300x1xsi64>) -> tensor<1x300x1x!qnt.uniform<si16:f32, 1.000000e+00>>","tensor_names":[{"data_type":"si16","tensor_name":"/model.23/Cast_2_output_0_calibrated"}]},{"backend":"bpu","loc":"loc(fused<#hbdk.track<resultName = [\"/model.23/Tile_1_output_0\"], layerName = \"/model.23/Tile_1_id_1740\", layerId = 1740, originalOps = 0, originalCycles = 25, originalOutputsShape = [<1, 300, 4>]>>[\"/model.23/Tile_1\"])","op":"%955 = \"hbir.tile\"(%953) <{multiplies = [1, 1, 4]}> : (tensor<1x300x1xsi64>) -> tensor<1x300x4xsi64>","tensor_names":[{"data_type":"si64","tensor_name":"/model.23/Tile_1_output_0"}]},{"backend":"bpu","loc":"loc(fused<#hbdk.track<resultName = [\"/model.23/Tile_2_output_0\"], layerName = \"/model.23/Tile_2_id_1741\", layerId = 1741, originalOps = 0, originalCycles = 200, originalOutputsShape = [<1, 300, 32>]>>[\"/model.23/Tile_2\"])","op":"%956 = \"hbir.tile\"(%953) <{multiplies = [1, 1, 32]}> : (tensor<1x300x1xsi64>) -> tensor<1x300x32xsi64>","tensor_names":[{"data_type":"si64","tensor_name":"/model.23/Tile_2_output_0"}]},{"backend":"bpu","loc":"loc(fused<#hbdk.track<resultName = [\"/model.23/GatherElements_1_output_0_calibrated\"], resultType = [!qnt.uniform<si16:f32, 0.01961609348654747>], layerName = \"/model.23/GatherElements_1_id_1743\", layerId = 1743, originalOps = 0, originalCycles = 350, originalOutputsShape = [<1, 300, 4>]>>[\"/model.23/GatherElements_1\"])","op":"%957 = \"hbir.gather_elements\"(%919, %955) <{dim = 1 : i64}> : (tensor<1x8400x4x!qnt.uniform<si16:f32, 0.01961609348654747>>, tensor<1x300x4xsi64>) -> tensor<1x300x4x!qnt.uniform<si16:f32, 0.01961609348654747>>","tensor_names":[{"data_type":"si16","tensor_name":"/model.23/GatherElements_1_output_0_calibrated"}]},{"backend":"bpu","loc":"loc(fused<#hbdk.track<resultName = [\"/model.23/GatherElements_2_output_0_calibrated\"], resultType = [!qnt.uniform<si16:f32, 0.01961609348654747>], layerName = \"/model.23/GatherElements_2_id_1745\", layerId = 1745, originalOps = 0, originalCycles = 2800, originalOutputsShape = [<1, 300, 32>]>>[\"/model.23/GatherElements_2\"])","op":"%958 = \"hbir.gather_elements\"(%887, %956) <{dim = 1 : i64}> : (tensor<1x8400x32x!qnt.uniform<si16:f32, 0.01961609348654747>>, tensor<1x300x32xsi64>) -> tensor<1x300x32x!qnt.uniform<si16:f32, 0.01961609348654747>>","tensor_names":[{"data_type":"si16","tensor_name":"/model.23/GatherElements_2_output_0_calibrated"}]},{"backend":"null","loc":"loc(fused<#hbdk.track<resultName = [\"/model.23/GatherElements_1_output_0_calibrated\"], resultType = [!qnt.uniform<si16:f32, 0.019541548565030098>], layerName = \"/model.23/GatherElements_1_output_0_HzCalibration_id_1746\", layerId = 1746, originalOps = 0, originalCycles = 1, originalOutputsShape = [<1, 300, 4>]>>[\"/model.23/GatherElements_1_output_0_HzCalibration\"])","op":"%959 = \"qnt.rcast\"(%957) : (tensor<1x300x4x!qnt.uniform<si16:f32, 0.01961609348654747>>) -> tensor<1x300x4x!qnt.uniform<si16:f32, 0.019541548565030098>>","tensor_names":[{"data_type":"si16","tensor_name":"/model.23/GatherElements_1_output_0_calibrated"}]},{"backend":"null","loc":"loc(fused<#hbdk.track<resultName = [\"/model.23/Unsqueeze_1_output_0_calibrated\"], resultType = [!qnt.uniform<si16:f32, 0.019541548565030098>], layerName = \"/model.23/Unsqueeze_1_output_0_HzCalibration_id_1747\", layerId = 1747, originalOps = 0, originalCycles = 1, originalOutputsShape = [<1, 300, 1>]>>[\"/model.23/Unsqueeze_1_output_0_HzCalibration\"])","op":"%960 = \"qnt.rcast\"(%949) : (tensor<1x300x1x!qnt.uniform<si16:f32, 0.01961609348654747>>) -> tensor<1x300x1x!qnt.uniform<si16:f32, 0.019541548565030098>>","tensor_names":[{"data_type":"si16","tensor_name":"/model.23/Unsqueeze_1_output_0_calibrated"}]},{"backend":"null","loc":"loc(fused<#hbdk.track<resultName = [\"/model.23/Cast_2_output_0_calibrated\"], resultType = [!qnt.uniform<si16:f32, 0.019541548565030098>], layerName = \"/model.23/Cast_2_output_0_HzCalibration_id_1739\", layerId = 1739, originalOps = 0, originalCycles = 1, originalOutputsShape = [<1, 300, 1>]>>[\"/model.23/Cast_2_output_0_HzCalibration\"])","op":"%961 = \"qnt.rcast\"(%954) : (tensor<1x300x1x!qnt.uniform<si16:f32, 1.000000e+00>>) -> tensor<1x300x1x!qnt.uniform<si16:f32, 0.019541548565030098>>","tensor_names":[{"data_type":"si16","tensor_name":"/model.23/Cast_2_output_0_calibrated"}]},{"backend":"null","loc":"loc(fused<#hbdk.track<resultName = [\"/model.23/GatherElements_2_output_0_calibrated\"], resultType = [!qnt.uniform<si16:f32, 0.019541548565030098>], layerName = \"/model.23/GatherElements_2_output_0_HzCalibration_id_1748\", layerId = 1748, originalOps = 0, originalCycles = 1, originalOutputsShape = [<1, 300, 32>]>>[\"/model.23/GatherElements_2_output_0_HzCalibration\"])","op":"%962 = \"qnt.rcast\"(%958) : (tensor<1x300x32x!qnt.uniform<si16:f32, 0.01961609348654747>>) -> tensor<1x300x32x!qnt.uniform<si16:f32, 0.019541548565030098>>","tensor_names":[{"data_type":"si16","tensor_name":"/model.23/GatherElements_2_output_0_calibrated"}]},{"backend":"bpu","loc":"loc(fused<#hbdk.track<resultName = [\"output0\"], resultType = [!qnt.uniform<si16:f32, 0.019541548565030098>], layerName = \"/model.23/Concat_7_id_1749\", layerId = 1749, originalOps = 0, originalCycles = 4735, originalOutputsShape = [<1, 300, 38>]>>[\"/model.23/Concat_7\"])","op":"%963 = \"hbir.concat\"(%959, %960, %961, %962) <{dim = 2 : i64}> : (tensor<1x300x4x!qnt.uniform<si16:f32, 0.019541548565030098>>, tensor<1x300x1x!qnt.uniform<si16:f32, 0.019541548565030098>>, tensor<1x300x1x!qnt.uniform<si16:f32, 0.019541548565030098>>, tensor<1x300x32x!qnt.uniform<si16:f32, 0.019541548565030098>>) -> tensor<1x300x38x!qnt.uniform<si16:f32, 0.019541548565030098>>","tensor_names":[{"data_type":"si16","tensor_name":"output0"}]},{"backend":"vpu","loc":"loc(fused<#hbdk.track<resultName = [\"output0\"], resultType = [!qnt.uniform<si16:f32, 0.019541548565030098>], layerName = \"output0_HzCalibration_id_1750\", layerId = 1750, originalOps = 0, originalCycles = 1, originalOutputsShape = [<1, 300, 38>]>>[\"output0_HzCalibration\"])","op":"%964 = \"qnt.dcast\"(%963) : (tensor<1x300x38x!qnt.uniform<si16:f32, 0.019541548565030098>>) -> tensor<1x300x38xf32>","tensor_names":[{"data_type":"f32","tensor_name":"output0"}]}]